results_local/perceiver_mnist_local_20250415_170344/checkpoints/perceiver-epoch=00-val_acc=0.8830.ckpt (torch, 807877 bytes, 358 tensors)

model.0.latent_provider._query f4 [8, 32]
0.014333834 0.048246656 0.021322522 -0.061865434 0.005438957 -0.02627095 0.016064003 -0.029016556
-0.042699 0.02615724 -0.02744105 -0.06583371 -0.011212391 0.014480065 -0.027588384 0.03364678
0.025247004 -9.540733e-05 -0.016204804 0.030246696 -0.04600994 0.016725456 0.0065590255 0.02673846
0.058457267 0.0058036433 0.017839886 0.03207444 0.013981174 -0.0016838978 0.011303713 0.019734731
-0.029646274 -0.00066993217 -0.0034012725 0.0029008384 -0.034991223 -0.027411802 0.048137944 -0.017920254
-0.0316224 -0.00266503 -0.044858858 -0.04537887 -0.0080633825 0.0423998 -0.018405067 0.022464186
-0.0025540662 -0.03567697 0.022402843 0.033348538 -0.019382078 0.023530046 -0.054395966 0.026510434
-0.022057353 -0.023033902 0.022123925 -0.00095630536 -0.014381136 0.046701793 -0.018918497 0.0008770616
0.02639776 0.020416208 0.11980287 -0.00013504479 0.031065194 -0.06982848 -0.007527801 0.051383574
-0.0047392445 0.015268766 -0.0054023196 0.03311743 0.046115495 -0.009828237 -0.09264011 -0.0089849755
-0.06126845 -0.005874639 -0.0458892 -0.0076122214 0.020122517 0.020126143 0.017240565 0.010173835
0.015005344 -0.06761253 -0.05913499 0.015028172 -0.107081115 -0.008223928 0.07005572 0.039378583
-0.06994161 0.027603503 0.01204389 -0.023467917 -0.0010037285 -0.014779381 0.061535425 -0.02736051
-0.017336275 0.009173709 -0.0076750373 -0.022979375 0.00950864 0.053762507 0.0056423023 0.018864352
-0.030641284 -0.010908814 -0.007974962 0.029181661 -0.0014364324 0.007897058 -0.03662263 0.03688924
0.0108542405 -0.025898708 0.02661286 0.016897501 0.037078284 0.028245257 0.017550433 0.008800164
0.028605934 0.030203903 -0.036425594 -0.04413277 -0.02881638 0.009929631 0.049178634 0.010173143
0.017410576 0.0077825915 -0.055596292 0.0047710813 -0.036248807 0.03223868 -0.021541052 0.030876845
-0.041506093 0.03117504 0.032655895 0.067296125 -0.006837779 0.0004595965 -0.029224843 0.005573079
0.016277 0.00024675395 -0.01908231 0.06731693 -0.05068946 -0.0058689453 -0.018658577 0.01696889
-0.06271933 0.005359301 0.003090638 -0.019138763 -0.023994379 -0.058118697 0.04416349 -0.020353597
-0.037768584 0.030770665 0.024098577 -0.01211404 -0.035715155 0.013761543 0.01375623 0.07710216
-0.005111151 0.0076313037 -0.015263664 0.015824422 -0.03162695 -0.023003852 -0.031554867 -0.005684032
-0.008195834 -0.060661938 -0.03676585 0.015920259 0.026458144 -0.002169667 0.027713224 0.014222103
0.018871645 -0.0046311724 0.019896638 -0.038977057 -0.045010127 -0.010702224 0.066768855 0.00042678168
-0.00928679 0.02934053 -0.05206225 -0.07111637 0.025065167 0.06533637 0.027609773 0.05374372
0.0011214652 -0.054782208 0.008280724 -0.004262066 -0.026010415 0.009832316 -0.04942122 -0.015340589
0.007810489 -0.0008338713 0.011132222 0.010858492 0.020496013 0.018647676 0.011384492 0.034282047
-0.0046057403 0.043010857 0.01710902 -0.06106839 -0.011158634 -0.008562759 0.02712992 0.010211119
-0.031232858 -0.018829381 -0.06053857 -0.052080933 0.010582245 0.031565264 -0.014834239 0.031362604
-0.0048283874 0.0014083516 -0.0002692861 0.018931963 -0.05085499 -0.005060015 -0.007914019 0.023878733
0.05773588 -0.01411431 0.028025884 0.014685718 0.02402412 -0.0070687197 0.007861188 0.008136988
00000000: 75d8 6a3c 499e 453d 92ac ae3c 9c66 7dbd
00000010: 4739 b23b 2d36 d7bc a898 833c 21b4 edbc
00000020: 26e5 2ebd b547 d63c 0ecc e0bc d3d3 86bd
00000030: 2db4 37bc cb3d 6d3c 0901 e2bc 35d1 093d
00000040: ced2 ce3c 6c15 c8b8 f0bf 84bc ebc7 f73c
00000050: eb74 3cbd d303 893c 18ed d63b 9d0a db3c
00000060: e370 6f3d 7d2c be3b f424 923c 7d60 033d
00000070: 4b11 653c 3cb6 dcba 3533 393c bbaa a13c
00000080: bedc f2bc 639e 2fba e2e7 5ebb fe1b 3e3b
00000090: f552 0fbd b78e e0bc 4b2c 453d 7fcd 92bc
000000a0: 7d86 01bd c9a7 2ebb ecbd 37bd 32df 39bd
000000b0: 471c 04bc 6aab 2d3d 39c6 96bc d006 b83c
000000c0: 1f62 27bb 0422 12bd 2b86 b73c 7a98 083d
000000d0: 2ac7 9ebc 15c2 c03c 4ece 5ebd 692c d93c
000000e0: 9fb1 b4bc 98b1 bcbc 3c3d b53c 91b0 7aba
000000f0: db9e 6bbc 614a 3f3d f7fa 9abc 9cea 653a
00000100: 1d40 d83c e43f a73c 355b f53d cf9a 0db9
00000110: 6f7c fe3c 3c02 8fbd c6ab f6bb 9577 523d
00000120: aa4b 9bbb d929 7a3c f105 b1bb 24a6 073d
00000130: 9ae3 3c3d 9d06 21bc 19ba bdbd b835 13bc
00000140: a0f4 7abd 0b80 c0bb 50f6 3bbd f16f f9bb
00000150: fad7 a43c 95df a43c 163c 8d3c 28b0 263c
00000160: f9d8 753c 7078 8abd 8837 72bd b938 763c
00000170: 584d dbbd a7bd 06bc 6079 8f3d 704b 213d
00000180: 8c3d 8fbd be20 e23c bc53 453c ca3f c0bc
00000190: 8a8f 83ba 3825 72bc 920c 7c3d 2623 e0bc
000001a0: ce04 8ebc 534d 163c e17e fbbb 3e3f bcbc
000001b0: 20ca 1b3c 1336 5c3d 10e3 b83b 6a89 9a3c
000001c0: 6e03 fbbc e2ba 32bc 6aa9 02bc 610e ef3c
000001d0: ac46 bcba a962 013c 9c01 16bd 2c19 173d
000001e0: fcd5 313c 8729 d4bc 3603 da3c a16c 8a3c
000001f0: 66df 173d 9962 e73c edc5 8f3c 902e 103c
00000200: fe56 ea3c 2d6e f73c 0133 15bd 90c4 34bd
00000210: 5410 ecbc e4af 223c 896f 493d 41ad 263c
00000220: a0a0 8e3c 1c05 ff3b f0b8 63bd bb56 9c3b
00000230: a179 14bd b50c 043d dc76 b0bc 70f1 fc3c
00000240: 4b02 2abd cc62 ff3c 30c2 053d 8dd2 893d
00000250: 730f e0bb fff5 f039 f068 efbc 609e b63b
00000260: 5857 853c c15e 8139 8152 9cbc 75dd 893d
00000270: c09f 4fbd 4850 c0bb dfd9 98bc 5702 8b3c
00000280: fe72 80bd 139d af3b 4d8c 4a3b e5c8 9cbc
00000290: dc8f c4bc df0d 6ebd c7e4 343d 96bc a6bc
000002a0: 3bb3 1abd c312 fc3c 616a c53c f779 46bc
000002b0: 0e4a 12bd 1878 613c cf61 613c bde7 9d3d
000002c0: 717b a7bb 0410 fa3b 7214 7abc 38a2 813c
000002d0: 438b 01bd 9372 bcbc ad3f 01bd 1e41 babb
000002e0: d247 06bc a778 78bd ca97 16bd 346b 823c
000002f0: c0be d83c f930 0ebb d806 e33c d303 693c
00000300: b598 9a3c 17c1 97bb 46fe a23c 68a6 1fbd
00000310: 8a5c 38bd 6258 2fbc 1cbe 883d abc1 df39
00000320: 9f27 18bc 8d5b f03c 3a3f 55bd 76a5 91bd
00000330: 7755 cd3c 13cf 853d e42d e23c 6022 5c3d
00000340: 21fe 923a 4f63 60bd e0ab 073c cda8 8bbb
00000350: cb13 d5bc b917 213c e86d 4abd 1857 7bbc
00000360: 21ef ff3b 2898 5aba ec63 363c d1e7 313c
00000370: 41e7 a73c 03c3 983c 0586 3a3c 556b 0c3d
00000380: c0eb 96bb 272c 303d 3728 8c3c d922 7abd
00000390: b4d2 36bc d04a 0cbc 913f de3c 8a4c 273c
000003a0: 0ddc ffbc 1340 9abc 4bf7 77bd d152 55bd
000003b0: 2761 2d3c 944a 013d 4f0b 73bc 1376 003d
000003c0: 7337 9ebb 7098 b83a f82e 8db9 3417 9b3c
000003d0: 524d 50bd 7bce a5bb cda9 01bc 559d c33c
000003e0: 757c 6c3d b53f 67bc 8a96 e53c 5e9c 703c
000003f0: 3bce c43c b8a0 e7bb 36cc 003c 0051 053c

model.0.input_adapter.position_encoding.position_encoding f4 [784, 34]
-1.0 -1.0 8.742278e-08 -0.433883 -0.78183067 -0.97492814 -0.9749282 -0.7818326
-0.43388742 -2.6544303e-06 8.742278e-08 -0.433883 -0.78183067 -0.97492814 -0.9749282 -0.7818326
-0.43388742 -2.6544303e-06 -1.0 -0.9009692 -0.6234908 -0.22251983 0.22251971 0.6234885
0.9009671 1.0 -1.0 -0.9009692 -0.6234908 -0.22251983 0.22251971 0.6234885
0.9009671 1.0 -1.0 -0.9259259 8.742278e-08 -0.433883 -0.78183067 -0.97492814
-0.9749282 -0.7818326 -0.43388742 -2.6544303e-06 -0.23061582 -0.89733183 -0.911506 -0.26283082
0.5769749 0.9972037 0.69226325 -0.11609216 -1.0 -0.9009692 -0.6234908 -0.22251983
0.22251971 0.6234885 0.9009671 1.0 -0.9730449 -0.44135648 0.41128674 0.96484196
0.81676185 0.07473147 -0.7216451 -0.99323845 -1.0 -0.8518518 8.742278e-08 -0.433883
-0.78183067 -0.97492814 -0.9749282 -0.7818326 -0.43388742 -2.6544303e-06 -0.44879916 -0.97849184
-0.049846362 0.95309025 0.53554624 -0.68017197 -0.88216597 0.23061697 -1.0 -0.9009692
-0.6234908 -0.22251983 0.22251971 0.6234885 0.9009671 1.0 -0.89363265 0.20628539
0.9987569 0.30268618 -0.8445059 -0.73305255 0.4709386 0.97304463 -1.0 -0.7777778
8.742278e-08 -0.433883 -0.78183067 -0.97492814 -0.9749282 -0.7818326 -0.43388742 -2.6544303e-06
-0.64278746 -0.642788 0.86602515 0.34202072 -0.9848075 -6.993822e-07 0.984808 -0.3420194
-1.0 -0.9009692 -0.6234908 -0.22251983 0.22251971 0.6234885 0.9009671 1.0
-0.7660446 0.76604414 0.5000005 -0.93969244 -0.17364976 1.0 -0.17364651 -0.9396929
-1.0 -0.7037037 8.742278e-08 -0.433883 -0.78183067 -0.97492814 -0.9749282 -0.7818326
-0.43388742 -2.6544303e-06 -0.80212325 -0.033238184 0.84002626 -0.92467237 0.21440956 0.680173
-0.9900354 0.44880018 -1.0 -0.9009692 -0.6234908 -0.22251983 0.22251971 0.6234885
0.9009671 1.0 -0.59715855 0.99944746 -0.54254574 -0.3807638 0.9767438 -0.7330516
-0.14081858 0.8936322 -1.0 -0.6296296 8.742278e-08 -0.433883 -0.78183067 -0.97492814
-0.9749282 -0.7818326 -0.43388742 -2.6544303e-06 -0.9182161 0.59047127 -0.09956712 -0.41884685
0.8215288 -0.9972038 0.8973311 -0.5495083 -1.0 -0.9009692 -0.6234908 -0.22251983
0.22251971 0.6234885 0.9009671 1.0 -0.3960798 0.8070587 -0.9950308 0.9080569
-0.570167 0.074730076 0.44135794 -0.83548826 -1.0 -0.5555556 8.742278e-08 -0.433883
-0.78183067 -0.97492814 -0.9749282 -0.7818326 -0.43388742 -2.6544303e-06 -0.9848077 0.9626241
-0.93087345 0.8898716 -0.84002537 0.7818305 -0.715866 0.6427855 -1.0 -0.9009692
-0.6234908 -0.22251983 0.22251971 0.6234885 0.9009671 1.0 -0.1736483 0.27084115
-0.36534178 0.45621103 -0.5425471 0.62349105 -0.69823766 0.7660462 -1.0 -0.4814815
8.742278e-08 -0.433883 -0.78183067 -0.97492814 -0.9749282 -0.7818326 -0.43388742 -2.6544303e-06
-0.9983082 0.9246729 -0.7497818 0.49278498 -0.18182833 -0.14904103 0.4635897 -0.72737306
00000000: 0000 80bf 0000 80bf 2ebd bb33 ea25 debe
00000010: 0e26 48bf e494 79bf e594 79bf 2e26 48bf
00000020: 7e26 debe c422 32b6 2ebd bb33 ea25 debe
00000030: 0e26 48bf e494 79bf e594 79bf 2e26 48bf
00000040: 7e26 debe c422 32b6 0000 80bf eba5 66bf
00000050: 189d 1fbf 3ddc 63be 35dc 633e f19c 1f3f
00000060: c8a5 663f 0000 803f 0000 80bf eba5 66bf
00000070: 189d 1fbf 3ddc 63be 35dc 633e f19c 1f3f
00000080: c8a5 663f 0000 803f 0000 80bf 7b09 6dbf
00000090: 2ebd bb33 ea25 debe 0e26 48bf e494 79bf
000000a0: e594 79bf 2e26 48bf 7e26 debe c422 32b6
000000b0: 8e26 6cbe 8ab7 65bf 7558 69bf c391 86be
000000c0: a1b4 133f be48 7f3f 2a38 313f bac1 edbd
000000d0: 0000 80bf eba5 66bf 189d 1fbf 3ddc 63be
000000e0: 35dc 633e f19c 1f3f c8a5 663f 0000 803f
000000f0: 7819 79bf 7af9 e1be 2d94 d23e e2ff 763f
00000100: 4e17 513f d00c 993d bcbd 38bf e044 7ebf
00000110: 0000 80bf f612 5abf 2ebd bb33 ea25 debe
00000120: 0e26 48bf e494 79bf e594 79bf 2e26 48bf
00000130: 7e26 debe c422 32b6 01c9 e5be 717e 7abf
00000140: b32b 4cbd b9fd 733f 8f19 093f c01f 2ebf
00000150: a1d5 61bf db26 6c3e 0000 80bf eba5 66bf
00000160: 189d 1fbf 3ddc 63be 35dc 633e f19c 1f3f
00000170: c8a5 663f 0000 803f 1cc5 64bf 7a3c 533e
00000180: 88ae 7f3f aff9 9a3e 8a31 58bf 55a9 3bbf
00000190: dd1e f13e 7419 793f 0000 80bf 721c 47bf
000001a0: 2ebd bb33 ea25 debe 0e26 48bf e494 79bf
000001b0: e594 79bf 2e26 48bf 7e26 debe c422 32b6
000001c0: b88d 24bf c18d 24bf d3b3 5d3f 571d af3e
000001d0: 581c 7cbf 2ebd 3bb5 611c 7c3f 2b1d afbe
000001e0: 0000 80bf eba5 66bf 189d 1fbf 3ddc 63be
000001f0: 35dc 633e f19c 1f3f c8a5 663f 0000 803f
00000200: 801b 44bf 781b 443f 0800 003f af8f 70bf
00000210: 3ed1 31be 0000 803f 64d0 31be b78f 70bf
00000220: 0000 80bf ed25 34bf 2ebd bb33 ea25 debe
00000230: 0e26 48bf e494 79bf e594 79bf 2e26 48bf
00000240: 7e26 debe c422 32b6 f357 4dbf c324 08bd
00000250: f60b 573f 54b7 6cbf 2e8e 5b3e d11f 2e3f
00000260: f672 7dbf 23c9 e53e 0000 80bf eba5 66bf
00000270: 189d 1fbf 3ddc 63be 35dc 633e f19c 1f3f
00000280: c8a5 663f 0000 803f 62df 18bf cadb 7f3f
00000290: 47e4 0abf 79f3 c2be e20b 7a3f 45a9 3bbf
000002a0: bf32 10be 14c5 643f 0000 80bf 682f 21bf
000002b0: 2ebd bb33 ea25 debe 0e26 48bf e494 79bf
000002c0: e594 79bf 2e26 48bf 7e26 debe c422 32b6
000002d0: 3610 6bbf 2029 173f d9e9 cbbd 1873 d6be
000002e0: b64f 523f c048 7fbf 7eb7 653f 93ac 0cbf
000002f0: 0000 80bf eba5 66bf 189d 1fbf 3ddc 63be
00000300: 35dc 633e f19c 1f3f c8a5 663f 0000 803f
00000310: f9ca cabe 669b 4e3f 57ba 7ebf 6b76 683f
00000320: 77f6 11bf 150c 993d abf9 e13e 8fe2 55bf
00000330: 0000 80bf e438 0ebf 2ebd bb33 ea25 debe
00000340: 0e26 48bf e494 79bf e594 79bf 2e26 48bf
00000350: 7e26 debe c422 32b6 5c1c 7cbf 886e 763f
00000360: b94d 6ebf a0ce 633f e70b 57bf 0b26 483f
00000370: ff42 37bf 978d 243f 0000 80bf eba5 66bf
00000380: 189d 1fbf 3ddc 63be 35dc 633e f19c 1f3f
00000390: c8a5 663f 0000 803f dcd0 31be b1ab 8a3e
000003a0: 140e bbbe 7e94 e93e 5ee4 0abf 1c9d 1f3f
000003b0: b4bf 32bf 9b1b 443f 0000 80bf be84 f6be
000003c0: 2ebd bb33 ea25 debe 0e26 48bf e494 79bf
000003d0: e594 79bf 2e26 48bf 7e26 debe c422 32b6
000003e0: 2091 7fbf 5db7 6c3f b3f1 3fbf 504e fc3e
000003f0: 3531 3abe 369e 18be a15b ed3e 1f35 3abf

model.0.cross_attn_1.0.module.q_norm.weight f4 [32]
1.03272 1.0865946 1.1317309 1.1129851 0.983718 1.1785165 1.1103076 1.1291791
1.0582268 1.0649552 1.0917293 1.0513546 1.0726236 1.0313233 1.1769547 1.0446103
1.1326631 1.0558097 1.1056492 1.1614119 1.0839653 1.0637755 1.044952 0.9410238
0.98641276 1.1486017 1.0884049 1.1004974 1.1976762 1.0498934 1.0804858 1.1317211
00000000: 2b30 843f 8815 8b3f 8fdc 903f 4c76 8e3f
00000010: f1d4 7b3f a1d9 963f 8f1e 8e3f f188 903f
00000020: fa73 873f 7450 883f c9bd 8b3f ca92 863f
00000030: bb4b 893f 6702 843f 74a6 963f cab5 853f
00000040: 1bfb 903f c624 873f ea85 8d3f 25a9 943f
00000050: 60bf 8a3f cc29 883f fdc0 853f f0e6 703f
00000060: 8c85 7c3f 6105 933f da50 8b3f 19dd 8c3f
00000070: 744d 993f e862 863f 5c4d 8a3f 3ddc 903f

model.0.cross_attn_1.0.module.q_norm.bias f4 [32]
-0.074263886 0.13782988 0.11688643 -0.13107616 -0.11532563 -0.16172294 0.11444057 0.101663
-0.09516884 0.07232579 -0.114489935 -0.08041824 -0.0697717 0.0422419 -0.15284066 0.09029057
-0.12166456 -0.09855204 -0.12385328 0.15555489 -0.11686044 0.10580916 -0.058306996 0.09365573
0.0807508 -0.14372292 -0.078556724 0.116133146 -0.1323833 0.09413089 0.110173725 0.14852865
00000000: aa17 98bd 4723 0d3e 2762 ef3d d438 06be
00000010: d82f ecbd b39a 25be d15f ea3d b134 d03d
00000020: e1e7 c2bd 8b1f 943d b379 eabd 51b2 a4bd
00000030: 77e4 8ebd d805 2d3d 4382 1cbe 43ea b83d
00000040: 452b f9bd a7d5 c9bd caa6 fdbd c849 1f3e
00000050: 8754 efbd 79b2 d83d 51d3 6ebd 93ce bf3d
00000060: ad60 a53d 1a2c 13be 59e2 a0bd 37d7 ed3d
00000070: 7d8f 07be b2c7 c03d c3a2 e13d e517 183e

model.0.cross_attn_1.0.module.kv_norm.weight f4 [35]
1.1563364 1.0118692 1.0883335 1.215449 1.1225674 1.0659019 1.0564427 0.9627364
0.9691547 0.9125324 0.9318602 1.1474669 1.0625936 0.96460426 0.9703805 0.97863567
0.9544211 0.97024083 0.9746629 1.2072198 1.0467906 0.9821861 0.9465161 1.037065
0.9817782 0.9707697 1.0246985 0.99676114 1.0224253 0.9971347 0.929932 0.9788517
0.9985955 0.9707105 1.0086749
00000000: d502 943f ee84 813f 834e 8b3f d593 9b3f
00000010: 4ab0 8f3f 796f 883f 8439 873f e575 763f
00000020: 861a 783f b99b 693f 648e 6e3f 32e0 923f
00000030: 1103 883f 4ef0 763f db6a 783f de87 7a3f
00000040: f154 743f b461 783f 8283 793f 2e86 9a3f
00000050: 3cfd 853f 8c70 7b3f e14e 723f 8cbe 843f
00000060: d155 7b3f 5d84 783f 5229 833f bd2b 7f3f
00000070: d5de 823f 3844 7f3f 0610 6e3f 0696 7a3f
00000080: f4a3 7f3f 7c80 783f 421c 813f

model.0.cross_attn_1.0.module.kv_norm.bias f4 [35]
-0.02125367 -0.0045634466 0.020248607 -0.0072662993 0.007471935 0.005815088 0.00862288 0.008601161
-0.010682241 -0.00076821557 -0.015216152 -0.009167146 -0.0012032749 0.017033987 0.016764276 0.0007431985
0.0044207163 -0.00027957206 0.018367168 -0.04031861 -0.005268612 -0.002119307 0.06451439 0.02661693
0.066218 0.038195297 0.0084214145 -0.06854937 0.009103349 0.006764332 0.037667096 0.006109831
0.04868734 0.035103634 0.039303932
00000000: 2d1c aebc f788 95bb 68e0 a53c 231a eebb
00000010: 22d7 f43b 7e8c be3b fb46 0d3c e2eb 0c3c
00000020: 9104 2fbc 1362 49ba 2b4d 79bc cc31 16bc
00000030: 35b7 9dba dc8a 8b3c 3c55 893c 35d3 423a
00000040: a8db 903b 8793 92b9 be76 963c 2025 25bd
00000050: 52a4 acbb 12e4 0abb 1f20 843d bf0b da3c
00000060: 4e9d 873d ac72 1c3d f9f9 093c 9d63 8cbd
00000070: 3726 153c 54a7 dd3b d048 1a3d fa34 c83b
00000080: 606c 473d d4c8 0f3d 29fd 203d

model.0.cross_attn_1.0.module.attention.q_proj.weight f4 [32, 32]
0.09489111 -0.034672923 -0.002407215 0.08984116 0.065475754 0.033949308 -0.08600494 0.034788422
0.06904915 -0.049611963 0.0047541372 0.09875661 0.09249658 -0.06166891 -0.02142173 -0.10186318
0.03998406 0.081572466 0.04019983 -0.09673559 0.08026352 -0.030010521 0.11611206 -0.107654065
-0.12273881 0.06242836 0.025217129 -0.030397233 0.012964318 -0.046752453 -0.007305562 -0.041485757
0.033757593 0.0067738877 -0.03740424 0.026925107 0.00019649291 -0.023068806 -0.028475016 0.07197558
0.031837747 -0.025152745 -0.035904896 0.00072551524 0.022698598 -0.016212033 0.009140315 -0.0064493166
-0.011016807 -0.03578086 0.024358328 0.031939466 -0.0023089475 -0.0051046424 -0.017809592 0.005677948
-0.04778093 -0.06308287 -0.0032583163 -0.025643498 -0.041649465 0.035721987 -0.0008128076 0.036140867
-0.101368144 0.07542198 0.06262296 -0.11908756 -0.1424687 -0.1278134 0.13401906 0.023878064
-0.1105875 0.023396194 -0.11026214 -0.08955556 -0.042643152 0.09851022 -0.049245145 0.1101878
-0.092420414 -0.08299357 -0.014593085 0.09937638 -0.070574865 0.08364718 -0.12214709 0.10107543
0.07055485 -0.06394409 -0.028173992 0.054296087 -0.087696694 0.09822618 0.03555599 0.06837963
0.065966964 -0.13592927 -0.035840545 0.11980156 0.052696124 0.0839206 -0.10260223 -0.11224434
0.10388323 -0.09018532 0.14678873 0.08663446 0.10197941 -0.11869171 0.05232065 -0.1255916
0.07171441 0.10709055 0.053883642 -0.073097296 0.14019391 -0.09582686 0.09874376 -0.05193287
-0.08843191 0.091011114 0.07571359 -0.070412695 0.08529903 -0.12482589 -0.054782957 -0.090753384
-0.03724108 0.0044433665 -0.014464122 -0.0500468 -0.029519003 -0.0041691368 0.067098595 -0.06468428
-0.047156166 -0.0021028393 -0.037827432 -0.024449155 -0.09015524 0.04918429 0.0453543 0.052755617
-0.037948173 -0.040965185 0.04481674 0.058119252 -0.1058845 -0.009313913 -0.010108359 0.030003514
0.005830576 -0.0082076285 0.033266682 -0.006845819 0.026047137 0.04171632 -0.07444177 -0.01006488
-0.04069317 0.12222867 0.07302186 -0.13759385 -0.0901122 -0.18474407 0.12954332 0.038505696
-0.073993705 0.104797125 -0.08915438 -0.104390755 -0.11584104 0.09655835 -0.10895125 0.13365985
-0.14741522 -0.07516731 -0.089383245 0.18041736 -0.16758966 0.0962594 -0.120708965 0.14874919
0.052192595 -0.16575862 -0.08368266 0.07744064 -0.16528372 0.0995595 0.058576778 0.12786742
-0.04873678 0.04126145 0.02950353 -0.07532647 -0.10419486 -0.076253295 0.09198561 -0.017522976
-0.0449313 -0.01103875 -0.049825493 -0.10104335 -0.042241406 0.07318551 0.009400052 0.081403986
-0.02699117 -0.04698136 0.05866277 0.02633023 -0.084440276 0.0072016604 -0.09034297 0.0674266
0.01227291 -0.05523535 0.01885809 0.03009011 -0.01070143 0.06765002 -0.011647267 0.045937464
0.11159375 -0.08454145 -0.038395066 0.16629377 0.119877115 0.115468234 -0.13227434 0.014221425
0.08047826 -0.092719294 0.13738845 0.11714958 0.1485624 -0.08098075 0.02968122 -0.16277643
0.1048171 0.094854034 0.034600567 -0.13371746 0.17407888 -0.053355403 0.10825098 -0.120783135
-0.12337975 0.04621304 0.029372958 -0.08320681 0.016097004 -0.103872165 0.013971309 -0.072558336
00000000: 4556 c23d 3205 0ebd 5ec2 1dbb a4fe b73d
00000010: 2718 863d 6e0e 0b3d 5c23 b0bd 4e7e 0e3d
00000020: a469 8d3d ea35 4bbd 98c8 9b3b e840 ca3d
00000030: d96e bd3d 8a98 7cbd a07c afbc a59d d0bd
00000040: 53c6 233d 770f a73d 94a8 243d 4f1d c6bd
00000050: 3361 a43d a0d8 f5bc 29cc ed3d bc79 dcbd
00000060: 7c5e fbbd e1b4 7f3d 2794 ce3c 9e03 f9bc
00000070: 4a68 543c 807f 3fbd 7f63 efbb f8ec 29bd
00000080: 6745 0a3d 7df7 dd3b 3035 19bd 0b92 dc3c
00000090: aa09 4e39 cbfa bcbc 7044 e9bc ef67 933d
000000a0: 4c68 023d 210d cebc 0311 13bd 8130 3e3a
000000b0: 69f2 b93c 19cf 84bc 43c1 153c ca54 d3bb
000000c0: d67f 34bc f38e 12bd 1e8b c73c f5d2 023d
000000d0: b651 17bb d844 a7bb 6ce5 91bc 140e ba3b
000000e0: f0b5 43bd 9731 81bd 7a89 55bb 5012 d2bc
000000f0: a198 2abd 3851 123d 9812 55ba 7208 143d
00000100: 1a9a cfbd d776 9a3d 7740 803d 2ee4 f3bd
00000110: 51e3 11be 84e1 02be 4b3c 093e ee9b c33c
00000120: b37b e2bd 60a9 bf3c 1ed1 e1bd e868 b7bd
00000130: 96aa 2ebd babf c93d 47b5 49bd 24aa e13d
00000140: ea46 bdbd 88f8 a9bd d617 6fbc d885 cb3d
00000150: 8e89 90bd 364f ab3d 4128 fabd a300 cf3d
00000160: 107f 903d 1ef5 82bd 25cd e6bc 9365 5e3d
00000170: 539a b3bd cf2a c93d 28a3 113d 9f0a 8c3d
00000180: b019 873d 0b31 0bbe 89cd 12bd 855a f53d
00000190: e4d7 573d 90de ab3d 1e21 d2bd 5ce0 e5bd
000001a0: bbc0 d43d 15b3 b8bd c94f 163e 686d b13d
000001b0: 95da d03d a414 f3bd 2e4e 563d 169b 00be
000001c0: 01df 923d 4a52 db3d 18b5 5c3d 09b4 95bd
000001d0: fe8e 0f3e df40 c4bd 2b3a ca3d 90b7 54bd
000001e0: ca1b b5bd 0964 ba3d ba0f 9b3d 8834 90bd
000001f0: 42b1 ae3d b7a4 ffbd 1864 60bd e9dc b9bd
00000200: 1a8a 18bd a999 913b edfa 6cbc e0fd 4cbd
00000210: d6d1 f1bc 419d 88bb fd6a 893d 3179 84bd
00000220: d326 41bd cacf 09bb f0f0 1abd 9849 c8bc
00000230: 4fa3 b8bd 7775 493d 6ec5 393d 4616 583d
00000240: 8b6f 1bbd 1ccb 27bd c291 373d 740e 6e3d
00000250: f9d9 d8bd 6299 18bc 889d 25bc eec9 f53c
00000260: 6b0e bf3b 4a79 06bc a542 083d e452 e0bb
00000270: ce60 d53c bbde 2a3d ed74 98bd 2be7 24bc
00000280: e2ad 26bd 0653 fa3d 7c8c 953d 67e5 0cbe
00000290: bf8c b8bd 8d2d 3dbe 01a7 043e 26b8 1d3d
000002a0: 038a 97bd e09f d63d 9296 b6bd d2ca d5bd
000002b0: 113e edbd 62c0 c53d d521 dfbd 21de 083e
000002c0: 04f4 16be 52f1 99bd 900e b7bd 54bf 383e
000002d0: a09c 2bbe a623 c53d 4336 f7bd b551 183e
000002e0: e7c7 553d a1bc 29be d061 abbd 3399 9e3d
000002f0: 2340 29be dae5 cb3d 34ee 6f3d adef 023e
00000300: 38a0 47bd c401 293d 63b1 f13c c444 9abd
00000310: 1d64 d5bd b02a 9cbd f462 bc3d 588c 8fbc
00000320: e209 38bd e0db 34bc d115 4cbd d1ef cebd
00000330: 5305 2dbd 49e2 953d ad02 1a3c 22b7 a63d
00000340: 961c ddbc 876f 40bd 5f48 703d 7fb2 d73c
00000350: 06ef acbd e8fb eb3b bc05 b9bd f516 8a3d
00000360: 5114 493c 763e 62bd 487c 9a3c 897f f63c
00000370: 0d55 2fbc 188c 8a3d 2ed4 3ebc ec28 3c3d
00000380: 448b e43d 1124 adbd 2544 1dbd ea48 2a3e
00000390: 2282 f53d 9c7a ec3d ed72 07be fb00 693c
000003a0: c9d1 a43d 9de3 bdbd 8faf 0c3e 1eec ef3d
000003b0: be20 183e 3cd9 a5bd 0826 f33c ddae 26be
000003c0: 59aa d63d d542 c23d 53b9 0d3d 3bed 08be
000003d0: bc41 323e 328b 5abd b1b2 dd3d 265d f7bd
000003e0: 86ae fcbd e249 3d3d 8f9f f03c 5568 aabd
000003f0: dddd 833c eeba d4bd ebe7 643c 7799 94bd

model.0.cross_attn_1.0.module.attention.q_proj.bias f4 [32]
-0.04700681 0.010830328 0.0867582 -0.095091335 0.017142043 0.11370601 0.043202758 -0.092751086
-0.07924306 -0.09142848 -0.005470042 0.002471988 -0.050095692 0.012318014 0.08512328 0.07975035
0.010227632 -0.10055445 0.14252542 0.10978111 0.082606494 -0.064564876 -0.11295918 -0.031115651
-0.044767525 0.033018593 -0.129717 0.0730839 -0.08519579 0.037250604 0.03910959 -0.07956306
00000000: 368a 40bd b071 313c 48ae b13d 3fbf c2bd
00000010: 786d 8c3c b2de e83d 60f5 303d 48f4 bdbd
00000020: 2f4a a2bd db3e bbbd 0a3e b3bb 1401 223b
00000030: 2431 4dbd 7fd1 493c 1d55 ae3d 2754 a33d
00000040: cc91 273c 7eef cdbd 2ff2 113e ebd4 e03d
00000050: 982d a93d 973a 84bd 2457 e7bd 40e6 febc
00000060: 275e 37bd 813e 073d 89d4 04be 03ad 953d
00000070: 217b aebd 1794 183d 6131 203d f5f1 a2bd

model.0.cross_attn_1.0.module.attention.k_proj.weight f4 [32, 35]
-0.17652458 0.032481663 0.07429733 -0.026601087 0.023954535 -0.0034434032 0.02141325 0.096620195
-0.011042636 0.009289571 0.039321136 0.1035949 0.009895908 0.021794962 0.042179942 -0.044332366
0.07659969 0.0050105997 0.006746105 -0.15779236 0.0065056193 0.053261478 0.053645782 0.01722607
0.039467666 0.056263905 0.033460405 -0.21943118 -0.029973544 0.0019331182 -0.017674297 -0.009017726
-0.0133600915 0.06112854 0.08635151 0.08738032 -0.0071084774 -0.0762936 0.031735342 -0.038572513
0.01599456 0.0068944753 -0.011303249 0.012157742 -0.009680414 -0.043769866 -0.09512892 0.030315468
0.025620429 -0.016563078 0.027131932 -0.02096201 -0.0007113358 0.0054311366 0.12329403 0.0063162455
-0.05745468 0.0025143865 0.0040298156 0.004340344 -0.022411922 -0.021011192 0.14238994 -0.017976595
0.004137591 -0.010687856 0.030771762 -0.04579679 0.019087369 -0.032248206 0.27793562 -0.0230392
-0.074246645 -0.005888533 -0.054122794 -0.0010680729 -0.03617755 -0.04234307 -0.0017448686 -0.038803477
-0.030012777 -0.11545477 -0.0126372995 -0.013096509 -0.014004278 -0.021258056 -0.041674253 0.028024701
-0.019960575 0.2095432 -0.033730578 -0.07927998 -0.035188027 -0.02445206 -0.05768285 -0.019083466
-0.039101582 0.23361942 0.010199004 0.014633083 -0.041376453 0.003036923 -0.014325378 -0.08707258
-0.10930908 -0.2325923 0.07889859 0.1161198 -0.06313044 0.08510136 -0.001505489 0.0632312
-0.010136026 0.050679542 0.066314094 0.09335619 0.09713012 0.04338863 0.034077305 0.048814602
0.038517036 0.011354095 -0.05882195 0.08740517 -0.21246125 -0.046855904 0.08122337 -0.019702235
-0.02978969 -0.041410353 -0.0034222258 0.10050029 -0.26295596 0.019852674 -0.008730469 -0.01934324
-0.080128096 0.04463908 -0.0032493745 0.052831132 0.16292885 -0.018991968 -0.038718674 0.029812487
-0.039895136 -0.0039821058 0.012762035 -0.08785809 -0.02274092 -0.03149301 0.021506673 -0.05939995
-0.047680035 -0.024194587 -0.04676499 0.023426725 -0.036293145 -0.027103925 -0.010612107 0.13240379
-0.043634783 -0.060893953 -0.04149169 -0.019061238 -0.07129762 0.020619174 -0.009518613 0.20223357
0.036246162 0.017554147 0.02161578 -0.031542566 0.016123202 -0.05521009 -0.08753966 0.30542198
-0.0014979519 -0.0881235 0.049005456 -0.06278454 -0.020280616 -0.03097352 -0.049407836 0.0012170249
0.014876612 -0.051516447 -0.09314364 -0.027764386 -0.049006253 -0.027346227 0.0070033586 -0.022587627
0.004473584 -0.029633943 0.17804384 -0.011920987 -0.054283764 0.0034688432 -0.05247946 -0.027111417
-0.05799161 -0.061089978 0.26355627 -0.003077782 -0.040549397 -0.03644315 0.0030665465 -0.01474327
-0.07563107 -0.09244689 0.17170942 -0.010956974 -0.059075117 0.033942536 -0.050273266 -0.02601502
-0.03792452 -0.05609221 0.005311859 -0.030073693 -0.048538327 -0.10749428 -0.017461458 -0.03708672
-0.0345514 -0.001037228 -0.06853267 -0.02390436 0.009545661 0.17480122 -0.023698978 -0.084737085
-0.036395364 -0.026772302 -0.02284085 -0.017874219 -0.00634613 0.21492025 0.021607278 -0.0060576727
0.007028763 -0.025346564 0.011422897 -0.014838279 -0.079374306 -0.24400873 0.027700605 0.04068425
-0.06983616 0.058372702 0.014663609 0.06476882 0.0714594 0.009759351 0.018233635 0.06773129
00000000: dcc2 34be 7e0b 053d 3329 983d 86ea d9bc
00000010: 4d3c c43c b8aa 61bb d76a af3c cfe0 c53d
00000020: 2cec 34bc 4933 183c 330f 213d 9029 d43d
00000030: 7222 223c 598b b23c e0c4 2c3d db95 35bd
00000040: 4ce0 9c3d f52f a43b 6e0e dd3b 5294 21be
00000050: 172d d53b b528 5a3d aebb 5b3d b01d 8d3c
00000060: d9a8 213d fb74 663d c70d 093d 91b2 60be
00000070: 148b f5bc af60 fd3a b0c9 90bc 16bf 13bc
00000080: 49e4 5abc ec61 7a3d 0fd9 b03d 74f4 b23d
00000090: 3bee e8bb d23f 9cbd ebfc 013d 36fe 1dbd
000000a0: 0607 833c 0deb e13b 4331 39bc 4431 473c
000000b0: 999a 1ebc 0848 33bd f4d2 c2bd 2558 f83c
000000c0: efe1 d13c 4baf 87bc c943 de3c 85b8 abbc
000000d0: f078 3aba adf7 b13b 9581 fc3d 82f8 ce3b
000000e0: 9955 6bbd 68c8 243b 8b0c 843b 7239 8e3b
000000f0: 3599 b7bc aa1f acbc abce 113e a743 93bc
00000100: a194 873b 1e1c 2fbc 1015 fc3c 6a95 3bbd
00000110: 1d5d 9c3c b216 04bd 944d 8e3e b4bc bcbc
00000120: a00e 98bd 98f4 c0bb ddaf 5dbd 94fe 8bba
00000130: e92e 14bd ed6f 2dbd 13b4 e4ba 65f0 1ebd
00000140: 5bdd f5bc 8d73 ecbd ad0c 4fbc bd92 56bc
00000150: 3372 65bc 6025 aebc 9fb2 2abd 0f94 e53c
00000160: 5c84 a3bc 7e92 563e 1329 0abd 8b5d a2bd
00000170: 5221 10bd b04f c8bc da44 6cbd ee54 9cbc
00000180: fb28 20bd ee39 6f3e b919 273c 99bf 6f3c
00000190: 5b7a 29bd 1d07 473b feb4 6abc 1c53 b2bd
000001a0: 70dd dfbd ad2c 6ebe 9595 a13d 38d0 ed3d
000001b0: 884a 81bd 9f49 ae3d d453 c5ba 5c7f 813d
000001c0: 9311 26bc 5a95 4f3d afcf 873d 8831 bf3d
000001d0: 28ec c63d 47b8 313d a594 0b3d d2f1 473d
000001e0: 0ac4 1d3d 8706 3a3c 49ef 70bd 7b01 b33d
000001f0: 718f 59be faeb 3fbd 7058 a63d 9566 a1bc
00000200: 8209 f4bc e79d 29bd 6c47 60bb 19d3 cd3d
00000210: 2aa2 86be 13a2 a23c 3e0a 0fbc b775 9ebc
00000220: 331a a4bd 78d7 363d 75f3 54bb 7565 583d
00000230: d2d6 263e 0b95 9bbc 7997 1ebd 5139 f43c
00000240: 1569 23bd 537c 82bb db17 513c f1ee b3bd
00000250: 2a4b babc d1fe 00bd c32e b03c 5d4d 73bd
00000260: 244c 43bd ba33 c6bc a58c 3fbd 67e9 bf3c
00000270: 1fa8 14bd 0d09 debc 67de 2dbc dc94 073e
00000280: 63ba 32bd f06b 79bd 31f3 29bd 5026 9cbc
00000290: 7d04 92bd 8be9 a83c f5f3 1bbc 5116 4f3e
000002a0: db76 143d b7cd 8f3c 9413 b13c c732 01bd
000002b0: ce14 843c fa23 62bd fe47 b3bd 4560 9c3e
000002c0: ed56 c4ba 187a b4bd f2b9 483d 2e95 80bd
000002d0: 8923 a6bc 2ebc fdbc df5f 4abd 9484 9f3a
000002e0: 09bd 733c e902 53bd 18c2 bebd 2372 e3bc
000002f0: c8ba 48bd 3205 e0bc 6e7c e53b b009 b9bc
00000300: 2497 923b e2c2 f2bc 2051 363e 3e50 43bc
00000310: a758 5ebd 8855 633b b4f4 56bd c318 debc
00000320: 9c88 6dbd 7c39 7abd d9f0 863e 9db4 49bb
00000330: 2017 26bd 6a45 15bd 1df8 483b c28d 71bc
00000340: 76e4 9abd cc54 bdbd 98d4 2f3e e184 33bc
00000350: c0f8 71bd 5407 0b3d 57eb 4dbd 741d d5bc
00000360: be56 1bbd f2c0 65bd 1a0f ae3b 1b5d f6bc
00000370: 20d0 46bd f625 dcbd 550b 8fbc 3fe8 17bd
00000380: c585 0dbd 99f3 87ba db5a 8cbd 14d3 c3bc
00000390: 6765 1c3c 17ff 323e 5c24 c2bc a38a adbd
000003a0: 4e13 15bd 9651 dbbc bc1c bbbc f46c 92bc
000003b0: 32f3 cfbb 0e14 5c3e bf01 b13c 717f c6bb
000003c0: 8a51 e63b 99a3 cfbc 1a27 3b3c 411c 73bc
000003d0: ff8e a2bd 6ddd 79be 61ec e23c 87a4 263d
000003e0: 4306 8fbd 3718 6f3d a23f 703c 84a5 843d
000003f0: 4e59 923d afe5 1f3c b45e 953c b4b6 8a3d

model.0.cross_attn_1.0.module.attention.k_proj.bias f4 [32]
-0.010471411 -0.0031640443 0.049937256 -0.018017707 0.025768692 0.0052075493 0.020372918 0.006425124
-0.023034122 -0.012225755 -0.010537576 0.0058786236 -0.022331908 0.00037571683 -0.04935957 0.018768951
-0.048946273 0.004669952 -0.00601323 0.0024963084 -0.00469756 -0.0015583945 -0.007943044 0.0014846976
-0.026033306 0.0027682686 0.0023475005 0.027601067 -0.013594062 -0.03307734 -0.008488481 -0.019543238
00000000: 4890 2bbc db5b 4fbb 028b 4c3d df99 93bc
00000010: dd18 d33c 17a4 aa3b 1be5 a63c d989 d23b
00000020: 0eb2 bcbc 884e 48bc cca5 2cbc 78a1 c03b
00000030: 68f1 b6bc dcfb c439 432d 4abd 58c1 993c
00000040: e37b 48bd 6606 993b a10a c5bb 1b99 233b
00000050: fded 99bb 0b43 ccba 8b23 02bc 2f9a c23a
00000060: cd43 d5bc d76b 353b 86d8 193b a21b e23c
00000070: a1b9 5ebc 1b7c 07bd 4513 0bbc 2419 a0bc

model.0.cross_attn_1.0.module.attention.v_proj.weight f4 [32, 35]
-0.027301097 -0.20816791 -0.014532263 -0.2971526 0.120171785 -0.0044641234 0.0023233292 0.014829868
-0.031261187 -0.053806912 0.007959785 0.10601757 -0.00986293 -0.05313961 -0.0011035614 -0.07398563
0.03951774 -0.041653026 -0.008443404 0.06960007 0.11914293 -0.10854371 -0.17374662 -0.04646176
0.0591101 0.025082594 -0.008401681 0.025966551 0.03560837 0.0170568 -0.012218481 -0.032995075
-0.024732212 -0.023485571 -0.053349398 0.017178815 -0.17743227 -0.015673557 0.041270405 0.24839897
0.023293015 0.003319421 0.005254501 -0.034666225 0.0039769155 -0.038269036 0.18406115 0.04103626
-0.010183146 0.008215267 0.0209149 0.031220488 -0.023375986 -0.010289082 0.07952826 -0.15044805
0.012606634 0.0036446967 -0.00959736 0.039103787 -0.117900096 -0.10401893 0.010389341 -0.07354719
-0.05343138 -0.019930229 0.040556658 -0.023046328 -0.06567876 -0.15414014 -0.059633076 -0.07253716
-0.08339785 0.09887527 0.07443523 -0.05505036 -0.103922 -0.008372688 -0.08605734 -0.0385296
0.013608695 -0.03133594 0.008312678 -0.07717857 -0.020958742 -0.014996835 -0.044948444 -0.008999407
0.0122083 -0.038045116 0.37938586 -0.052505657 -0.020731637 -0.008142173 -0.017020613 -0.09977973
0.015072946 5.1740542e-05 0.025152855 -0.04038764 -0.06328377 -0.038001064 0.01664366 -0.034424968
-0.035130903 -0.041214697 -0.20802838 -0.051036514 -0.0870966 0.1522758 -0.060736306 -0.07159258
0.022740833 -0.05537662 -0.01227756 -0.00012599735 0.0967292 -0.014938921 0.038515538 0.0207634
-0.008742587 0.020537212 -0.061730802 0.05446606 0.050291613 0.13912576 -0.023074988 -0.102896236
0.011284463 -0.0072691226 -0.043789912 0.002202217 0.030698063 0.12071022 0.075985536 0.04804744
-0.012638919 0.028294498 -0.02999475 -0.07717029 0.016099637 0.09665076 0.03638818 -0.039805267
-0.04178104 -0.041773885 0.069497816 -0.020414313 0.10928773 0.008611711 -0.010368673 -0.012782278
0.057126235 0.050238796 -0.0013755306 0.04312344 -0.00012334972 0.025286568 -0.00013425427 0.09300037
-0.3109762 0.018202145 0.057620037 0.051614214 0.051052533 0.060258433 -0.010087824 -0.001985397
-0.06199889 0.03598486 0.03689354 -0.001163045 0.017547112 0.026255691 0.03405955 0.022624416
0.043195587 0.092750944 -0.1387358 -0.15842475 -0.12084374 0.027805798 0.042778023 0.029664224
-0.04868256 0.009507408 0.04561707 0.03439298 0.0024069229 0.018906394 0.008705499 0.003534636
0.031215347 -0.005975489 0.03967109 0.26137707 0.0048349705 -0.0632197 0.07450604 0.00029037235
0.05735717 0.069899544 -0.02832959 -0.11130539 -0.092760816 -0.041556027 -0.0051049865 -0.0081861075
0.017885229 0.039172463 -0.008715768 -0.14316553 -0.07269373 0.14587316 0.28563875 -0.1354789
-0.14091848 0.03547833 -0.041864645 -0.022639 -0.072063155 0.16546348 0.09398295 -0.03182873
0.0030657758 0.0053232103 0.0048744404 -0.042381115 -0.009164928 0.060607333 -0.05618524 0.049104985
0.033433627 0.04004536 0.014669217 -0.22290383 -0.077115566 0.017928805 -0.13129579 -0.050515186
-0.021734923 0.04050927 -0.06739735 -0.06480546 -0.23487765 0.021636788 0.29246563 0.036389373
0.032980252 -0.13551743 0.0771246 0.09470657 -0.024091009 0.11860163 0.035478372 0.04771744
00000000: 8da6 dfbc f829 55be bb18 6ebc 6324 98be
00000010: a01c f63d c847 92bb ff42 183b faf8 723c
00000020: bb0b 00bd a364 5cbd c269 023c bd1f d93d
00000030: 2098 21bc eba8 59bd 60a5 90ba c785 97bd
00000040: 5bdd 213d 5d9c 2abd 3456 0abc 7b8a 8e3d
00000050: 3501 f43d 2a4c debd a2ea 31be b04e 3ebd
00000060: 6f1d 723d 037a cd3c 34a7 09bc ceb7 d43c
00000070: 15da 113d b4ba 8b3c 0630 48bc d825 07bd
00000080: 359b cabc d064 c0bc e684 5abd 96ba 8c3c
00000090: ceb0 35be d565 80bc 280b 293d 4d5c 7e3e
000000a0: fed0 be3c a58a 593b f32d ac3b 2cfe 0dbd
000000b0: c950 823b febf 1cbd 877a 3c3e a315 283d
000000c0: 36d7 26bc 5499 063c b955 ab3c 1cc2 ff3c
000000d0: ff7e bfbc 8a93 28bc b6df a23d 0e0f 1abe
000000e0: 0e8c 4e3c dddb 6e3b 3f3e 1dbc 4b2b 203d
000000f0: 9b75 f1bd e007 d5bd 0e38 2a3c e99f 96bd
00000100: ddda 5abd b844 a3bc bd1e 263d a7cb bcbc
00000110: 9682 86bd ead6 1dbe d041 74bd 5d8e 94bd
00000120: 7ecc aabd 1e7f ca3d 7f71 983d 7c7c 61bd
00000130: 0fd5 d4bd 992d 09bc d53e b0bd 37d1 1dbd
00000140: 01f7 5e3c 1d5a 00bd e631 083c cc0f 9ebd
00000150: abb1 abbc 49b5 75bc dc1b 38bd 4072 13bc
00000160: 5205 483c 32d5 1bbd dd3e c23e 2c10 57bd
00000170: 65d5 a9bc c066 05bc d06e 8bbc 5159 ccbd
00000180: 85f4 763c fc03 5938 5c0d ce3c 836d 25bd
00000190: ec9a 81bd 01a7 1bbd 4958 883c 3201 0dbd
000001a0: 6ce5 0fbd bed0 28bd 6405 55be aa0b 51bd
000001b0: b45f b2bd 30ee 1b3e a2c6 78bd 219f 92bd
000001c0: fc4a ba3c 98d2 62bd d227 49bc 281e 04b9
000001d0: f519 c63d 60c2 74bc 78c2 1d3d 0118 aa3c
000001e0: 113d 0fbc a83d a83c 70d9 7cbd ce17 5f3d
000001f0: 94fe 4d3d fc76 0e3e c207 bdbc 43bb d2bd
00000200: 78e2 383c d231 eebb 0d5d 33bd 1253 103b
00000210: 817a fb3c eb36 f73d 4e9e 9b3d 64cd 443d
00000220: 7813 4fbc ddc9 e73c 8db7 f5bc 750b 9ebd
00000230: 63e3 833c d5f0 c53d c60b 153d d90a 23bd
00000240: 9922 2bbd 181b 2bbd df54 8e3d eb3b a7bc
00000250: 3fd2 df3d 2218 0d3c 5ee1 29bc c26c 51bc
00000260: 33fd 693d 32c7 4d3d 264b b4ba 34a2 303d
00000270: 7057 01b9 c725 cf3c 9bc6 0cb9 fa76 be3d
00000280: 4638 9fbe aa1c 953c fd02 6c3d 6d69 533d
00000290: 761c 513d 8cd1 763d 6747 25bc 6f1d 02bb
000002a0: 8cf2 7dbd dc64 133d ae1d 173d 5071 98ba
000002b0: f6be 8f3c 2d16 d73c 0782 0b3d d756 b93c
000002c0: dbed 303d 35f4 bd3d c210 0ebe 193a 22be
000002d0: ec7c f7bd fcc8 e33c 0238 2f3d 6302 f33c
000002e0: 5d67 47bd f6c4 1b3c f7d8 3a3d a7df 0c3d
000002f0: 77bd 1d3b 95e1 9a3c 82a1 0e3c 5aa5 673b
00000300: 54b7 ff3c 09ce c3bb 277e 223d 37d3 853e
00000310: ac6e 9e3b 5479 81bd 9f96 983d 1e3d 9839
00000320: 5aef 6a3d 7e27 8f3d 7513 e8bc 15f4 e3bd
00000330: 62f9 bdbd a736 2abd bb47 a7bb 061f 06bc
00000340: 0b84 923c 4e73 203d 95cc 0ebc fc99 12be
00000350: 73e0 94bd c65f 153e 3e3f 923e fbba 0abe
00000360: ef4c 10be ba51 113d 437a 2bbd 6d75 b9bc
00000370: d995 93bd 426f 293e 227a c03d d85e 02bd
00000380: 2feb 483b 536e ae3b c5b9 9f3b d297 2dbd
00000390: 7f28 16bc 653f 783d 7f22 66bd 4f22 493d
000003a0: b3f1 083d 9a06 243d 2857 703c e740 64be
000003b0: c4ee 9dbd 6edf 923c 6772 06be 03e9 4ebd
000003c0: 700d b2bc 0ced 253d 9f07 8abd bab8 84bd
000003d0: c483 70be a23f b13c 0ebe 953e 060d 153d
000003e0: 4d16 073d 15c5 0abe 81f3 9d3d 85f5 c13d
000003f0: 825a c5bc 69e5 f23d c551 113d 5d73 433d

model.0.cross_attn_1.0.module.attention.v_proj.bias f4 [32]
-0.023994042 0.0036239652 -0.005356 -0.014306425 -0.011140922 -0.0004332426 -0.00999223 0.020594086
0.0062586362 0.013086162 -0.017978644 0.005483276 0.008573467 0.010219929 0.019242888 -0.013475147
0.0046775765 0.016052514 0.010608002 0.0031800277 -0.00349244 0.015137576 0.0043288483 0.010709332
0.0026348287 0.0023481715 0.00746502 0.007815719 0.0012865599 -0.0076970905 -0.0071774023 0.003866515
00000000: 278f c4bc 0c80 6d3b 6281 afbb 7f65 6abc
00000010: 6a88 36bc d624 e3b9 73b6 23bc eeb4 a83c
00000020: 3f15 cd3b 5767 563c f347 93bc 0ead b33b
00000030: ba77 0c3c 7d71 273c 43a3 9d3c ddc6 5cbc
00000040: 5b46 993b 9080 833c 2fcd 2d3c 0368 503b
00000050: 6ce1 64bb 9803 783c 03d9 8d3b 3276 2f3c
00000060: 17ad 2c3b c8e3 193b 209d f43b 800d 003c
00000070: c9a1 a83a e037 fcbb 6a30 ebbb 5b65 7d3b

model.0.cross_attn_1.0.module.attention.o_proj.weight f4 [32, 32]
-0.014131681 0.067608066 -0.014084942 -0.034813456 0.0664847 0.00040450104 0.09645104 0.059176337
0.025562555 -0.050288565 -0.13460515 -0.18988532 -0.05203129 -0.10937345 0.02454815 -0.051692158
-0.003721231 -0.040240824 -0.041671637 0.03653891 0.030798387 -0.0062843286 0.015317819 -0.031072231
0.05149964 0.09177326 -0.07802703 -0.11691435 0.098525666 0.059833832 0.15477419 0.033987604
-0.03500953 -0.2066927 0.08897557 -0.0012379045 -0.15500952 0.055334337 -0.204955 -0.0529925
0.09231881 0.054991998 0.012814375 0.17735687 0.10740925 0.027058847 0.11838081 -0.072771266
0.027515782 0.062145937 -0.0010930725 0.05578799 -0.07049098 0.04106073 0.0066936524 0.048176676
0.021762663 -0.07901418 0.07355613 0.14370376 -0.11721695 -0.07508763 -0.06341564 -0.13633326
-0.006192121 0.062459122 0.068285026 0.05819598 -0.12212822 -0.013823396 0.051882733 -0.08524692
0.062109206 -0.017932128 0.059258338 0.036573514 -0.016802846 -0.039814014 -0.014135834 -0.018039877
0.03983037 -0.017912308 0.004727445 -0.024930296 0.023858044 0.06501852 0.023808965 0.004201223
0.12527789 0.016123097 -0.0381891 -0.14047244 -0.022411393 0.06450109 0.016605504 -0.12663738
-0.07173339 -0.019547256 -0.073603205 -0.059727356 0.015829181 -0.0169029 -0.049303886 -0.021172155
-0.03304927 -0.015810024 0.16415033 0.023959938 -0.0253626 0.03351455 0.06959343 -0.047483817
0.17149603 0.016890215 0.0564498 -0.017737683 -0.038672302 0.012763652 0.113092914 -0.0812145
-0.10009579 -0.045107663 0.05914654 0.043672077 -0.12590396 0.034037594 -0.017302113 -0.04335904
-0.023140872 0.020465977 0.033128437 -0.01977947 0.027406992 -0.028238602 -0.04408852 -0.051228892
-0.00082769425 -0.017890489 0.036492396 0.099307805 -0.007286412 -0.003670067 -0.04357225 0.028556058
-0.078014374 -0.019211167 0.011096269 -0.0036082983 0.01105287 0.019972263 -0.027898457 0.034016922
0.040050227 -0.066305436 -0.02770109 -0.003976903 -0.09129265 0.022321127 -0.08047962 0.003021614
-0.041817833 -0.13161138 0.024307085 -0.0410534 0.015149189 0.0490866 -0.059609674 0.05738658
0.036951065 0.015915576 -0.0876463 -0.031275827 0.02729243 0.031117534 0.042397548 -0.05448525
0.035318054 -0.01918401 -0.008771339 -0.01286906 0.073844016 -0.04312718 -0.02965709 0.15046485
-0.074192524 -0.0027634683 0.076038346 0.061127394 0.058341347 -0.018207945 0.025523974 -0.021829372
0.09692626 0.11851786 0.054321658 0.11511261 -0.029414773 -0.027010694 0.12059062 -0.12020623
-0.018699355 0.0108957905 0.03666921 -0.020392833 -0.011592297 0.0142665105 -0.03134295 0.050443694
0.011608587 0.053799924 -0.026782565 0.025085147 0.0073206173 0.041759085 0.005709979 -0.01236683
0.05203749 -0.012044501 -0.0808953 -0.005717271 -0.053028736 0.0034754858 -0.04077295 0.027147641
0.013890048 0.09839155 -0.07827212 -0.10238626 0.030072333 -0.0513971 0.024126923 0.03257333
-0.001917979 -0.015278419 0.037410296 -0.010950322 -0.07089657 -0.039526246 0.07146309 -0.0077026365
0.02411022 0.0026068657 0.0112664625 0.032074824 -0.151191 -0.04684296 0.055298615 -0.1699743
-0.03451285 0.058633458 0.060388185 -0.021404637 0.03153747 -0.07059433 -0.06980341 -0.08774928
00000000: 9188 67bc 1976 8a3d 87c4 66bc 8e98 0ebd
00000010: 2129 883d 3613 d439 1f88 c53d e362 723d
00000020: 9068 d13c 62fb 4dbd efd5 09be 4c71 42be
00000030: c31e 55bd 30ff dfbd 3419 c93c 28bb 53bd
00000040: e5df 73bb 90d3 24bd e1af 2abd d3a9 153d
00000050: e64c fc3c c5ec cdbb 97f7 7a3c 318b febc
00000060: 49f1 523d 9ef3 bb3d a3cc 9fbd ca70 efbd
00000070: d3c7 c93d 5214 753d 207d 1e3e 9636 0b3d
00000080: 2766 0fbd 40a7 53be d338 b63d 2f41 a2ba
00000090: d1ba 1ebe 42a6 623d b9df 51be aa0e 59bd
000000a0: a511 bd3d 4a3f 613d 62f3 513c 0a9d 353e
000000b0: 62f9 db3d 84aa dd3c a371 f23d 1a09 95bd
000000c0: c768 e13c bd8c 7e3d 6d45 8fba f381 643d
000000d0: 935d 90bd 4c2f 283d 6d56 db3b e854 453d
000000e0: 9d47 b23c 30d2 a1bd 99a4 963d 1427 133e
000000f0: 710f f0bd 8bc7 99bd 0fe0 81bd f29a 0bbe
00000100: 47e7 cabb 23d5 7f3d 05d9 8b3d e85e 6e3d
00000110: 5c1e fabd 867b 62bc fd82 543d f095 aebd
00000120: 3966 7e3d 66e6 92bc dfb8 723d 1cce 153d
00000130: 1fa6 89bc 0514 23bd fc99 67bc 5dc8 93bc
00000140: 2c25 233d d5bc 92bc afe8 9a3b 9f3a ccbc
00000150: f271 c33c 6e28 853d 050b c33c 6aaa 893b
00000160: d948 003e 9614 843c 2c6c 1cbd 02d8 0fbe
00000170: 1998 b7bc 2619 843d 4408 883c 3bad 01be
00000180: f5e8 92bd 9121 a0bc 47bd 96bd aca4 74bd
00000190: 33ac 813c f377 8abc dff2 49bd 3a71 adbc
000001a0: ac5e 07bd 0684 81bc 0617 283e a247 c43c
000001b0: 3ac5 cfbc 8e46 093d 0087 8e3d 647e 42bd
000001c0: a89c 2f3e 595d 8a3c e837 673d 9e4e 91bc
000001d0: d966 1ebd a31e 513c 429d e73d ca53 a6bd
000001e0: 06ff ccbd d0c2 38bd a443 723d 7ee1 323d
000001f0: f8ec 00be 016b 0b3d 29bd 8dbc 4099 31bd
00000200: ed91 bdbc 44a8 a73c afb1 073d 8e08 a2bc
00000210: a184 e03c a454 e7bc 2a96 34bd 63d5 51bd
00000220: 9ff9 58ba 138f 92bc 0d79 153d e461 cb3d
00000230: dbc2 eebb 8285 70bb d178 32bd 65ee e93c
00000240: 00c6 9fbd bd60 9dbc 20cd 353c 3379 6cbb
00000250: 1917 353c df9c a33c 4e8b e4bc 5455 0b3d
00000260: b50b 243d 25cb 87bd 65ed e2bc ae50 82bb
00000270: a4f7 babd ccda b63c 80d2 a4bd 4506 463b
00000280: 2d49 2bbd 22c5 06be a71f c73c 9c27 28bd
00000290: 4e34 783c 080f 493d 4629 74bd 310e 6b3d
000002a0: 005a 173d 6261 823c e77f b3bd 151b 00bd
000002b0: 6094 df3c 33ea fe3c 0da9 2d3d ed2b 5fbd
000002c0: aaa9 103d c927 9dbc aab5 0fbc c0d8 52bc
000002d0: 883b 973d 20a6 30bd 6df3 f2bc 7513 1a3e
000002e0: 40f2 97bd 4e1b 35bb feb9 9b3d b860 7a3d
000002f0: 56f7 6e3d d428 95bc a717 d13c 83d3 b2bc
00000300: 4681 c63d 7eb9 f23d 6380 5e3d 29c0 eb3d
00000310: 40f7 f0bc 8845 ddbc 37f8 f63d af2e f6bd
00000320: 642f 99bc 4284 323c 7432 163d df0e a7bc
00000330: 9eed 3dbc 15be 693c 7761 00bd 0c9e 4e3d
00000340: f131 3e3c 4f5d 5c3d 1c67 dbbc 5e7f cd3c
00000350: cae1 ef3b 930b 2b3d c71a bb3b 3f9e 4abc
00000360: 4325 553d 4c56 45bc 6fac a5bd f257 bbbb
00000370: a934 59bd fac4 633b 8901 27bd bb64 de3c
00000380: 1593 633c 8281 c93d 224d a0bd e3af d1bd
00000390: 415a f63c c485 52bd d3a5 c53c 9d6b 053d
000003a0: b264 fbba 5552 7abc 8a3b 193d fb68 33bc
000003b0: 3932 91bd 46e6 21bd 3e5b 923d 6666 fcbb
000003c0: cc82 c53c f3d7 2a3b f896 383c e460 033d
000003d0: d0d1 1abe 67de 3fbd cd80 623d be0d 2ebe
000003e0: 595d 0dbd a329 703d 9a59 773d c758 afbc
000003f0: 6f2d 013d c393 90bd 17f5 8ebd e5b5 b3bd

model.0.cross_attn_1.0.module.attention.o_proj.bias f4 [32]
-0.014092205 -0.009890752 -0.0061025065 -0.010110524 0.011417161 0.003979164 0.0076041394 -0.015063066
-0.008855068 -0.0071464526 -0.014530884 -0.0030996613 0.02771996 0.012206061 0.010868221 0.013567584
-0.004278709 -0.00052850693 0.018055245 -0.013140065 0.0050474075 -0.012754162 -0.009795563 0.0045468854
0.0055731833 -0.0109016765 0.012298608 -0.014654518 0.008071862 0.00064771436 0.0016813731 -0.0019163517
00000000: fee2 66bc d20c 22bc 89f7 c7bb 9ca6 25bc
00000010: 0b0f 3b3c a663 823b 252c f93b 14cb 76bc
00000020: d914 11bc ca2c eabb f212 6ebc b023 4bbb
00000030: f814 e33c eefb 473c 9f10 323c 924a 5e3c
00000040: 6a34 8cbb 808b 0aba 98e8 933c 6d49 57bc
00000050: b964 a53b d5f6 50bc 927d 20bc 0afe 943b
00000060: 409f b63b f29c 32bc 1a80 493c 8119 70bc
00000070: d83f 043c 60cb 293a 8561 dc3a 182e fbba

model.0.cross_attn_1.1.module.0.weight f4 [32]
0.99649787 1.0772514 1.0345751 1.0307535 0.9746606 1.119545 1.0893627 1.0644784
1.111488 1.0549031 1.0976218 1.0540141 1.1266159 1.1373553 1.1166688 1.1298617
1.0793108 1.175817 1.137231 1.0711876 1.1244572 1.0361081 1.1253865 0.9518264
1.1781225 1.1096705 1.1490589 1.1482066 1.135391 1.0999125 1.0314618 1.0765876
00000000: 7c1a 7f3f 60e3 893f f56c 843f bbef 833f
00000010: 5b83 793f 404d 8f3f 3d70 8b3f d440 883f
00000020: 3d45 8e3f 1107 873f df7e 8c3f efe9 863f
00000030: f334 903f dc94 913f 01ef 8e3f 4f9f 903f
00000040: db26 8a3f 2c81 963f c990 913f ad1c 893f
00000050: 37ee 8f3f 319f 843f aa0c 903f e5aa 733f
00000060: b8cc 963f af09 8e3f 5d14 933f 6ff8 923f
00000070: 7e54 913f efc9 8c3f f106 843f 9fcd 893f

model.0.cross_attn_1.1.module.0.bias f4 [32]
-0.010763264 0.008285661 -0.014495999 0.032183006 -0.028995028 -0.00775067 0.0010234516 0.03509184
0.017185237 0.0009729924 0.016791802 0.010836785 -0.002249572 -0.009144195 0.02564055 0.016503204
-0.009195573 -0.0059641115 -0.01909939 0.009777065 0.017367547 0.016052803 -0.0048449514 -0.028586037
-0.015339727 -0.020949643 -0.011755751 -0.0030446025 -0.02169011 0.013662654 -0.0047464943 0.009404936
00000000: 6758 30bc 95c0 073c a080 6dbc 54d2 033d
00000010: fb86 edbc 55f9 fdbb 5625 863a 76bc 0f3d
00000020: 0ec8 8c3c 6a10 7f3a f68e 893c c58c 313c
00000030: 8e6d 13bb 89d1 15bc 210c d23c ba31 873c
00000040: 07a9 16bc 986e c3bb 5376 9cbc fc2f 203c
00000050: 6346 8e3c 2b81 833c 66c2 9ebb 442d eabc
00000060: 7a53 7bbc 969e abbc 329b 40bc f487 47bb
00000070: 75af b1bc 53d9 5f3c 7b88 9bbb 2917 1a3c
