results_local/perceiver_cifar_local_20250416_115641/checkpoints/perceiver-epoch=00-val_acc=0.0100.ckpt (torch, 878198 bytes, 358 tensors)

model.0.latent_provider._query f4 [8, 32]
000000 57 da 1d 3d 37 ad f3 3c d1 92 93 3c f9 7b 2c bd
       0.038538303 0.029745681 0.018014343 -0.042110417
000010 dc 4d 5e 3c 90 44 ca bc 30 cc 61 ba 4e 74 03 bd
       0.013568368 -0.024690896 -0.0008613495 -0.03209334
000020 ae 75 76 bc 3a 10 07 3d 7f 9b 00 bc 8c f7 e5 bc
       -0.015042705 0.03297446 -0.007849573 -0.028072141
000030 1c 83 6e bc 67 50 37 bc e1 ee 7b bc 8e d6 79 3c
       -0.014557626 -0.011188603 -0.015376777 0.015248908
000040 e2 89 06 3d 06 30 51 bb bb fc 22 bc 6b 0b 10 3c
       0.03284634 -0.0031919493 -0.009947951 0.008791785
000050 a6 6c 78 bc eb ab b0 3c 02 34 83 3c 2b ad 09 3d
       -0.015162623 0.021566352 0.01601601 0.03361241
000060 5d 92 d1 3c ea 67 d4 3c a4 09 48 3c f5 ae da 3c
       0.025582487 0.025928456 0.01220933 0.026694754
000070 1d cc 97 bb a4 f0 5a 3a 54 df a4 bb 14 e1 8c 3c
       -0.0046324865 0.0008351898 -0.0050315056 0.01719717
000080 6c dd e2 bc 4b be 8e bc 95 62 92 bb ae af 0c 3d
       -0.027693473 -0.017424723 -0.0044673183 0.03434723
000090 3d fb d0 3b 3b 1b 0b bc 75 5b c8 3b 87 d1 7d bc
       0.006377606 -0.008490379 0.006114418 -0.01549185
0000a0 53 31 ff bc 01 20 a3 3c e4 24 90 bc 73 fb 44 bc
       -0.03115145 0.019912722 -0.017595716 -0.012022841
0000b0 c6 c1 d0 bc 07 e6 2d 3d 1b 49 ca bc 2e e1 1f bc
       -0.025483023 0.0424557 -0.024693063 -0.009758277
0000c0 84 b8 95 bc 8e a8 57 bc ef 88 cc 3a 09 4c 2c 3c
       -0.01827646 -0.013162745 0.0015604774 0.010516175
0000d0 b6 e7 1f bc a4 31 c3 3c f4 5d 85 bc 8c 2b 71 bc
       -0.009759834 0.023827381 -0.016280152 -0.014719855
0000e0 7b e8 e5 bc 4e c3 3c 3a e0 66 a6 ba af 62 5d 3c
       -0.028064957 0.00072007335 -0.0012695454 0.0135122975
0000f0 8c 32 00 bb f0 1b 17 3d 19 13 c2 bc 44 ae e2 3c
       -0.0019561378 0.036891878 -0.023690747 0.027670987
000100 4e c5 ec 3c 8b 50 8c 3c 6b b4 35 3d 4e 6e 2b 3c
       0.028902676 0.01712825 0.044361513 0.01046331
000110 a9 2d e3 3b b9 52 81 bb aa c8 ac bc 05 63 d1 3c
       0.0069329333 -0.003946629 -0.021091778 0.025559912
000120 6b b1 61 bb 8f a2 2b 3c 42 6e 94 3a 50 b0 0b 3c
       -0.0034438025 0.010475769 0.0011324363 0.008525923
000130 eb 6a 3c 3c b8 47 52 bc 87 bf 34 bd ec 05 76 bc
       0.011500101 -0.012834482 -0.044127967 -0.01501606
000140 e7 eb 63 39 89 ff dd bb 2c a8 db bc 70 d0 3f bc
       0.00021736287 -0.006774847 -0.026813589 -0.01170741
000150 b8 b2 2f 3c 89 e8 2b 3c 77 f9 ba 3c 6e 61 87 3a
       0.010723762 0.010492452 0.022824032 0.0010328719
000160 37 c7 73 3c 3a ce 1d bc cb f1 ab bc b4 e2 45 3c
       0.0148790395 -0.009631688 -0.02098932 0.012077976
000170 25 17 0d bd 24 9f 87 bc 80 ad da 3c 37 72 1e 3c
       -0.0344459 -0.016555376 0.02669406 0.009670786
000180 f5 94 4d bd 7e e8 1f 3c f5 8b 80 3c 9a 31 16 3a
       -0.050190885 0.00976002 0.015691737 0.0005729437
000190 73 f6 51 3c 57 1e 3f 3c 26 ce ae 3c 9a 81 13 bc
       0.012815106 0.011664948 0.021338534 -0.009003067
0001a0 73 d5 72 bb fd a9 76 3c 8b a1 04 3c 40 eb 69 3b
       -0.0037053495 0.015055177 0.0080951555 0.0035693198
0001b0 70 9c ad 3b 8c 98 d0 3c 2a ed db b7 42 f8 c6 bb
       0.00529819 0.025463365 -2.6217273e-05 -0.006072075
0001c0 3b b8 ee bc 02 22 06 bb 99 54 44 bc 64 52 1c 3c
       -0.029140582 -0.0020467048 -0.01198306 0.009541128
0001d0 29 f4 6d 3c fb f2 ee 3a 4f fa fe bb d8 fc 2c 3c
       0.014523544 0.0018230373 -0.007781304 0.0105583295
0001e0 52 04 85 b9 a1 d5 9d 3b 7d b7 2d 3b 26 6d 7a 3c
       -0.00025370956 0.0048167263 0.0026507073 0.015284812
0001f0 09 68 b3 3c 3d c0 de 3b 40 eb 6b 3c 5f cf 06 3c
       0.021900194 0.006797819 0.01439935 0.008228152
000200 5f 33 1e 3d a5 c8 a5 3c 41 57 eb bc c1 1d b9 bc
       0.03862321 0.020237276 -0.02872813 -0.022597196
000210 9d 4d 32 bb 06 f9 05 3d a2 8b 56 3c c4 be 3c 3c
       -0.0027206906 0.03270819 0.0130948145 0.011520091
000220 50 06 bb 3c e7 a9 c2 39 7a ee 13 bd 8d 9f 97 3c
       0.022830158 0.0003712915 -0.0361161 0.018508697
000230 55 fc f5 bb d3 42 a9 3c 74 00 61 bc cc ab 50 3c
       -0.007506887 0.020661747 -0.013733018 0.012736272
000240 e6 5c 9f bc a2 08 9d 3c 18 a5 04 3d fc aa ed 3c
       -0.019453477 0.019169156 0.03238401 0.029012196
000250 80 9b b0 3b 3b df 89 bb f3 1f 70 bc 8b b4 08 3b
       0.005389631 -0.0042075193 -0.014656055 0.0020859565
000260 d3 8e e4 3b d7 87 9e 3c c7 98 18 bc 09 77 03 3d
       0.006975034 0.019351883 -0.009313769 0.032095943
000270 e4 2b 4b bd 1b d2 08 bc f7 dc c3 bc e1 17 85 3c
       -0.049602404 -0.008350874 -0.023909075 0.016246738
000280 7d b1 1b bd c7 cc 95 3b ba 55 02 3a d2 b8 e2 bb
       -0.038011063 0.0045715305 0.00049718807 -0.006919005
000290 8f fa bb 3b 81 7b 6f bc f2 23 65 3b b8 3a b3 bc
       0.005736656 -0.014616848 0.0034964052 -0.021878585
0002a0 bd 3f 03 bd 9c a8 dd 3c 59 29 d3 3c e6 16 89 3a
       -0.032043207 0.027057938 0.025776552 0.0010459095
0002b0 9c 6f fd bc 1b f5 77 3c 4a 1f 7e 3c 87 03 26 3d
       -0.030937009 0.015134121 0.01551039 0.040530708
0002c0 95 c9 3b 3a dd 0e 1e 3b fc ff 83 bc 9d 09 88 bb
       0.0007163522 0.0024117746 -0.016113274 -0.0041515366
0002d0 b9 b0 98 bc fb 54 02 bd 46 1e ba bc aa 3e 2b bc
       -0.018638955 -0.031819325 -0.022719514 -0.010451952
0002e0 dc fd 29 bc 18 f8 f5 bc de d4 1d bd c1 93 27 3b
       -0.010375466 -0.030025527 -0.038533084 0.0025570246
0002f0 18 98 a7 3c 79 1f 36 bc ae c6 66 3c b7 9c 68 3c
       0.020458266 -0.011115902 0.014085455 0.01419752
000300 9f 5b 11 3d a6 fc 96 bc 13 b0 9d 3c c2 dd dc bb
       0.035487767 -0.018431019 0.019248998 -0.006740303
000310 10 91 c0 bc 02 a8 ea 3b f6 e1 1c 3c 4b ca dd 3c
       -0.023506671 0.0071611414 0.009575358 0.027074
000320 49 61 2c 3c a5 04 2d 3d 46 a4 2a bc 2b b3 98 bc
       0.010521241 0.042240757 -0.010415142 -0.018640121
000330 d5 b1 72 3b 2f 18 af 3c 06 10 d6 3c b7 ad 16 3c
       0.0037032266 0.021373836 0.026130687 0.00919669
000340 ed 77 85 bc e1 51 a7 bc 32 2d 22 bc ab 11 42 bc
       -0.016292537 -0.020424785 -0.009898471 -0.011845033
000350 d7 43 4a 3b 39 6e 10 3c a4 5e 42 bb 47 ed 3d bd
       0.003086319 0.008815342 -0.002965846 -0.046368863
000360 44 6a 02 bc e1 06 b1 3c 6f e3 11 bd 02 14 f7 3c
       -0.007959906 0.021609725 -0.03561729 0.030160908
000370 7e c9 ca 3b f7 f0 23 bc 2e 93 a9 3c 77 6a 0a 3d
       0.0061885705 -0.010006181 0.020700064 0.03379294
000380 a0 f4 bc b8 2b 8b 08 3d 0b bf 49 3b 3c b6 ad bc
       -9.0101035e-05 0.033335846 0.0030784036 -0.02120506
000390 00 a6 3b bc 8f 11 db 3a 7e 0a 03 3c b2 f4 22 3d
       -0.011453152 0.0016713607 0.007998107 0.03978414
0003a0 00 b6 bc ba 5b 74 94 bc 9c d4 27 bd c1 1e b1 bc
       -0.0014397502 -0.018121889 -0.040974244 -0.02162111
0003b0 98 ca b8 39 92 10 cd 3a 2b 2d 7d 3b e6 3d 06 3c
       0.0003524616 0.0015645197 0.0038631659 0.008193469
0003c0 8d 3a 98 bc 24 01 b5 3b 22 94 30 bc 37 94 17 3c
       -0.018582607 0.0055238176 -0.010777505 0.009251646
0003d0 ae d9 8e bc a6 2d 0e ba ce 80 e7 bb 9c d6 ef 3c
       -0.017437782 -0.0005423672 -0.0070649153 0.029277138
0003e0 bb b0 cd 3c d7 46 6a bc f9 e7 8b 3c d2 18 28 3c
       0.025108686 -0.014299116 0.017078387 0.010259824
0003f0 eb db 30 3c 00 4e 39 3c e2 bc 25 3c 87 c9 91 3b
       0.01079462 0.011310101 0.010115834 0.0044490728

model.0.input_adapter.position_encoding.position_encoding f4 [1024, 34]
000000 00 00 80 bf 00 00 80 bf 2e bd bb 33 09 26 de 3e
       -1.0 -1.0 8.742278e-08 0.43388394
000010 13 26 48 3f e0 94 79 3f dd 94 79 3f 1e 26 48 3f
       0.78183097 0.9749279 0.9749277 0.7818316
000020 b8 25 de 3e 2e bd bb b5 2e bd bb 33 09 26 de 3e
       0.43388152 -1.3987644e-06 8.742278e-08 0.43388394
000030 13 26 48 3f e0 94 79 3f dd 94 79 3f 1e 26 48 3f
       0.78183097 0.9749279 0.9749277 0.7818316
000040 b8 25 de 3e 2e bd bb b5 00 00 80 bf e4 a5 66 bf
       0.43388152 -1.3987644e-06 -1.0 -0.9009688
000050 12 9d 1f bf 89 dc 63 be bc dc 63 3e 04 9d 1f 3f
       -0.62349045 -0.22252096 0.22252172 0.6234896
000060 f7 a5 66 3f 00 00 80 3f 00 00 80 bf e4 a5 66 bf
       0.9009699 1.0 -1.0 -0.9009688
000070 12 9d 1f bf 89 dc 63 be bc dc 63 3e 04 9d 1f 3f
       -0.62349045 -0.22252096 0.22252172 0.6234896
000080 f7 a5 66 3f 00 00 80 3f 00 00 80 bf df 7b 6f bf
       0.9009699 1.0 -1.0 -0.9354839
000090 2e bd bb 33 09 26 de 3e 13 26 48 3f e0 94 79 3f
       8.742278e-08 0.43388394 0.78183097 0.9749279
0000a0 dd 94 79 3f 1e 26 48 3f b8 25 de 3e 2e bd bb b5
       0.9749277 0.7818316 0.43388152 -1.3987644e-06
0000b0 31 21 4e be 3f 96 3f be 54 01 31 be 6c 62 22 be
       -0.20129849 -0.18709658 -0.17285663 -0.15857857
0000c0 8b bb 13 be bf 0b 05 be 9f a9 ec bd 0a 31 cf bd
       -0.1442701 -0.12992762 -0.1155579 -0.10116775
0000d0 00 00 80 bf e4 a5 66 bf 12 9d 1f bf 89 dc 63 be
       -1.0 -0.9009688 -0.62349045 -0.22252096
0000e0 bc dc 63 3e 04 9d 1f 3f f7 a5 66 3f 00 00 80 3f
       0.22252172 0.6234896 0.9009699 1.0
0000f0 7a c2 7a bf bc 7a 7b bf 7d 25 7c bf bb c2 7c bf
       -0.97953 -0.9823415 -0.984947 -0.98734635
000100 63 52 7d bf 7c d4 7d bf f5 48 7e bf c2 af 7e bf
       -0.9895384 -0.9915235 -0.99330074 -0.99486935
000110 00 00 80 bf be f7 5e bf 2e bd bb 33 09 26 de 3e
       -1.0 -0.87096775 8.742278e-08 0.43388394
000120 13 26 48 3f e0 94 79 3f dd 94 79 3f 1e 26 48 3f
       0.78183097 0.9749279 0.9749277 0.7818316
000130 b8 25 de 3e 2e bd bb b5 03 e9 c9 be af 14 3c bf
       0.43388152 -1.3987644e-06 -0.39435586 -0.7346906
000140 b8 89 72 bf 0c de 7e bf 85 ed 5e bf 41 44 18 bf
       -0.9474139 -0.99557567 -0.87081176 -0.5947915
000150 a0 a1 5c be 44 21 4e 3e 00 00 80 bf e4 a5 66 bf
       -0.2154603 0.20129877 -1.0 -0.9009688
000160 12 9d 1f bf 89 dc 63 be bc dc 63 3e 04 9d 1f 3f
       -0.62349045 -0.22252096 0.22252172 0.6234896
000170 f7 a5 66 3f 00 00 80 3f d2 40 6b bf c6 ab 2d bf
       0.9009699 1.0 -0.9189578 -0.6784023
000180 74 d8 a3 be db 6f c0 3d 2b b5 fb 3e 15 cb 4d 3f
       -0.32001078 0.09396335 0.49161658 0.80388004
000190 bb fc 79 3f 79 c2 7a 3f 00 00 80 bf 9d 73 4e bf
       0.9765126 0.9795299 -1.0 -0.8064516
0001a0 2e bd bb 33 09 26 de 3e 13 26 48 3f e0 94 79 3f
       8.742278e-08 0.43388394 0.78183097 0.9749279
0001b0 dd 94 79 3f 1e 26 48 3f b8 25 de 3e 2e bd bb b5
       0.9749277 0.7818316 0.43388152 -1.3987644e-06
0001c0 a0 3e 12 bf 0e 7e 7e bf bf 14 3c bf 6a 2b ed 3c
       -0.5712681 -0.99411094 -0.73469156 0.028951366
0001d0 36 d1 45 3f ce 75 7c 3f d2 d6 05 3f c8 45 99 be
       0.77272356 0.98617256 0.52280915 -0.2993605
0001e0 00 00 80 bf e4 a5 66 bf 12 9d 1f bf 89 dc 63 be
       -1.0 -0.9009688 -0.62349045 -0.22252096
0001f0 bc dc 63 3e 04 9d 1f 3f f7 a5 66 3f 00 00 80 3f
       0.22252172 0.6234896 0.9009699 1.0
000200 8f 1d 52 bf a2 ef dd bd b5 ab 2d 3f 87 e4 7f 3f
       -0.8207635 -0.10836722 0.6784013 0.9995808
000210 80 7e 22 3f f7 b2 29 be 26 3a 5a bf 86 42 74 bf
       0.63474274 -0.16572176 -0.8524498 -0.95414007
000220 00 00 80 bf 7c ef 3d bf 2e bd bb 33 09 26 de 3e
       -1.0 -0.7419355 8.742278e-08 0.43388394
000230 13 26 48 3f e0 94 79 3f dd 94 79 3f 1e 26 48 3f
       0.78183097 0.9749279 0.9749277 0.7818316
000240 b8 25 de 3e 2e bd bb b5 04 8c 39 bf 0a 15 5d bf
       0.43388152 -1.3987644e-06 -0.7247927 -0.8636023
000250 4b 7c 79 3e 13 d5 7f 3f 6d 54 a0 3e 1e 2b 53 bf
       0.2436382 0.999345 0.31314412 -0.82487667
000260 4b d1 45 bf c8 e8 c9 3e 00 00 80 bf e4 a5 66 bf
       -0.7727248 0.3943541 -1.0 -0.9009688
000270 12 9d 1f bf 89 dc 63 be bc dc 63 3e 04 9d 1f 3f
       -0.62349045 -0.22252096 0.22252172 0.6234896
000280 f7 a5 66 3f 00 00 80 3f 24 60 30 bf 87 11 01 3f
       0.9009699 1.0 -0.688967 0.5041737
000290 27 49 78 3f 18 39 14 3d e8 1f 73 bf 56 b8 10 bf
       0.9698662 0.03618726 -0.9497056 -0.56531274
0002a0 65 7e 22 3f de 40 6b 3f 00 00 80 bf 5b 6b 2d bf
       0.6347411 0.91895854 -1.0 -0.67741936
0002b0 2e bd bb 33 09 26 de 3e 13 26 48 3f e0 94 79 3f
       8.742278e-08 0.43388394 0.78183097 0.9749279
0002c0 dd 94 79 3f 1e 26 48 3f b8 25 de 3e 2e bd bb b5
       0.9749277 0.7818316 0.43388152 -1.3987644e-06
0002d0 bf 40 59 bf fd e8 c9 be e5 d3 77 3f 74 31 cf 3d
       -0.8486442 -0.39435568 0.968077 0.10116854
0002e0 e3 ab 7f bf ca 20 4e 3e 93 10 70 3f 60 79 f8 be
       -0.99871653 0.20129696 0.9377529 -0.48530102
0002f0 00 00 80 bf e4 a5 66 bf 12 9d 1f bf 89 dc 63 be
       -1.0 -0.9009688 -0.62349045 -0.22252096
000300 bc dc 63 3e 04 9d 1f 3f f7 a5 66 3f 00 00 80 3f
       0.22252172 0.6234896 0.9009699 1.0
000310 30 6a 07 bf d3 40 6b 3f 97 55 80 3e c1 af 7e bf
       -0.52896404 0.9189579 0.250653 -0.9948693
000320 8c 74 4f 3d 7f c2 7a 3f b7 d1 b1 be 37 d5 5f bf
       0.050648257 0.9795303 -0.34730312 -0.87434715
000330 00 00 80 bf 3a e7 1c bf 2e bd bb 33 09 26 de 3e
       -1.0 -0.61290324 8.742278e-08 0.43388394
000340 13 26 48 3f e0 94 79 3f dd 94 79 3f 1e 26 48 3f
       0.78183097 0.9749279 0.9749277 0.7818316
000350 b8 25 de 3e 2e bd bb b5 85 10 70 bf 02 15 6b 3e
       0.43388152 -1.3987644e-06 -0.93775207 0.22957233
000360 28 07 2f 3f ce 75 7c bf 43 b3 d0 3e e4 fb 08 3f
       0.68370295 -0.98617256 0.40761766 0.53509355
000370 8d f0 7f bf 85 3e 12 3f 00 00 80 bf e4 a5 66 bf
       -0.99976426 0.5712665 -1.0 -0.9009688
000380 12 9d 1f bf 89 dc 63 be bc dc 63 3e 04 9d 1f 3f
       -0.62349045 -0.22252096 0.22252172 0.6234896
000390 f7 a5 66 3f 00 00 80 3f 03 d2 b1 be a4 29 79 3f
       0.9009699 1.0 -0.3473054 0.97329164
0003a0 95 d1 3a bf e9 b2 29 be 60 c4 69 3f 57 44 58 bf
       -0.72976047 -0.16572155 0.9131527 -0.8447928
0003b0 9d dd b1 3c a2 1d 52 3f 00 00 80 bf 19 63 0c bf
       0.021712119 0.82076466 -1.0 -0.5483871
0003c0 2e bd bb 33 09 26 de 3e 13 26 48 3f e0 94 79 3f
       8.742278e-08 0.43388394 0.78183097 0.9749279
0003d0 dd 94 79 3f 1e 26 48 3f b8 25 de 3e 2e bd bb b5
       0.9749277 0.7818316 0.43388152 -1.3987644e-06
0003e0 42 0c 7d bf ac 71 43 3f 7e 54 a0 be 44 15 6b be
       -0.9884683 0.76345325 -0.31314462 -0.22957331
0003f0 ef 5c 34 3f 15 bb 78 bf c6 b2 73 3f 48 c0 26 bf
       0.70454305 -0.97160465 0.9519466 -0.6513715

model.0.cross_attn_1.0.module.q_norm.weight f4 [32]
000000 00 00 80 3f 00 00 80 3f 00 00 80 3f 00 00 80 3f
       1.0 1.0 1.0 1.0
000010 00 00 80 3f 00 00 80 3f 00 00 80 3f 00 00 80 3f
       1.0 1.0 1.0 1.0
000020 00 00 80 3f 00 00 80 3f 00 00 80 3f 00 00 80 3f
       1.0 1.0 1.0 1.0
000030 00 00 80 3f 00 00 80 3f 00 00 80 3f 00 00 80 3f
       1.0 1.0 1.0 1.0
000040 00 00 80 3f 00 00 80 3f 00 00 80 3f 00 00 80 3f
       1.0 1.0 1.0 1.0
000050 00 00 80 3f 00 00 80 3f 00 00 80 3f 00 00 80 3f
       1.0 1.0 1.0 1.0
000060 00 00 80 3f 00 00 80 3f 00 00 80 3f 00 00 80 3f
       1.0 1.0 1.0 1.0
000070 00 00 80 3f 00 00 80 3f 00 00 80 3f 00 00 80 3f
       1.0 1.0 1.0 1.0

model.0.cross_attn_1.0.module.q_norm.bias f4 [32]
000000 00 00 00 00 00 00 00 00 00 00 00 00 00 00 00 00
       0.0 0.0 0.0 0.0
000010 00 00 00 00 00 00 00 00 00 00 00 00 00 00 00 00
       0.0 0.0 0.0 0.0
000020 00 00 00 00 00 00 00 00 00 00 00 00 00 00 00 00
       0.0 0.0 0.0 0.0
000030 00 00 00 00 00 00 00 00 00 00 00 00 00 00 00 00
       0.0 0.0 0.0 0.0
000040 00 00 00 00 00 00 00 00 00 00 00 00 00 00 00 00
       0.0 0.0 0.0 0.0
000050 00 00 00 00 00 00 00 00 00 00 00 00 00 00 00 00
       0.0 0.0 0.0 0.0
000060 00 00 00 00 00 00 00 00 00 00 00 00 00 00 00 00
       0.0 0.0 0.0 0.0
000070 00 00 00 00 00 00 00 00 00 00 00 00 00 00 00 00
       0.0 0.0 0.0 0.0

model.0.cross_attn_1.0.module.kv_norm.weight f4 [37]
000000 00 00 80 3f 00 00 80 3f 00 00 80 3f 00 00 80 3f
       1.0 1.0 1.0 1.0
000010 00 00 80 3f 00 00 80 3f 00 00 80 3f 00 00 80 3f
       1.0 1.0 1.0 1.0
000020 00 00 80 3f 00 00 80 3f 00 00 80 3f 00 00 80 3f
       1.0 1.0 1.0 1.0
000030 00 00 80 3f 00 00 80 3f 00 00 80 3f 00 00 80 3f
       1.0 1.0 1.0 1.0
000040 00 00 80 3f 00 00 80 3f 00 00 80 3f 00 00 80 3f
       1.0 1.0 1.0 1.0
000050 00 00 80 3f 00 00 80 3f 00 00 80 3f 00 00 80 3f
       1.0 1.0 1.0 1.0
000060 00 00 80 3f 00 00 80 3f 00 00 80 3f 00 00 80 3f
       1.0 1.0 1.0 1.0
000070 00 00 80 3f 00 00 80 3f 00 00 80 3f 00 00 80 3f
       1.0 1.0 1.0 1.0
000080 00 00 80 3f 00 00 80 3f 00 00 80 3f 00 00 80 3f
       1.0 1.0 1.0 1.0
000090 00 00 80 3f
       1.0

model.0.cross_attn_1.0.module.kv_norm.bias f4 [37]
000000 00 00 00 00 00 00 00 00 00 00 00 00 00 00 00 00
       0.0 0.0 0.0 0.0
000010 00 00 00 00 00 00 00 00 00 00 00 00 00 00 00 00
       0.0 0.0 0.0 0.0
000020 00 00 00 00 00 00 00 00 00 00 00 00 00 00 00 00
       0.0 0.0 0.0 0.0
000030 00 00 00 00 00 00 00 00 00 00 00 00 00 00 00 00
       0.0 0.0 0.0 0.0
000040 00 00 00 00 00 00 00 00 00 00 00 00 00 00 00 00
       0.0 0.0 0.0 0.0
000050 00 00 00 00 00 00 00 00 00 00 00 00 00 00 00 00
       0.0 0.0 0.0 0.0
000060 00 00 00 00 00 00 00 00 00 00 00 00 00 00 00 00
       0.0 0.0 0.0 0.0
000070 00 00 00 00 00 00 00 00 00 00 00 00 00 00 00 00
       0.0 0.0 0.0 0.0
000080 00 00 00 00 00 00 00 00 00 00 00 00 00 00 00 00
       0.0 0.0 0.0 0.0
000090 00 00 00 00
       0.0

model.0.cross_attn_1.0.module.attention.q_proj.weight f4 [32, 32]
000000 db 82 18 3b 6c 73 13 bc 1b 54 c4 3c 6f 35 e7 3b
       0.0023271355 -0.008999687 0.023965886 0.0070559303
000010 ab 9f 02 3d 9c e1 1d 3d 69 2c 44 3c 12 b0 9c 3b
       0.031890552 0.038545236 0.011973479 0.0047817314
000020 03 43 10 bd 14 c0 cf bb e7 df 63 bc cb 60 a7 3a
       -0.035220157 -0.006340036 -0.013908363 0.0012769935
000030 72 46 79 bc 3c e3 5d 3c 79 d5 8a bb 55 fc 59 bc
       -0.015214549 0.013542946 -0.0042368737 -0.01330479
000040 16 df 05 bd d3 a4 08 bd cf f2 ee b8 c7 56 80 3c
       -0.032683454 -0.033360314 -0.00011393951 0.015666379
000050 a7 f8 25 bd 8c d8 8e 3c e4 3e 35 3d af f0 dc ba
       -0.040520336 0.017437242 0.04424943 -0.0016856397
000060 ac 32 77 bb 90 e2 b1 3c d2 09 a0 3c 5e de 3b bc
       -0.0037719412 0.021714479 0.019535933 -0.011466591
000070 cb 06 18 b9 ca 1e c5 3a 72 45 9c bc 7b a2 ee bc
       -0.0001449838 0.0015039083 -0.019076083 -0.029130211
000080 be 16 48 3c 1d ea 0b 3c 1d 4b d1 bc e5 c4 aa 3c
       0.012212453 0.008539704 -0.025548512 0.02084584
000090 1b a4 b0 3c f2 fc d2 39 b4 1b 7a bc 1e 8a ca bb
       0.021562627 0.0004024278 -0.015265394 -0.0061810156
0000a0 dd fa 8e 39 7a 45 a0 3c 84 c1 07 3d d8 a8 55 bb
       0.00027271258 0.019564379 0.033143535 -0.003260186
0000b0 4e f6 a6 bc cf 94 31 ba e0 23 71 bc 50 46 5d bc
       -0.02038112 -0.00067741884 -0.014718026 -0.013505533
0000c0 ab 6b a8 bc 78 b0 c5 3b cb 4d 9c bc 32 f3 8d 3c
       -0.020559153 0.0060329996 -0.019080063 0.017327879
0000d0 8f 1c a7 bc 10 09 92 3c 66 0c 52 3c 81 25 eb 3c
       -0.02039936 0.017826587 0.012820339 0.028704407
0000e0 1b a2 08 bd 24 75 9c 3a 42 c8 92 3c c7 c9 ec bc
       -0.03335772 0.0011936766 0.017917756 -0.028904809
0000f0 a2 57 f9 bc 29 08 a9 3a 62 f1 21 bc 9a 78 89 3c
       -0.030437294 0.0012896109 -0.00988421 0.01678114
000100 44 81 24 3c 57 0f 01 3c 82 1e 07 3d de 2b f7 ba
       0.010040585 0.007877192 0.03298808 -0.0018857678
000110 ce a4 cb bc 79 50 98 bc 1e 7d 58 3c 89 5b b1 3c
       -0.024858858 -0.01859306 0.013213424 0.021650093
000120 14 81 45 bb 64 35 08 bd 4a bf 0f 3c 7f 91 0f bd
       -0.003013675 -0.033254042 0.008773634 -0.035050865
000130 1c 3d d5 3c 79 05 08 3c 02 a5 1d bc 58 62 fa ba
       0.026030116 0.008302086 -0.00962186 -0.0019102795
000140 ee fe b8 3b 9c 74 cd 3b d9 91 1f 3d 9b f3 29 bd
       0.0056456244 0.0062700044 0.03895745 -0.041492086
000150 a1 8d 64 3b 4a d4 da bb d0 ba 15 bc 3d ec 94 3c
       0.0034874456 -0.006678139 -0.009138778 0.018179053
000160 80 b2 98 bc de a6 90 bb 00 c6 02 3c 34 b1 9a 3b
       -0.018639803 -0.0044144234 0.007981777 0.0047208313
000170 4b 30 bb bc c5 cd ea 3b 27 8e db 3b 92 d2 c3 3b
       -0.022850176 0.007165643 0.0067002955 0.0059760297
000180 cc 13 e5 3c 9e 49 4b 3c 13 c6 7e 3c 9c 9c 50 3c
       0.027963541 0.012407688 0.015550154 0.012732651
000190 7d a8 21 bb 4a 57 43 3a f0 23 00 bb 6a c0 21 3c
       -0.0024667077 0.0007451667 -0.001955267 0.009872535
0001a0 86 b2 1b b9 0a 22 c4 bc 61 f6 ee 3c bc 0a 32 3b
       -0.00014848457 -0.023942012 0.029170217 0.0027167043
0001b0 56 95 12 3d 5e 4a 99 3c 27 00 0d bc 74 db b5 bc
       0.03578695 0.018712219 -0.008605993 -0.02219937
0001c0 f7 87 86 3c 47 76 61 3c 34 e3 20 bc 94 13 9f bb
       0.016422255 0.01376111 -0.009819794 -0.004854629
0001d0 1e 71 e3 3c 27 21 75 3b 09 68 8e bc 4e 53 8c bc
       0.0277639 0.0037403794 -0.017383592 -0.017129567
0001e0 c9 57 11 bd c9 19 6e bd 0b 6c b5 bc c5 4b ab ba
       -0.03548411 -0.05813006 -0.022146245 -0.0013068846
0001f0 b7 8b 29 bd 77 a3 8e bc 27 8a 5d 3d 7b 72 92 3c
       -0.041393008 -0.01741193 0.05408683 0.017876854
000200 49 25 98 3c f9 53 2e bc 8e 55 aa bc 2e f6 da 3b
       0.018572466 -0.010640138 -0.020792749 0.006682179
000210 e6 2c e1 bc fb 95 db 3c 2b bd 87 bc 00 6b c7 3c
       -0.02748723 0.026804915 -0.016569695 0.024343014
000220 61 ff 07 bc 30 9c 27 3d 12 e0 cb 3c 57 5c 35 bd
       -0.008300633 0.040920436 0.024887118 -0.044277515
000230 0f 93 be b9 87 e3 1b 3d 06 e6 44 bb 7d 72 27 bd
       -0.0003634919 0.038058784 -0.0030044331 -0.04088067
000240 c6 6a ec b8 ab 39 2f 3d 09 2b 8d 3c 77 11 c0 bc
       -0.00011273245 0.042779606 0.017232435 -0.023445828
000250 ca 30 af bb 54 a9 6f 3b 0d 1a 2f 3c b0 1e 6b bb
       -0.0053463923 0.0036569433 0.010687363 -0.0035876445
000260 64 74 8a bc bb 92 d0 3c 26 d2 72 bb 5c b8 f3 b9
       -0.016901202 0.025460592 -0.0037051528 -0.0004648593
000270 a7 18 cc bc de 64 cd 3c 5e c6 09 3d 4b e7 cb 3c
       -0.024914099 0.025072511 0.033636443 0.024890563
000280 97 b8 35 3d 02 7d 83 bc a5 7c 8f 3c 33 42 4c 3c
       0.04436549 -0.01605082 0.01751549 0.012466955
000290 2e c7 e2 3b 95 89 50 bc c7 ba b8 bc db 85 19 3c
       0.0069207167 -0.012728115 -0.02255 0.009370293
0002a0 e5 93 06 3c a9 c0 be 3c 17 dc 89 bb 62 3a d3 bc
       0.008213972 0.023285227 -0.004207145 -0.025784675
0002b0 2d c4 04 bd 2e ac f2 3c 30 56 d7 3a 53 66 07 bb
       -0.03241365 0.029623117 0.0016428884 -0.0020660355
0002c0 77 cc 31 3a e5 d9 c7 bc 46 0e 2a bc 20 fe 47 bc
       0.0006782482 -0.024395892 -0.01037938 -0.012206584
0002d0 9e ce ca 3a 02 fa 44 3d 2b 1a e2 3c b2 e1 b3 bc
       0.0015472954 0.04808999 0.027600368 -0.021958206
0002e0 b2 2b 6b 3c a6 15 71 3c 60 32 84 3c f9 24 14 bd
       0.0143536795 0.014714634 0.016137302 -0.036168072
0002f0 05 ec a4 bc a2 2d 02 bd 62 d4 aa bc 52 79 4c 3b
       -0.020132074 -0.0317818 -0.020853225 0.0031200242
000300 1e 17 bf bc f7 0b a3 bc dc 84 de 3b 24 2a a4 ba
       -0.023326453 -0.019903166 0.0067907404 -0.0012524766
000310 e2 7c 56 3c 10 fb b5 bb dd c3 aa 3c ae 8b 10 3d
       0.013091298 -0.0055536106 0.020845348 0.03528946
000320 73 21 83 bb 54 7e 0d 3a ce 94 33 3c 93 7f 12 3c
       -0.00400179 0.00053975475 0.010960771 0.008941549
000330 0e 16 ee bc 6d 2c c4 3a f6 d8 17 bc 1d 43 4a bc
       -0.02906325 0.0014966853 -0.009268036 -0.012345103
000340 04 19 09 3c 89 70 38 3c e6 13 54 bb 49 ac 96 3c
       0.008367781 0.011257299 -0.0032360493 0.018392699
000350 e2 55 3d bc 4b 0e 33 3c cb d4 1e bd d5 d8 48 bc
       -0.011556121 0.010928701 -0.038777154 -0.012258728
000360 d6 e8 83 bc c7 7f d7 ba d0 c4 e3 ba 09 fa 45 3d
       -0.016102236 -0.0016441279 -0.001737738 0.048334155
000370 c9 6e 36 3c f2 f2 9a 3c f6 22 15 3d 6d 77 1f bd
       0.011134812 0.018914673 0.036410294 -0.038932253
000380 54 f6 1e bd bc 82 81 3c 2f 8d 86 3c 54 36 63 bc
       -0.038809136 0.01580941 0.016424743 -0.013867933
000390 e1 e2 2b 3c e0 d8 48 bb ad e8 91 3c 38 d1 c1 3a
       0.010491104 -0.0030646846 0.017811144 0.0014787083
0003a0 82 e0 5a bc a6 45 f7 3b b2 63 19 bd 38 86 45 bc
       -0.013359191 0.0075461445 -0.037448592 -0.012055926
0003b0 9c 1e 42 3c d2 db bf 3c 85 7f 89 bc 1b 7a 90 bc
       0.011848118 0.023420248 -0.016784439 -0.01763635
0003c0 ca e5 b7 3b d5 29 5a 3c 09 7c a4 bb c9 45 ab 3c
       0.00561211 0.013315638 -0.005019669 0.0209073
0003d0 f4 cb 8a 3b f5 91 1f bd be 9d 13 3d 12 fa 00 3c
       0.004235739 -0.038957555 0.036039107 0.007872121
0003e0 78 90 3e 3c 22 73 c3 bb 7e c1 80 bc ef 9c c7 3b
       0.011631124 -0.0059646526 -0.015717264 0.006091706
0003f0 7a 8c 1f 3d bf 09 9d bc 95 e3 7f ba 1e fe 7e 3c
       0.03895233 -0.019169686 -0.00097613904 0.015563516

model.0.cross_attn_1.0.module.attention.q_proj.bias f4 [32]
000000 00 00 00 00 00 00 00 00 00 00 00 00 00 00 00 00
       0.0 0.0 0.0 0.0
000010 00 00 00 00 00 00 00 00 00 00 00 00 00 00 00 00
       0.0 0.0 0.0 0.0
000020 00 00 00 00 00 00 00 00 00 00 00 00 00 00 00 00
       0.0 0.0 0.0 0.0
000030 00 00 00 00 00 00 00 00 00 00 00 00 00 00 00 00
       0.0 0.0 0.0 0.0
000040 00 00 00 00 00 00 00 00 00 00 00 00 00 00 00 00
       0.0 0.0 0.0 0.0
000050 00 00 00 00 00 00 00 00 00 00 00 00 00 00 00 00
       0.0 0.0 0.0 0.0
000060 00 00 00 00 00 00 00 00 00 00 00 00 00 00 00 00
       0.0 0.0 0.0 0.0
000070 00 00 00 00 00 00 00 00 00 00 00 00 00 00 00 00
       0.0 0.0 0.0 0.0

model.0.cross_attn_1.0.module.attention.k_proj.weight f4 [32, 37]
000000 a6 f8 30 3c f8 f2 5c 3c e7 d8 f9 3c e4 d8 2a 3c
       0.01080147 0.013485663 0.030498935 0.010427687
000010 67 cf 91 bc cd e5 a9 3b 98 1d d4 3b 24 a6 35 3c
       -0.017799092 0.005184865 0.0064732544 0.011086974
000020 ac 6f d6 bc 4b a0 55 3b f0 ca 0a bc 80 2d 07 bc
       -0.026176296 0.0032596763 -0.008471236 -0.008250594
000030 f5 48 bc 3c 9e f7 26 3a 8a a3 9c 3c 21 a7 ab 3b
       0.022984007 0.00063692953 0.01912095 0.005238429
000040 00 80 05 bc bd 8b 73 3c fd 8c 00 3d d5 f8 f9 bb
       -0.008148193 0.014864859 0.031384457 -0.00762854
000050 79 c6 b5 bc de 72 c7 3b d2 40 70 3d 1c 90 bf 3c
       -0.022189366 0.0060866913 0.058655567 0.023384146
000060 d5 e0 13 bd aa 34 32 3c e0 d5 d8 bc 84 47 a4 3c
       -0.03610309 0.010876814 -0.026469171 0.020053633
000070 44 f2 82 3c 1d 86 cc bc c5 64 4c bb b7 56 11 bd
       0.015984662 -0.024966294 -0.0031187993 -0.03548309
000080 a4 54 31 bd 8e d2 f4 3b 49 a6 2b 3b bc f9 8c bc
       -0.04329361 0.007471389 0.0026191643 -0.017208926
000090 10 24 07 bd 75 4c 39 3d 80 2e 94 3c c5 29 bc bc
       -0.032993376 0.04523893 0.01808858 -0.022969136
0000a0 c6 8c 6a bc 52 31 a7 3c 09 18 0a 3c 21 65 25 bc
       -0.01431579 0.02040926 0.008428582 -0.010094912
0000b0 fd 5e 87 3c 6e 34 ef 3b 9a 80 16 3c 75 0d 40 3d
       0.016524786 0.0072999513 0.009185934 0.046887834
0000c0 c6 30 d0 3c 46 8b d5 bb f0 8d ae 3a 80 98 9a bb
       0.025413882 -0.006516847 0.0013317447 -0.0047178864
0000d0 8e 04 18 3b 73 74 90 3b 52 2b 01 3b ad 15 92 3c
       0.0023196074 0.004408413 0.0019709659 0.017832601
0000e0 66 5f 2c 3d c0 c4 6b bb 2e 13 3b 3c e6 e2 98 bc
       0.042083167 -0.0035975426 0.011418147 -0.018662881
0000f0 18 57 33 ba b8 88 c8 3b 22 c0 10 3c 06 d3 a4 3c
       -0.0006841286 0.006119814 0.0088348705 0.020120155
000100 2f c5 2d bb c6 7f 42 bc 98 27 8d bc 75 32 45 3c
       -0.0026515236 -0.011871284 -0.017230794 0.012035956
000110 af 74 f5 3b 2c 85 8a 3c b2 31 17 bd 20 70 72 3b
       0.0074907164 0.016909204 -0.036912628 0.0036993101
000120 78 c9 20 bd 85 41 c5 bc 98 39 e4 3b 3c ad 34 3b
       -0.039254636 -0.024079094 0.0069648735 0.0027569076
000130 64 65 0f bd 5d e8 b6 bc b3 bf b7 bb c4 d4 1d bc
       -0.035008803 -0.022327596 -0.005607569 -0.009633247
000140 b3 0c 21 bd 97 63 b4 3c 7c 8a 55 3b 70 87 06 3c
       -0.03931875 0.022020144 0.0032583764 0.008211002
000150 55 5f b7 3c 0b 8c b2 3b f1 ff 96 bc 0e 06 6d bc
       0.022384325 0.0054488233 -0.01843259 -0.014466776
000160 86 18 c4 bc e6 97 b0 3c 49 9b c4 39 1d 2d f3 bb
       -0.023937475 0.021556806 0.0003749973 -0.0074211494
000170 87 bc 72 bc c9 ec 0d bc d5 68 c7 bc aa 8c 6b ba
       -0.014815456 -0.008662411 -0.02434198 -0.0008985499
000180 15 2e 3d bc 93 7f 34 bc f2 67 87 bc ed 77 9f bc
       -0.011546631 -0.011016744 -0.016529057 -0.019466365
000190 00 3f 84 3c 4b 20 28 bc 87 5d a2 bc 73 e2 8c bc
       0.016143322 -0.0102616055 -0.019819988 -0.017197823
0001a0 27 b5 1a bc dd 10 51 bb cb d2 63 3c d8 aa ad ba
       -0.009442604 -0.003190092 0.013905237 -0.0013249768
0001b0 2e fc dc 3c 41 7a 44 3c e8 cf 99 bc 4d ef 9b bb
       0.026975717 0.011992038 -0.018775895 -0.0047587515
0001c0 b5 3f 51 bc 97 7c 4f bc a4 8e bc 3b 07 6f 02 3d
       -0.012771537 -0.012663982 0.005754309 0.031844165
0001d0 c2 41 70 3c 87 0a af bc 4b 1f b4 3a bd ef 0a bd
       0.014664115 -0.021367325 0.0013742236 -0.03392004
0001e0 b2 29 9d bc a9 b3 19 bb ce 1b e9 39 e9 b1 26 3d
       -0.019184921 -0.0023453033 0.0004446194 0.040697012
0001f0 4c 52 5a bb 2a e7 19 3a 19 2b d6 ba 94 77 ef 3c
       -0.0033313213 0.0005870933 -0.0016339748 0.029231824
000200 89 7d 88 3b f3 8b ee 3a 59 cc 99 3b 2f d0 16 3d
       0.0041653556 0.0018199667 0.0046935496 0.036819633
000210 cc ea a1 bc c2 27 b6 3c bd af 80 3c a8 75 07 3d
       -0.01976528 0.022235755 0.015708799 0.03307119
000220 fc c7 51 3c 4f c8 4a 3c e4 e3 12 bd eb be 8d 3c
       0.012804028 0.012376859 -0.035861865 0.01730295
000230 8b dc b3 ba 4b 39 9c bc 12 28 9d 3c 3c cd 46 3c
       -0.0013722343 -0.019070288 0.019184146 0.012133893
000240 1d 9b ac 3c e5 67 6c 3c 7e 21 fa ba f2 76 b4 3c
       0.021070058 0.014429067 -0.0019083468 0.022029374
000250 63 f3 7e 3c 23 6f 69 bb a5 3e c6 3a ea 6b e6 bc
       0.015560958 -0.003561922 0.0015124871 -0.02812763
000260 be 29 72 bc a6 4d 0e bd 17 b0 af 3b 3e 82 b4 bc
       -0.01478046 -0.03474202 0.0053615677 -0.02203476
000270 46 48 6f bc e2 8a 97 3c fb fb 0c bd bc da e0 bb
       -0.014604634 0.018498842 -0.034419995 -0.0068620127
000280 ac c1 98 bc 79 cf b4 3c 77 6b 64 3b ae eb 7e 3c
       -0.018647037 0.022071587 0.0034854093 0.01555912
000290 d2 c4 9f bc 3d e1 02 3c 6d fc 83 bc 24 d6 40 bd
       -0.01950303 0.007988271 -0.016111577 -0.04707922
0002a0 ad 2e 03 bd b1 7b 0a 3c 2b fa 50 3c c9 e6 e8 3c
       -0.032026935 0.008452342 0.012754957 0.02843036
0002b0 b0 56 84 bc f4 a6 96 3a c1 52 64 3c 6c a6 f8 3b
       -0.016154617 0.0011493848 0.013935746 0.0075881984
0002c0 29 19 d8 bc 41 0c 18 3c 4f 85 12 bc 45 5c 48 3c
       -0.026379185 0.009280265 -0.008942916 0.01222903
0002d0 a0 c3 1c bd 5b fa 67 bc f5 b7 b6 3c 9b fb c5 3c
       -0.0382725 -0.0141588105 0.022304514 0.024167826
0002e0 98 a2 09 bb 86 f7 8e 3c 32 12 f4 3b 37 08 90 bc
       -0.0021001454 0.017452013 0.007448458 -0.017582042
0002f0 12 6f ba bb 20 5c 6f bb 35 38 f5 3c 69 53 9d bb
       -0.00568951 -0.0036523417 0.029934028 -0.004801203
000300 b1 a6 0f bc 93 51 c1 39 8c 32 fc 3b 44 87 30 bc
       -0.00876777 0.00036872606 0.0076964553 -0.010774437
000310 6b 4f e7 ba 41 12 87 bc 49 ae 09 bd 3c 7c e1 bb
       -0.001764757 -0.016488196 -0.033613477 -0.006881265
000320 79 b5 84 3c af cd 85 bc 67 59 12 bd 14 14 ac bc
       0.016199814 -0.01633343 -0.035729792 -0.021005668
000330 60 f8 22 bd 5e 16 24 3d d2 ab ca 3b 18 5a e4 3b
       -0.03978765 0.040060394 0.0061850334 0.006968748
000340 0b db b1 ba a9 60 6b 3d 1d 10 a1 3b 7c 58 7d 3c
       -0.0013569308 0.05746523 0.004915251 0.015462991
000350 0f 6b 01 3d be 0b 76 3a bc 6d af bc 39 6e 83 bb
       0.03159624 0.0009385905 -0.02141463 -0.0040109423
000360 06 c0 dc bc a0 4d 42 bc c7 0c 41 3b ad 42 2a bc
       -0.026947033 -0.011859328 0.0029457079 -0.010391873
000370 85 7b 29 bd 4f 3e fb bb 69 35 08 3b 02 d1 5b 3c
       -0.041377563 -0.00766734 0.0020783788 0.013416531
000380 e9 4f 00 3d ea 41 52 bb 92 a1 dc ba ca c7 3d bc
       0.03132621 -0.0032082745 -0.001683282 -0.011583278
000390 cd e7 27 bc c1 e1 42 3c bb b9 14 3d bd 9e 33 3d
       -0.010248137 0.011894644 0.03630994 0.043852556
0003a0 40 94 a2 bc 32 8a 7b 3c 4a c0 ac bc 9c 31 d9 3a
       -0.019846082 0.015352773 -0.021087784 0.0016570571
0003b0 0a ce ac 3b d4 99 7d 3b 1f 3d 8b 3c 05 32 8e bc
       0.005273585 0.0038696425 0.016996918 -0.017357836
0003c0 f3 c2 46 bd b2 80 12 bd dc 09 53 3c 74 c8 77 bc
       -0.04852576 -0.035767265 0.012880769 -0.015123475
0003d0 a2 4d 95 bc 02 0c 00 bd 2d 4c 33 3c ea 77 59 bc
       -0.018225495 -0.03126145 0.010943455 -0.013273219
0003e0 16 33 17 3c 17 19 6e bb 0c 30 4f 3c f6 31 a4 3c
       0.009228488 -0.0036330873 0.012645733 0.020043354
0003f0 e9 33 f4 3a ee 48 d8 3c 26 c3 01 3d 6b 84 ee ba
       0.0018631193 0.026401963 0.03168025 -0.0018197423

model.0.cross_attn_1.0.module.attention.k_proj.bias f4 [32]
000000 00 00 00 00 00 00 00 00 00 00 00 00 00 00 00 00
       0.0 0.0 0.0 0.0
000010 00 00 00 00 00 00 00 00 00 00 00 00 00 00 00 00
       0.0 0.0 0.0 0.0
000020 00 00 00 00 00 00 00 00 00 00 00 00 00 00 00 00
       0.0 0.0 0.0 0.0
000030 00 00 00 00 00 00 00 00 00 00 00 00 00 00 00 00
       0.0 0.0 0.0 0.0
000040 00 00 00 00 00 00 00 00 00 00 00 00 00 00 00 00
       0.0 0.0 0.0 0.0
000050 00 00 00 00 00 00 00 00 00 00 00 00 00 00 00 00
       0.0 0.0 0.0 0.0
000060 00 00 00 00 00 00 00 00 00 00 00 00 00 00 00 00
       0.0 0.0 0.0 0.0
000070 00 00 00 00 00 00 00 00 00 00 00 00 00 00 00 00
       0.0 0.0 0.0 0.0

model.0.cross_attn_1.0.module.attention.v_proj.weight f4 [32, 37]
000000 ae 1e 17 bb 0d 99 92 bc 55 ae 09 3d bb 00 5c bc
       -0.0023059058 -0.017895246 0.03361352 -0.0134279085
000010 3e ef 46 3c ec 7d 08 3a 4c ad 50 3d 40 13 bb 3c
       0.012142001 0.0005206752 0.05094652 0.022836328
000020 2a 1a c5 bb 57 eb 7d 3b 58 e0 fa 39 34 d6 55 bd
       -0.006015082 0.003874501 0.00047850865 -0.052206233
000030 62 33 32 3b a6 6a 27 3c 50 81 db 3c 1b fb f5 bc
       0.002719127 0.010218298 0.02679506 -0.030026963
000040 b5 08 41 bd b2 8c b6 bb cc 98 f8 bc c1 7f d9 3c
       -0.047127444 -0.0055709714 -0.030346297 0.026550176
000050 02 d2 55 bc 07 da aa 39 fd d4 d8 3c 8b a9 2f bd
       -0.013050558 0.0003258737 0.026468748 -0.0428863
000060 ee 2b a8 bc 02 55 07 3d 81 81 d6 3c 46 ea bb bb
       -0.02052876 0.033040054 0.0261848 -0.0057347147
000070 79 15 e1 bc 75 e7 cd 3c 45 ed 0b 3c c1 f7 45 bd
       -0.02747606 0.025134781 0.008540456 -0.04833198
000080 01 d9 74 bc e9 1c 8c bb e9 d6 68 bc 98 62 19 3c
       -0.014944316 -0.0042759073 -0.014211395 0.0093618855
000090 b8 b8 0f 3d 5d 07 41 3b ff 03 86 bc eb 68 85 3c
       0.03508827 0.0029453852 -0.016359327 0.01628538
0000a0 00 d6 39 bb 89 6f 21 3d 3b 86 79 3c e7 bd 97 3c
       -0.0028356314 0.03941301 0.015229757 0.01852317
0000b0 8f 9f dc 3b 6f ed a4 3a 4b cd 4d bb 6e ec 37 bd
       0.006732888 0.0012582968 -0.0031402882 -0.04490321
0000c0 25 c6 c0 bb fe 66 59 3c 18 d5 db bc 0c 47 77 3b
       -0.0058829957 0.013269184 -0.02683501 0.0037731556
0000d0 3d af 95 3c ad 2c 1d 3c b9 fd 4c 3b 38 ad ce bc
       0.018272037 0.009593171 0.003127916 -0.025229082
0000e0 10 68 30 39 44 76 d3 bc 41 48 b7 3b aa 91 63 3c
       0.00016823434 -0.02581323 0.00559333 0.0138897095
0000f0 93 b2 04 3c 80 08 eb 3a cb ad 17 3b 27 79 a5 3c
       0.008099216 0.001793161 0.002314436 0.020199372
000100 fc 1d 83 3c 1d 5c 2f 3c d7 78 f4 3b 1f 0d 13 bd
       0.016005509 0.010703114 0.0074606943 -0.035901185
000110 a7 1c e2 3c 86 f9 bb bc 17 fe cf 3c 65 7e 9e 3c
       0.027601553 -0.02294613 0.025389714 0.019347379
000120 c2 f1 90 3c 19 04 59 3b 24 a5 46 bc eb ec 99 bc
       0.017693404 0.0033114015 -0.0121243335 -0.01878973
000130 0b 29 6d bc 41 9d ca 3a db d8 0d 3a 93 0b fd 3c
       -0.014475117 0.0015458242 0.0005411037 0.030889308
000140 be e0 7c 3b 40 d8 2f ba 8e d4 20 bb cb 0b 0e bd
       0.0038586105 -0.0006707944 -0.0024540755 -0.034679215
000150 94 cd 6a bb 21 b6 4f bc 36 2d 17 bc 73 47 b1 bc
       -0.00358281 -0.0126777 -0.009227088 -0.021640515
000160 2b f1 dc bc cb 86 81 3c 2e 79 a3 3c c0 3a a7 3b
       -0.026970467 0.015811345 0.019955244 0.005103439
000170 89 bf 0c 3c d2 4c 57 3c 52 30 96 3c ef 74 be 3c
       0.008590587 0.013140874 0.018333588 0.023249118
000180 0b 59 a2 3c c7 58 fd 3c 7f d5 84 bb 2d 76 b1 bb
       0.01981785 0.030926121 -0.004053771 -0.005415699
000190 c0 04 b5 bb 14 43 43 3b 17 87 c2 bc 45 36 a5 bc
       -0.005524248 0.002979462 -0.023746056 -0.02016748
0001a0 af 26 52 3c fd 24 97 3c a3 43 88 3b 66 f1 c2 3a
       0.012826606 0.018450255 0.0041584536 0.0014872968
0001b0 6c 99 05 bb 50 2e 2e 3c 67 f1 15 3c a5 7e 6e 3b
       -0.0020385636 0.010631159 0.009151793 0.0036391404
0001c0 41 39 78 3c 25 1e 51 bc 6f de 79 3b 8d df c1 bc
       0.015150369 -0.012763535 0.0038126966 -0.023666168
0001d0 8f 3e 2d 3d 25 6e a7 bc 59 ee ae bb 66 94 99 3c
       0.04229599 -0.020438263 -0.005338472 0.01874752
0001e0 d6 cd 87 3c ab bf 9d 3c bb 40 2d bb 04 12 14 3c
       0.016577642 0.019256433 -0.0026436287 0.009037498
0001f0 da 28 11 3c 20 d9 03 3c 6a 57 06 bb 59 27 c4 bc
       0.008859837 0.008047372 -0.002049888 -0.023944544
000200 05 7b cb 3b 47 79 30 bc 78 83 31 3c 13 a9 fd bc
       0.0062097334 -0.010771102 0.010834567 -0.03096441
000210 dc eb 92 3c cf e8 73 3b d3 0e 0e 3d 84 a4 a9 bb
       0.017934732 0.0037217622 0.034682106 -0.0051770825
000220 53 98 89 bb a0 5e df b8 58 53 a4 bc a6 ed 96 3c
       -0.0041990667 -0.00010651094 -0.020059273 0.018423866
000230 3e 18 0f 3c b2 92 01 3c b9 7f 7a 3c 6c 47 23 3c
       0.008733807 0.00790851 0.0152892405 0.009965759
000240 70 82 80 3c a8 9b 93 3b 24 3d 40 bd 99 e0 03 bc
       0.015687197 0.0045046397 -0.04693331 -0.008049154
000250 bd af e1 bc 5b 88 15 3d 7d 44 39 bd eb 85 da bc
       -0.027549619 0.03650699 -0.04523133 -0.026675185
000260 05 de 4e 3b ed d2 21 3c dc b6 6b bc ce 4f 17 bc
       0.003156544 0.009876949 -0.014386859 -0.0092353355
000270 60 1b 6e ba a9 f2 ac 3c eb c8 23 3c 9d e2 d9 3b
       -0.00090830587 0.021111803 0.009996633 0.006649329
000280 80 21 14 bc 30 09 96 3c d3 6a 7d bc 4b 03 b7 b9
       -0.00904119 0.018314928 -0.015467363 -0.00034906933
000290 b1 58 0e bd 41 40 47 3c b0 9c a2 bc 9b 12 b5 3b
       -0.03475255 0.012161315 -0.019850105 0.0055258996
0002a0 8c 2f 7d 3b d7 c6 5b 3c 28 de 82 bb 53 71 26 3c
       0.0038633076 0.013414106 -0.0039937682 0.010158855
0002b0 4a 39 c0 bc 04 08 4a 3b 02 43 b1 bb 46 86 b7 bc
       -0.023464818 0.0030827532 -0.0054095993 -0.022402894
0002c0 2a 57 69 3c dd fb 4c 3d 8b 54 db bc ab a0 d0 bc
       0.014241973 0.050044883 -0.026773712 -0.025467237
0002d0 24 f5 bc 3c bd 50 e7 bc eb 1c 18 3c 42 a1 2e 3d
       0.02306611 -0.028236741 0.009284238 0.042634256
0002e0 32 db b1 bb 75 e7 fc 3c c2 5e d1 bb 27 7d 96 bb
       -0.0054277414 0.030872086 -0.00638947 -0.004592556
0002f0 49 db d1 bc 00 89 33 3c 8b 5c 11 bc eb 73 78 ba
       -0.025617259 0.010957956 -0.008872162 -0.00094777223
000300 4d a1 3d bc 6d d9 11 3c ae 53 03 bb 04 2d 83 bc
       -0.011574102 0.008901936 -0.002003889 -0.016012676
000310 5e 47 cc 3a db fa d8 3a d9 b7 67 3b f4 19 0f 3d
       0.0015585234 0.0016554253 0.0035357384 0.03493686
000320 ba 8f 09 bd 98 10 2f 39 3d 3d 82 3c 00 69 b9 39
       -0.033584334 0.00016695482 0.015898341 0.0003536418
000330 96 60 8f 3c aa 19 44 bd 1d 3b 8a 3c 84 53 c8 3b
       0.01750211 -0.047876038 0.01687389 0.0061134715
000340 f7 9f 01 bd 24 09 e7 3c d0 99 21 3d c2 95 8d 3b
       -0.031646695 0.0282026 0.039453328 0.004320831
000350 80 f2 e0 bc 07 84 86 3c e9 ef 4a 3c d1 a6 a0 bc
       -0.027459383 0.016420377 0.012386301 -0.019610794
000360 36 54 af 3c e2 7c 13 bd 22 83 a8 3c 54 46 e2 bc
       0.02140246 -0.03600777 0.020570341 -0.027621426
000370 40 68 02 3c 46 d7 33 3d c6 71 67 bc 72 a9 8b bc
       0.007959425 0.043906473 -0.014126247 -0.017048571
000380 47 22 72 3c ca 8c 2d 3c a7 19 54 3b ea 10 b8 3c
       0.01477868 0.010592649 0.0032363923 0.022469003
000390 30 2c 33 3b d2 7f 01 bc b4 4a e7 bc 0b 03 84 ba
       0.002733957 -0.00790401 -0.028233863 -0.0010071708
0003a0 2f 2b 31 3c f4 6d 0e bd dd 06 84 bc 45 d4 cc b9
       0.010813518 -0.03477283 -0.016116554 -0.00039068065
0003b0 6f 85 aa bb 34 69 b7 ba 00 69 f1 bc d7 a3 a5 3c
       -0.005203895 -0.0013993145 -0.029469013 0.020219726
0003c0 70 2a f4 bc 8f a2 83 3b 7d 72 18 bc b9 89 c8 bb
       -0.029805392 0.004017181 -0.00930464 -0.0061199334
0003d0 fe bf 59 3c 88 dc 09 ba 60 50 89 3b 24 ef 9c 3c
       0.013290403 -0.0005258997 0.0041904896 0.019157
0003e0 cc 86 57 3b db f7 77 3b 85 ba 38 3d 19 09 1f 3d
       0.0032886742 0.0037836942 0.045099754 0.038827036
0003f0 0b d7 82 bb d3 41 b6 bc f7 78 6b bb 6d 6d ad bc
       -0.0039929203 -0.022248184 -0.0035930255 -0.021170342

model.0.cross_attn_1.0.module.attention.v_proj.bias f4 [32]
000000 00 00 00 00 00 00 00 00 00 00 00 00 00 00 00 00
       0.0 0.0 0.0 0.0
000010 00 00 00 00 00 00 00 00 00 00 00 00 00 00 00 00
       0.0 0.0 0.0 0.0
000020 00 00 00 00 00 00 00 00 00 00 00 00 00 00 00 00
       0.0 0.0 0.0 0.0
000030 00 00 00 00 00 00 00 00 00 00 00 00 00 00 00 00
       0.0 0.0 0.0 0.0
000040 00 00 00 00 00 00 00 00 00 00 00 00 00 00 00 00
       0.0 0.0 0.0 0.0
000050 00 00 00 00 00 00 00 00 00 00 00 00 00 00 00 00
       0.0 0.0 0.0 0.0
000060 00 00 00 00 00 00 00 00 00 00 00 00 00 00 00 00
       0.0 0.0 0.0 0.0
000070 00 00 00 00 00 00 00 00 00 00 00 00 00 00 00 00
       0.0 0.0 0.0 0.0

model.0.cross_attn_1.0.module.attention.o_proj.weight f4 [32, 32]
000000 e7 0e 55 3c d3 46 a5 3b 59 5d 45 3b c2 bf e5 3b
       0.013004041 0.0050438433 0.0030115454 0.0070113847
000010 77 2b 33 3c 8a 4f aa ba 19 dc d6 3b f8 16 14 3d
       0.010935656 -0.0012993675 0.0065569994 0.036154717
000020 30 b0 61 3c 42 e2 45 ba 13 88 c4 3c e1 4f fc 3b
       0.0137749165 -0.00075486687 0.023990666 0.007699952
000030 b3 6b 84 3c fc b1 ba 3b b6 ed 0d 3c f0 b0 44 bd
       0.016164636 0.005697487 0.008662632 -0.048020303
000040 e0 9f 26 3d 10 57 b8 3c eb ff 06 3d a4 48 83 bc
       0.040679812 0.022502452 0.032958906 -0.016025849
000050 c1 d9 78 bc e1 38 a8 bb 4b dc a3 3c 15 a5 55 bb
       -0.015188635 -0.0051337336 0.020002505 -0.0032599617
000060 ac d0 9a bc 14 19 b6 ba bc e2 50 bb b4 35 fc bc
       -0.01889833 -0.0013892972 -0.0031873425 -0.030787326
000070 55 48 d4 bc ca a0 54 3d 70 5b 0b bd 87 d0 f7 bb
       -0.025913397 0.051911153 -0.03402275 -0.0075627
000080 f9 cc c4 3c c4 71 4b bb 9e 1d 24 bb 1a 1d 1a bb
       0.02402352 -0.0031043151 -0.0025042067 -0.002351588
000090 b8 24 cc 3c e5 cc a9 bc 40 eb b0 3c 2f f4 df bc
       0.024919853 -0.020727584 0.021596551 -0.027338115
0000a0 a9 a6 f3 bb 32 de db bb 04 3c aa bc 67 a2 e6 bb
       -0.007435639 -0.0067098374 -0.02078057 -0.007038403
0000b0 81 e8 02 3d af d4 4d 3c 8f 34 f7 bc 5a a4 0f bd
       0.031960014 0.012562915 -0.03017643 -0.035068847
0000c0 17 d2 91 bc 9b 37 ec bc 39 2d a8 3c 0d dc 83 3c
       -0.017800374 -0.028835109 0.020529376 0.01609614
0000d0 86 3c 52 3c 1c f3 00 bd 59 7c 49 3c b8 c6 d0 bc
       0.012831813 -0.031481847 0.012297713 -0.025485381
0000e0 41 97 d8 3c 07 5d 06 3d 1b 47 28 3c ef f4 8c bb
       0.026439311 0.03280356 0.010270859 -0.0043016593
0000f0 fb 8e 86 bc 61 dc b7 3c fc 77 61 3c 2f 8d 07 bb
       -0.0164256 0.022443952 0.013761517 -0.0020683517
000100 8a c0 c0 bc b2 51 15 3d 23 c2 a1 3c 9b 65 22 bc
       -0.02352931 0.036454864 0.019745892 -0.00991192
000110 66 b0 9c 3c ea 71 c9 3c 53 e2 c7 3c 69 7f 1a 3d
       0.019127082 0.024590451 0.024399912 0.037719164
000120 74 9e 18 3d b8 17 b4 bb db 65 fc 3a 3f 6b 08 bd
       0.037260488 -0.0054959916 0.001925643 -0.033305403
000130 9c ce e8 b9 d0 bb 51 bc bf 4c 8b bc 59 69 ef 3c
       -0.00044404424 -0.012801126 -0.017004369 0.029225038
000140 04 a5 13 3d a7 25 38 ba 5e f9 46 bc e4 f1 36 bc
       0.036046043 -0.00070246536 -0.012144415 -0.01116607
000150 42 13 fb bb 3b 7e c1 bb 47 c7 e6 bc cd 7d 14 bd
       -0.007662208 -0.0059049404 -0.028171195 -0.036252785
000160 96 49 b0 bc 24 8b 53 3c de 05 57 ba 2a 60 d4 3b
       -0.021519464 0.012911592 -0.00082024734 0.00648119
000170 ec f5 77 3c 0b 7c bc 3c b5 3c cc 3b 34 23 4a bc
       0.015134316 0.023008367 0.006232823 -0.012337495
000180 3e dd f2 bc fe c6 80 3c d2 7a 8d 3c 86 bc 96 bb
       -0.029646512 0.015719887 0.01727048 -0.0046001105
000190 0a 7f af bc 37 57 01 3b b9 98 00 38 01 ed 40 bd
       -0.021422882 0.0019735822 3.0659812e-05 -0.047101025
0001a0 bd 5b d5 bc 0e e3 5a 3c f3 28 78 bc 00 a3 8d bb
       -0.02604472 0.013359798 -0.015146482 -0.0043224096
0001b0 13 70 12 3c d7 41 10 bb a3 5f 21 bd e0 59 84 bc
       0.008937853 -0.00220119 -0.039397847 -0.016156137
0001c0 69 07 3f bc 94 c0 ce bb c6 e4 fb 3b 02 60 bc 3c
       -0.011659482 -0.006309578 0.007687184 0.022994999
0001d0 37 82 a7 bc 58 dd 14 bc 6d ab 89 bc 30 18 c0 bc
       -0.020447833 -0.009085976 -0.016805375 -0.023449033
0001e0 bf 3a 0f 3c 50 04 c2 3c 33 66 5c bc 58 36 1e bc
       0.0087420335 0.023683697 -0.013452101 -0.009656511
0001f0 c6 c2 8c 3c e5 23 ab 3c 87 62 c0 3b ea 6a a8 bc
       0.017182719 0.02089114 0.0058711204 -0.020558793
000200 8b e1 36 bc e5 74 f6 3c fb 21 4c 3d be 64 22 bc
       -0.011162172 0.030085037 0.049837094 -0.009911714
000210 a7 d9 f0 3b c7 4a 18 ba a7 a3 c2 bb 5c fa fa bc
       0.007350165 -0.00058094825 -0.005939919 -0.030636959
000220 0a 29 60 3b 69 da 10 3c ad 56 48 3c d3 58 c8 bb
       0.0034204149 0.008841136 0.012227696 -0.0061141043
000230 21 27 40 3c 77 20 3a bc 4f 0a 13 3c f4 6c 9c 3b
       0.011728079 -0.011360279 0.008974626 0.0047737304
000240 a6 5f d3 bc 46 bb f9 3b 28 96 96 3c db 58 6c ba
       -0.025802445 0.0076212017 0.018382147 -0.0009015926
000250 80 38 26 bc 51 88 1c 3d 45 71 4b bb a2 4a 61 3c
       -0.010145307 0.03821594 -0.0031042856 0.013750704
000260 1a a5 0a bd 0f f5 31 bc d7 a7 c0 bc bd c5 f6 bb
       -0.03384886 -0.010861649 -0.023517532 -0.0075308965
000270 a4 a4 0a bc 4b a6 09 bc bc b6 5f 3c 9d 05 98 3c
       -0.008462105 -0.008401464 0.013654407 0.018557364
000280 ee 2f da 3c 74 a9 b3 3c 30 b3 d6 3c e0 2a b0 3c
       0.026634183 0.021931387 0.02620849 0.02150482
000290 72 fb a9 3b d2 70 57 3b 94 01 ec 3c ff 75 1f bb
       0.0051874453 0.0032873643 0.028809346 -0.0024331806
0002a0 a1 97 74 bb 19 26 93 3c 91 3d 04 3d 37 d4 e0 3c
       -0.0037321823 0.017962502 0.032285277 0.027444942
0002b0 d0 ce 26 3c eb 2a 3b 3d 1d 96 5c 3a 97 70 89 3c
       0.010181144 0.045695227 0.00084147026 0.01677732
0002c0 a1 fb d6 bc f9 6c c4 bc f7 51 b9 bb 46 6e c6 3c
       -0.026243033 -0.023977743 -0.005655523 0.024222504
0002d0 98 2d 5a 3d 41 0e 69 3c 09 3a 3e 3a d2 93 cb 3a
       0.053266138 0.01422459 0.0007256573 0.0015531725
0002e0 f3 94 ed bc 04 e0 1e bd 69 58 bb bc dd 64 2c bc
       -0.029001689 -0.038787857 -0.022869306 -0.010522095
0002f0 bb 17 00 3d f3 b1 fe bc 58 0a 6e 3c ef f7 ab 3a
       0.03127263 -0.031090712 0.014528833 0.0013120155
000300 da 2d 1f 3c 91 c5 84 bc 5d 14 f4 bc 67 36 e6 bc
       0.009715522 -0.016207488 -0.029794866 -0.028102113
000310 8c 0f 74 3c 14 42 97 3b 5d 59 aa 3b c2 2b 10 3d
       0.014896285 0.0046160314 0.005198641 0.03519798
000320 95 ec c0 3c 21 64 f9 bb f3 09 b8 39 34 ee 1f 3d
       0.023550311 -0.0076108132 0.00035102628 0.039045528
000330 e5 3b 84 3b 5d 9b 46 39 3b 36 99 3c 0d 36 35 bc
       0.0040354603 0.00018940629 0.018702617 -0.01106025
000340 65 a7 c2 3c 12 27 65 3c 7e ce de bb 60 fd cf 3c
       0.02376146 0.013986366 -0.006799518 0.025389373
000350 6a 20 92 bc 02 34 d0 bb 52 c2 e1 3c 1d 82 23 bd
       -0.017837722 -0.006353856 0.02755848 -0.039919008
000360 36 d5 90 3c 12 9d 83 3c 86 d6 0a bc a6 0c ac bc
       0.017679792 0.016066108 -0.008473998 -0.021002125
000370 74 ae 10 3d 9d 74 ee 3c 96 14 a0 bc 05 30 df bb
       0.03532262 0.02910834 -0.019541066 -0.0068111443
000380 18 4c 4e bd 85 9e ee 3a ea 10 da 3c 74 98 67 bd
       -0.050365537 0.0018205201 0.026619393 -0.056541875
000390 06 29 31 bd 85 05 09 bc 27 fe 3f 3d 34 d2 72 3d
       -0.043252014 -0.008363132 0.046873238 0.059282497
0003a0 bd 84 69 3c c7 ae 80 3c 7d c5 23 bd ca c1 83 bc
       0.014252839 0.01570834 -0.03998326 -0.016083617
0003b0 4a 46 fd 3a 85 a8 1c bd c1 24 f4 3c 64 de 30 bc
       0.0019323316 -0.03824665 0.029802682 -0.01079521
0003c0 b7 8b 14 3d a0 73 3f 3c c5 d5 d9 3c c5 e5 71 3c
       0.036266055 0.011685282 0.026591191 0.014764254
0003d0 52 ee c1 bc fc 6a 91 bb 34 1f 0d 3c dd 2e 89 3b
       -0.02367321 -0.0044378024 0.008613396 0.0041864947
0003e0 bc 24 f8 ba 18 41 0b 3b 78 d6 2d bb b6 dd 1e 3c
       -0.0018931846 0.0021248516 -0.0026525538 0.009696415
0003f0 e7 97 d2 3b 8f 85 2e bb 8a a8 30 bd 8b ee 91 3c
       0.0064267996 -0.00266299 -0.04312948 0.017813941

model.0.cross_attn_1.0.module.attention.o_proj.bias f4 [32]
000000 00 00 00 00 00 00 00 00 00 00 00 00 00 00 00 00
       0.0 0.0 0.0 0.0
000010 00 00 00 00 00 00 00 00 00 00 00 00 00 00 00 00
       0.0 0.0 0.0 0.0
000020 00 00 00 00 00 00 00 00 00 00 00 00 00 00 00 00
       0.0 0.0 0.0 0.0
000030 00 00 00 00 00 00 00 00 00 00 00 00 00 00 00 00
       0.0 0.0 0.0 0.0
000040 00 00 00 00 00 00 00 00 00 00 00 00 00 00 00 00
       0.0 0.0 0.0 0.0
000050 00 00 00 00 00 00 00 00 00 00 00 00 00 00 00 00
       0.0 0.0 0.0 0.0
000060 00 00 00 00 00 00 00 00 00 00 00 00 00 00 00 00
       0.0 0.0 0.0 0.0
000070 00 00 00 00 00 00 00 00 00 00 00 00 00 00 00 00
       0.0 0.0 0.0 0.0

model.0.cross_attn_1.1.module.0.weight f4 [32]
000000 00 00 80 3f 00 00 80 3f 00 00 80 3f 00 00 80 3f
       1.0 1.0 1.0 1.0
000010 00 00 80 3f 00 00 80 3f 00 00 80 3f 00 00 80 3f
       1.0 1.0 1.0 1.0
000020 00 00 80 3f 00 00 80 3f 00 00 80 3f 00 00 80 3f
       1.0 1.0 1.0 1.0
000030 00 00 80 3f 00 00 80 3f 00 00 80 3f 00 00 80 3f
       1.0 1.0 1.0 1.0
000040 00 00 80 3f 00 00 80 3f 00 00 80 3f 00 00 80 3f
       1.0 1.0 1.0 1.0
000050 00 00 80 3f 00 00 80 3f 00 00 80 3f 00 00 80 3f
       1.0 1.0 1.0 1.0
000060 00 00 80 3f 00 00 80 3f 00 00 80 3f 00 00 80 3f
       1.0 1.0 1.0 1.0
000070 00 00 80 3f 00 00 80 3f 00 00 80 3f 00 00 80 3f
       1.0 1.0 1.0 1.0

model.0.cross_attn_1.1.module.0.bias f4 [32]
000000 00 00 00 00 00 00 00 00 00 00 00 00 00 00 00 00
       0.0 0.0 0.0 0.0
000010 00 00 00 00 00 00 00 00 00 00 00 00 00 00 00 00
       0.0 0.0 0.0 0.0
000020 00 00 00 00 00 00 00 00 00 00 00 00 00 00 00 00
       0.0 0.0 0.0 0.0
000030 00 00 00 00 00 00 00 00 00 00 00 00 00 00 00 00
       0.0 0.0 0.0 0.0
000040 00 00 00 00 00 00 00 00 00 00 00 00 00 00 00 00
       0.0 0.0 0.0 0.0
000050 00 00 00 00 00 00 00 00 00 00 00 00 00 00 00 00
       0.0 0.0 0.0 0.0
000060 00 00 00 00 00 00 00 00 00 00 00 00 00 00 00 00
       0.0 0.0 0.0 0.0
000070 00 00 00 00 00 00 00 00 00 00 00 00 00 00 00 00
       0.0 0.0 0.0 0.0
