results_local/perceiver_mnist_local_20250415_211122/checkpoints/perceiver-epoch=00-val_acc=0.8970.ckpt (torch, 808310 bytes, 358 tensors)

model.0.latent_provider._query f4 [8, 32]
000000 ae 04 b9 3d ad 79 0a 3d 51 8c e0 3c 2a ac 62 bd
       0.09034096 0.033807445 0.027410658 -0.05533997
000010 1b 08 94 3c b1 a6 7b bd 69 45 ad 3c 58 83 5e bd
       0.018070271 -0.061438266 0.021151261 -0.054324478
000020 44 5a f1 3b 67 c9 52 3d f5 47 c9 bb 66 9e d1 bc
       0.007365497 0.051461603 -0.006142611 -0.025588226
000030 86 cf 2f bd a4 b6 e5 bc 91 f3 0e bd fb ea f0 3b
       -0.04292252 -0.028041191 -0.03490025 0.0073522306
000040 98 71 29 3a 87 01 7c 3c 97 74 5d bc a2 be d5 3c
       0.0006463765 0.0153812235 -0.013516567 0.026091877
000050 e4 1d fd bc 90 c1 34 3d 02 b9 22 3c f7 27 f1 3b
       -0.030898042 0.044129908 0.009931805 0.0073595005
000060 fb 92 2a 3d 07 d6 a4 3c cb 36 04 3a dd 22 76 3d
       0.041644078 0.020121587 0.0005043565 0.060091842
000070 f6 c0 4e bd 8c 9f 05 bb b5 73 2b bc 80 6d 13 3d
       -0.05047699 -0.0020389287 -0.010464598 0.0359931
000080 5d 87 0c 3d 56 0a ae 3a b8 ab 6e 3c 80 2c a9 3b
       0.03430878 0.0013278227 0.014567308 0.0051627755
000090 c3 7d 8a bc ff eb 67 bd 56 31 60 3d ba 21 e6 bc
       -0.016905671 -0.056621548 0.05473455 -0.028092254
0000a0 84 e0 9b bc 02 df 34 3d 35 4f 13 bd c4 af 70 bc
       -0.019027956 0.04415799 -0.03596421 -0.014690343
0000b0 e5 66 4a bd d6 92 9f 3d ed 60 00 bd f8 86 77 bc
       -0.049414534 0.077916786 -0.031342436 -0.015107863
0000c0 82 ca 9b bc bd a0 4b bd 49 97 47 bc ae d5 21 3d
       -0.019017462 -0.04971384 -0.012182065 0.03951042
0000d0 74 53 8d bc b1 0c e0 3d 4b 2c 4f bd 97 7e c2 bc
       -0.017251708 0.10939921 -0.05057935 -0.023742003
0000e0 cf 5c fa bc ce 35 3b 3c d8 44 b5 bc fc 8c c9 3c
       -0.030561833 0.011426402 -0.022127554 0.02460336
0000f0 23 10 2b bd 23 63 1d 3d 5a 46 06 bd b1 f5 28 3d
       -0.041763436 0.038424622 -0.032781936 0.041249935
000100 57 51 05 3e 0b 52 0d 3c 94 a9 a1 3d 13 f3 bc 3a
       0.1301931 0.008625518 0.078936726 0.0014415703
000110 34 19 8b 3c 07 2d 8c bd 92 21 dd bc ec f1 68 3a
       0.016979791 -0.06844526 -0.026993547 0.0008886147
000120 ac 60 c5 3c 0c 05 89 3d 1a 49 8e 3c a8 c2 8e 3c
       0.024093948 0.06690416 0.017368842 0.017426804
000130 94 6a 29 bd 52 45 66 bd 2d 19 72 bd 67 aa 19 bd
       -0.041361406 -0.056218453 -0.05910604 -0.037516024
000140 b0 16 0c bd e3 12 0f 3d 10 0e 1c bd 1e dc a4 3c
       -0.034201324 0.03493012 -0.03809935 0.020124491
000150 b8 00 db bb 3c f0 2b 3d 3d 50 27 3d 1f aa 87 bd
       -0.0066834353 0.041977152 0.040848006 -0.06624245
000160 9f 25 df 3c 24 10 00 bd 3e 47 ab bc 43 fd 67 3d
       0.027239619 -0.031265393 -0.020907994 0.056638014
000170 3f e9 c0 bd 80 18 29 bc 64 7d bb bc 1d f2 83 3d
       -0.09419488 -0.010320783 -0.02288694 0.06442664
000180 5d 2b ce bd 1e 81 7c bc b2 98 0d bb a5 74 2c 3d
       -0.10066865 -0.015411643 -0.0021605906 0.04210343
000190 e0 6c 33 3d 14 42 6a 3d d0 20 0a 3d 5a 65 c2 bc
       0.043805003 0.057191923 0.0337227 -0.023729969
0001a0 1c 72 95 3b 9c ab 59 3b ac 82 f6 3c a9 fd f6 3c
       0.004560722 0.003321386 0.030091606 0.030150251
0001b0 eb ed 0c 3c 60 eb b0 3c 39 cd 5a 3d 4c 50 93 bb
       0.008601646 0.02159661 0.05341837 -0.004495656
0001c0 4c 69 26 bd 40 8c 34 3c b8 06 37 3a 53 54 8c bb
       -0.040627763 0.011019766 0.0006981897 -0.004282513
0001d0 b6 92 49 3d db 6d 25 bd d0 25 4e bc 4a 95 b3 3b
       0.04921218 -0.04038797 -0.012582257 0.005480443
0001e0 61 fc 80 bd a4 e2 94 3c b5 93 d8 3b 18 43 b9 bc
       -0.062981375 0.018174477 0.006609405 -0.022615
0001f0 0b aa 52 3d 3a 02 69 39 68 04 47 3d 72 73 fa bc
       0.051431697 0.00022221441 0.048588187 -0.030572627
000200 dd 83 9c 3d 2d 38 2e 3d 49 7e 9c bc 65 b4 61 bd
       0.076423384 0.042534042 -0.019103186 -0.05510368
000210 bc 7a 10 bd 4e a3 ca bb d6 09 c1 3d 98 86 6c bc
       -0.0352733 -0.006184018 0.09425704 -0.0144363865
000220 12 62 f9 3c 74 6b 15 3c 72 8d 82 bd 9b 7f 3a 3c
       0.030442271 0.009119857 -0.06374635 0.011382963
000230 e5 4c f6 bb 20 ad 7e 3d b0 b1 37 bc 1d 2c a3 3c
       -0.0075164908 0.062176824 -0.011211798 0.019918496
000240 8c 5d 20 bd 0b f8 79 bc 23 e1 f5 3c bc ef 5e 3d
       -0.039151713 -0.015256892 0.03001458 0.054427847
000250 bf 7e 51 3b dd 22 72 3d 6f 61 74 bd d4 9c b2 3c
       0.0031966416 0.05911528 -0.059663232 0.021803297
000260 75 8b 78 3b c7 1c 7f 3c 8b 26 af bc 71 40 4d 3d
       0.003792492 0.015570826 -0.021380683 0.050110284
000270 89 70 a7 bd 67 d3 a6 3b cc 08 a7 bc ee ab 83 3c
       -0.08175761 0.005091119 -0.020389937 0.016073193
000280 eb be a9 bd 08 71 ee bc d1 df ac bc 13 80 f6 3c
       -0.08288368 -0.029106632 -0.021102818 0.030090367
000290 61 be 6c 3d b3 db 79 3c cd db 17 bd d0 9c 5b bd
       0.057798747 0.015250134 -0.037074853 -0.053616345
0002a0 c6 f5 67 bd b2 d8 8a 3c 8c e9 39 3d 11 d1 17 3d
       -0.056630872 0.016949032 0.045388743 0.037064616
0002b0 a9 ba a4 3b 80 88 e9 3b 86 9d 31 3d ed 03 36 3d
       0.0050271344 0.007126868 0.043363117 0.044437338
0002c0 45 41 63 bc d5 2e c5 3c 6c 2c 07 3c c9 f3 38 bd
       -0.013870542 0.024070183 0.008250337 -0.045154367
0002d0 31 46 04 3d 61 8d 98 bd 94 62 13 bc ae 3a 56 3c
       0.032293502 -0.07448841 -0.008995671 0.013075514
0002e0 08 88 36 bd 82 7e 2a ba f5 e6 5e bd b6 13 d6 bc
       -0.044563323 -0.00065038365 -0.054419477 -0.026132446
0002f0 ef 22 74 3d f6 9b fa bc 5a 49 31 3d ff f1 04 bd
       0.059603628 -0.030591946 0.043282844 -0.032457348
000300 7b f2 f4 3d 6b 14 9b bc 38 4b 68 3d ad a2 a4 bc
       0.11960312 -0.018930634 0.05671236 -0.020097101
000310 d6 df 89 bc 45 c4 a4 bd 23 5a fb 3c 2a 25 87 3c
       -0.016830366 -0.08045248 0.030682629 0.016497213
000320 bf 2f ad 3c b4 c9 d9 3d f0 78 d5 3a a0 93 40 37
       0.021140931 0.10634175 0.0016286653 1.1478463e-05
000330 74 65 1e bd 52 10 76 bb a4 37 99 3a f6 ad 60 bc
       -0.038670972 -0.0037546349 0.0011689556 -0.0137133505
000340 1b 00 51 bd 3d 42 ad 3b 52 f5 69 bc 2d f6 ab 3c
       -0.05102549 0.0052874372 -0.01427968 0.02099141
000350 ba a7 0f bc 51 49 69 3d ba 7c e1 3a 0c f6 b7 bd
       -0.0087680165 0.056954686 0.0017203309 -0.089824766
000360 3d 33 98 bb c3 b3 ca bb 05 e8 37 bd 93 d8 a4 3d
       -0.00464478 -0.00618598 -0.044899005 0.08049121
000370 1f d0 9d bd 3b 89 4c 3b 7f b5 14 bd e7 d9 c2 3d
       -0.077057116 0.0031209725 -0.0363059 0.09514218
000380 23 56 36 bc 3a a5 88 3d 93 13 b8 3c 38 ac 73 bd
       -0.011128935 0.066721395 0.022470271 -0.059490412
000390 a4 50 22 bd 83 b4 dd bb 66 9b 3d 3c 1a 15 86 3d
       -0.039627686 -0.0067659034 0.011572694 0.065469936
0003a0 b5 5e 30 bc e4 bd e8 bc 98 42 80 bd e2 81 62 bc
       -0.010764767 -0.02841086 -0.06262702 -0.013824912
0003b0 21 9d 10 3c d7 64 e9 ba a4 ed 89 bb 83 2e 4d 3c
       0.008826525 -0.0017806542 -0.004209237 0.012523296
0003c0 e8 3c 28 bd 56 36 3b 3c f4 c4 90 3b 93 90 ee 3b
       -0.04107371 0.011426529 0.00441801 0.007280418
0003d0 4f 5b e1 bc 55 26 d3 bc f8 85 89 3c c5 9f 5b 3d
       -0.02750936 -0.025775114 0.016787514 0.053619165
0003e0 5a 99 57 3d 0a af a4 bd a1 af f2 3c 7c 23 ce 3c
       0.05263648 -0.080411986 0.029624762 0.025163405
0003f0 ed b5 17 3d 71 ba 0b 3d ff 07 dc 3b 4d 1d 7a bb
       0.037038732 0.03411335 0.0067148204 -0.0038164437

model.0.input_adapter.position_encoding.position_encoding f4 [784, 34]
000000 00 00 80 bf 00 00 80 bf 2e bd bb 33 ea 25 de be
       -1.0 -1.0 8.742278e-08 -0.433883
000010 0e 26 48 bf e4 94 79 bf e5 94 79 bf 2e 26 48 bf
       -0.78183067 -0.97492814 -0.9749282 -0.7818326
000020 7e 26 de be c4 22 32 b6 2e bd bb 33 ea 25 de be
       -0.43388742 -2.6544303e-06 8.742278e-08 -0.433883
000030 0e 26 48 bf e4 94 79 bf e5 94 79 bf 2e 26 48 bf
       -0.78183067 -0.97492814 -0.9749282 -0.7818326
000040 7e 26 de be c4 22 32 b6 00 00 80 bf eb a5 66 bf
       -0.43388742 -2.6544303e-06 -1.0 -0.9009692
000050 18 9d 1f bf 3d dc 63 be 36 dc 63 3e f1 9c 1f 3f
       -0.6234908 -0.22251983 0.22251973 0.6234885
000060 c8 a5 66 3f 00 00 80 3f 00 00 80 bf eb a5 66 bf
       0.9009671 1.0 -1.0 -0.9009692
000070 18 9d 1f bf 3d dc 63 be 36 dc 63 3e f1 9c 1f 3f
       -0.6234908 -0.22251983 0.22251973 0.6234885
000080 c8 a5 66 3f 00 00 80 3f 00 00 80 bf 7b 09 6d bf
       0.9009671 1.0 -1.0 -0.9259259
000090 2e bd bb 33 ea 25 de be 0e 26 48 bf e4 94 79 bf
       8.742278e-08 -0.433883 -0.78183067 -0.97492814
0000a0 e5 94 79 bf 2e 26 48 bf 7e 26 de be c4 22 32 b6
       -0.9749282 -0.7818326 -0.43388742 -2.6544303e-06
0000b0 8e 26 6c be 8a b7 65 bf 75 58 69 bf c3 91 86 be
       -0.23061582 -0.89733183 -0.911506 -0.26283082
0000c0 a1 b4 13 3f be 48 7f 3f 2a 38 31 3f ba c1 ed bd
       0.5769749 0.9972037 0.69226325 -0.11609216
0000d0 00 00 80 bf eb a5 66 bf 18 9d 1f bf 3d dc 63 be
       -1.0 -0.9009692 -0.6234908 -0.22251983
0000e0 36 dc 63 3e f1 9c 1f 3f c8 a5 66 3f 00 00 80 3f
       0.22251973 0.6234885 0.9009671 1.0
0000f0 78 19 79 bf 7a f9 e1 be 2d 94 d2 3e e2 ff 76 3f
       -0.9730449 -0.44135648 0.41128674 0.96484196
000100 4e 17 51 3f d0 0c 99 3d bb bd 38 bf e0 44 7e bf
       0.81676185 0.07473147 -0.72164506 -0.99323845
000110 00 00 80 bf f6 12 5a bf 2e bd bb 33 ea 25 de be
       -1.0 -0.8518518 8.742278e-08 -0.433883
000120 0e 26 48 bf e4 94 79 bf e5 94 79 bf 2e 26 48 bf
       -0.78183067 -0.97492814 -0.9749282 -0.7818326
000130 7e 26 de be c4 22 32 b6 01 c9 e5 be 72 7e 7a bf
       -0.43388742 -2.6544303e-06 -0.44879916 -0.9784919
000140 b3 2b 4c bd ba fd 73 3f 8f 19 09 3f c0 1f 2e bf
       -0.049846362 0.9530903 0.53554624 -0.68017197
000150 a1 d5 61 bf db 26 6c 3e 00 00 80 bf eb a5 66 bf
       -0.88216597 0.23061697 -1.0 -0.9009692
000160 18 9d 1f bf 3d dc 63 be 36 dc 63 3e f1 9c 1f 3f
       -0.6234908 -0.22251983 0.22251973 0.6234885
000170 c8 a5 66 3f 00 00 80 3f 1c c5 64 bf 7a 3c 53 3e
       0.9009671 1.0 -0.89363265 0.20628539
000180 88 ae 7f 3f af f9 9a 3e 8a 31 58 bf 55 a9 3b bf
       0.9987569 0.30268618 -0.8445059 -0.73305255
000190 de 1e f1 3e 74 19 79 3f 00 00 80 bf 72 1c 47 bf
       0.47093862 0.97304463 -1.0 -0.7777778
0001a0 2e bd bb 33 ea 25 de be 0e 26 48 bf e4 94 79 bf
       8.742278e-08 -0.433883 -0.78183067 -0.97492814
0001b0 e5 94 79 bf 2e 26 48 bf 7e 26 de be c4 22 32 b6
       -0.9749282 -0.7818326 -0.43388742 -2.6544303e-06
0001c0 b8 8d 24 bf c1 8d 24 bf d3 b3 5d 3f 57 1d af 3e
       -0.64278746 -0.642788 0.86602515 0.34202072
0001d0 58 1c 7c bf 2e bd 3b b5 61 1c 7c 3f 2b 1d af be
       -0.9848075 -6.993822e-07 0.984808 -0.3420194
0001e0 00 00 80 bf eb a5 66 bf 18 9d 1f bf 3d dc 63 be
       -1.0 -0.9009692 -0.6234908 -0.22251983
0001f0 36 dc 63 3e f1 9c 1f 3f c8 a5 66 3f 00 00 80 3f
       0.22251973 0.6234885 0.9009671 1.0
000200 7f 1b 44 bf 77 1b 44 3f 08 00 00 3f af 8f 70 bf
       -0.76604456 0.7660441 0.5000005 -0.93969244
000210 3e d1 31 be 00 00 80 3f 64 d0 31 be b7 8f 70 bf
       -0.17364976 1.0 -0.17364651 -0.9396929
000220 00 00 80 bf ed 25 34 bf 2e bd bb 33 ea 25 de be
       -1.0 -0.7037037 8.742278e-08 -0.433883
000230 0e 26 48 bf e4 94 79 bf e5 94 79 bf 2e 26 48 bf
       -0.78183067 -0.97492814 -0.9749282 -0.7818326
000240 7e 26 de be c4 22 32 b6 f2 57 4d bf c3 24 08 bd
       -0.43388742 -2.6544303e-06 -0.8021232 -0.033238184
000250 f6 0b 57 3f 54 b7 6c bf 2e 8e 5b 3e d1 1f 2e 3f
       0.84002626 -0.92467237 0.21440956 0.680173
000260 f6 72 7d bf 23 c9 e5 3e 00 00 80 bf eb a5 66 bf
       -0.9900354 0.44880018 -1.0 -0.9009692
000270 18 9d 1f bf 3d dc 63 be 36 dc 63 3e f1 9c 1f 3f
       -0.6234908 -0.22251983 0.22251973 0.6234885
000280 c8 a5 66 3f 00 00 80 3f 62 df 18 bf ca db 7f 3f
       0.9009671 1.0 -0.59715855 0.99944746
000290 47 e4 0a bf 79 f3 c2 be e3 0b 7a 3f 45 a9 3b bf
       -0.54254574 -0.3807638 0.9767439 -0.7330516
0002a0 bf 32 10 be 14 c5 64 3f 00 00 80 bf 68 2f 21 bf
       -0.14081858 0.8936322 -1.0 -0.6296296
0002b0 2e bd bb 33 ea 25 de be 0e 26 48 bf e4 94 79 bf
       8.742278e-08 -0.433883 -0.78183067 -0.97492814
0002c0 e5 94 79 bf 2e 26 48 bf 7e 26 de be c4 22 32 b6
       -0.9749282 -0.7818326 -0.43388742 -2.6544303e-06
0002d0 36 10 6b bf 20 29 17 3f d9 e9 cb bd 18 73 d6 be
       -0.9182161 0.59047127 -0.09956712 -0.41884685
0002e0 b6 4f 52 3f bf 48 7f bf 7e b7 65 3f 93 ac 0c bf
       0.8215288 -0.99720377 0.8973311 -0.5495083
0002f0 00 00 80 bf eb a5 66 bf 18 9d 1f bf 3d dc 63 be
       -1.0 -0.9009692 -0.6234908 -0.22251983
000300 36 dc 63 3e f1 9c 1f 3f c8 a5 66 3f 00 00 80 3f
       0.22251973 0.6234885 0.9009671 1.0
000310 f9 ca ca be 65 9b 4e 3f 57 ba 7e bf 6b 76 68 3f
       -0.3960798 0.80705863 -0.9950308 0.9080569
000320 77 f6 11 bf 15 0c 99 3d ab f9 e1 3e 8f e2 55 bf
       -0.570167 0.074730076 0.44135794 -0.83548826
000330 00 00 80 bf e4 38 0e bf 2e bd bb 33 ea 25 de be
       -1.0 -0.5555556 8.742278e-08 -0.433883
000340 0e 26 48 bf e4 94 79 bf e5 94 79 bf 2e 26 48 bf
       -0.78183067 -0.97492814 -0.9749282 -0.7818326
000350 7e 26 de be c4 22 32 b6 5c 1c 7c bf 88 6e 76 3f
       -0.43388742 -2.6544303e-06 -0.9848077 0.9626241
000360 b9 4d 6e bf a0 ce 63 3f e7 0b 57 bf 0b 26 48 3f
       -0.93087345 0.8898716 -0.84002537 0.7818305
000370 fe 42 37 bf 97 8d 24 3f 00 00 80 bf eb a5 66 bf
       -0.71586597 0.6427855 -1.0 -0.9009692
000380 18 9d 1f bf 3d dc 63 be 36 dc 63 3e f1 9c 1f 3f
       -0.6234908 -0.22251983 0.22251973 0.6234885
000390 c8 a5 66 3f 00 00 80 3f dc d0 31 be b1 ab 8a 3e
       0.9009671 1.0 -0.1736483 0.27084115
0003a0 14 0e bb be 7e 94 e9 3e 5e e4 0a bf 1c 9d 1f 3f
       -0.36534178 0.45621103 -0.5425471 0.62349105
0003b0 b4 bf 32 bf 9b 1b 44 3f 00 00 80 bf be 84 f6 be
       -0.69823766 0.7660462 -1.0 -0.4814815
0003c0 2e bd bb 33 ea 25 de be 0e 26 48 bf e4 94 79 bf
       8.742278e-08 -0.433883 -0.78183067 -0.97492814
0003d0 e5 94 79 bf 2e 26 48 bf 7e 26 de be c4 22 32 b6
       -0.9749282 -0.7818326 -0.43388742 -2.6544303e-06
0003e0 20 91 7f bf 5d b7 6c 3f b3 f1 3f bf 50 4e fc 3e
       -0.9983082 0.9246729 -0.7497818 0.49278498
0003f0 35 31 3a be 36 9e 18 be a1 5b ed 3e 1f 35 3a bf
       -0.18182833 -0.14904103 0.4635897 -0.72737306

model.0.cross_attn_1.0.module.q_norm.weight f4 [32]
000000 5d 87 95 3f de b0 90 3f d0 3d 8b 3f 71 a1 92 3f
       1.1681935 1.1303976 1.0878239 1.1455518
000010 4d 0e 90 3f f5 5b 95 3f c4 18 85 3f 58 4d 92 3f
       1.1254364 1.1668688 1.0398183 1.1429853
000020 96 a1 80 3f 03 61 8d 3f 92 ed 8f 3f a6 29 86 3f
       1.0049312 1.1045231 1.1244376 1.048146
000030 10 83 89 3f 71 5f 89 3f 09 6c 93 3f 27 0e 76 3f
       1.0743122 1.0732251 1.1517345 0.96115345
000040 29 d7 8d 3f ea 03 8b 3f c6 a2 88 3f 34 2f 91 3f
       1.1081287 1.086057 1.0674675 1.134253
000050 1b cc 8c 3f 72 79 91 3f dc 26 88 3f c7 40 8e 3f
       1.0999788 1.1365187 1.0636859 1.1113518
000060 50 f6 89 3f 69 79 96 3f 45 9f 87 3f 94 10 8d 3f
       1.0778294 1.1755801 1.059548 1.1020684
000070 91 e3 94 3f 65 16 83 3f 36 cc 77 3f 1c 66 92 3f
       1.1631948 1.0241209 0.96795976 1.1437411

model.0.cross_attn_1.0.module.q_norm.bias f4 [32]
000000 cf 7f d3 3d 63 dd fa 3d b6 be ae 3d 2b 58 0c be
       0.10327112 0.122492574 0.08532469 -0.13705508
000010 09 04 f4 bd 08 b9 1c be 08 67 c2 3d 2d 1e d5 3d
       -0.11914832 -0.15304959 0.09492308 0.10406146
000020 50 c8 95 bd a4 77 8e 3d d0 ab ed bd 41 eb 7a bd
       -0.07313597 0.069564134 -0.11605036 -0.06125951
000030 a6 1c a9 bd e9 fe 72 3d 7f 7b 0d be 9b 0a 7c 3d
       -0.082574174 0.059325133 -0.13816641 0.06153355
000040 f0 9c d6 bd 25 31 c0 bd f2 76 cb bd 35 56 03 3e
       -0.10479152 -0.093843736 -0.099347964 0.12825854
000050 d1 9f d2 bd 68 07 f1 3d 36 7d 2b bd f0 34 5e bd
       -0.10284389 0.11768991 -0.041867457 -0.054249704
000060 3f e3 a9 3d 51 03 06 be 01 7f 63 bd 9d 5a c9 3d
       0.08295297 -0.13087203 -0.055541042 0.09831736
000070 b4 42 a0 bd d8 82 84 3d 48 cf 3e 3d d4 fa 0f 3e
       -0.078252226 0.06470269 0.046584398 0.14060527

model.0.cross_attn_1.0.module.kv_norm.weight f4 [35]
000000 9e e0 99 3f 09 70 82 3f fd fa 89 3f f5 29 90 3f
       1.2021673 1.019044 1.077972 1.1262804
000010 2b b6 95 3f 61 0c 87 3f 82 19 82 3f 2d c1 83 3f
       1.1696218 1.0550653 1.0164034 1.0293328
000020 13 e9 85 3f 25 9b 82 3f 62 0a 79 3f 2a 62 95 3f
       1.0461754 1.0203596 0.9728147 1.1670582
000030 73 79 8a 3f 98 ed 73 3f 15 9f 77 3f fc 89 7a 3f
       1.0818313 0.95284414 0.96727115 0.978668
000040 30 3a 85 3f 9c e2 7b 3f a6 a5 7d 3f 3d aa 94 3f
       1.0408382 0.98392653 0.99080884 1.1614453
000050 7b 74 89 3f 3a 5d 66 3f 8a c1 73 3f 80 13 76 3f
       1.0738672 0.89986 0.9521719 0.96123505
000060 3f 12 81 3f 16 74 7b 3f 01 60 7d 3f 06 cc 89 3f
       1.0083693 0.9822401 0.98974615 1.0765388
000070 15 12 84 3f d4 3e 77 3f 2b f6 6d 3f f0 8e 7b 3f
       1.0318018 0.96580243 0.9295375 0.9826498
000080 9f 06 73 3f f0 26 62 3f 18 b4 7d 3f
       0.9493198 0.88340664 0.99102926

model.0.cross_attn_1.0.module.kv_norm.bias f4 [35]
000000 5e 59 a6 bc 93 fc 0e 3b d2 7f 0b 3d 96 50 e0 bc
       -0.020306285 0.0021818026 0.034057446 -0.027382176
000010 20 9a 0b 3b 03 ce 83 3c 59 cf c7 3c d7 2a 3b 3c
       0.0021301582 0.016089445 0.024390863 0.011423788
000020 2d 7b 92 3c 3e a1 b8 3c 7c 28 a1 3c d3 cb c6 3b
       0.017881 0.022537824 0.019672625 0.006066778
000030 15 23 2b 3b 9d 19 89 3c 2e 9a d0 3c a1 aa 08 3c
       0.002611344 0.016735846 0.025464144 0.008341462
000040 e6 b3 c6 3c a0 f4 4f 3c 7a db c2 3c ef 30 4d bd
       0.024255704 0.0126926005 0.023786295 -0.050095495
000050 9c 94 bb 3c 2c 3d 50 bc ad d6 34 3c 83 02 cf 3c
       0.02289801 -0.012709897 0.011037511 0.025269752
000060 ee 83 6c 3d ab 18 44 3d c4 07 aa 3c a0 43 02 bd
       0.057743005 0.047875088 0.020755656 -0.031802773
000070 21 7c ac 3c 86 92 6b 3c 07 ef 34 3d 78 d2 a8 3c
       0.021055283 0.014378196 0.044173267 0.020608172
000080 e8 75 27 3d bc 48 0d 3d 36 19 eb 3b
       0.04088393 0.034493193 0.0071746362

model.0.cross_attn_1.0.module.attention.q_proj.weight f4 [32, 32]
000000 0c 9b 17 3e c1 f3 3b 3e 37 51 e5 3d 11 fc 38 be
       0.1480524 0.18354703 0.11197131 -0.18064906
000010 22 67 56 be 51 ff 20 be 4d 1a dd 3d d9 de 46 3e
       -0.2093778 -0.15722395 0.10796032 0.19420947
000020 ec f5 e4 bc c0 5b 06 bd dd c5 6a be 73 24 05 be
       -0.027949296 -0.032802343 -0.22927041 -0.13002186
000030 8c 38 e1 bc 6b 92 d0 bc 41 18 97 bd 8e 93 fa 3d
       -0.027492784 -0.025460443 -0.07377673 0.12235175
000040 78 a5 12 be 89 2d 00 bd 3f 50 8b bd d0 7c d8 3d
       -0.14320934 -0.031293426 -0.06802415 0.10570681
000050 9b 34 53 be 8d c6 0e 3d 6b 22 a0 3d 49 6a ea 3d
       -0.20625536 0.03485732 0.07819065 0.114460535
000060 e9 5b d9 3d 23 f9 4d be 60 a3 fd 3d a2 26 f2 3d
       0.106132336 -0.2011457 0.12384677 0.11823775
000070 73 d2 e8 bc b3 e8 5d 3e 04 b3 b4 bc a6 c1 ab 3d
       -0.028420663 0.21670799 -0.022058018 0.08386545
000080 f1 8b 18 bd 91 a7 ad bd fb b8 d9 bd c6 69 fa 3d
       -0.037242834 -0.084792264 -0.10630985 0.12227206
000090 e7 0b 00 3e bf 4a b9 3d d5 5c f4 bd 70 4e a5 bd
       0.1250454 0.0904746 -0.11931769 -0.080716014
0000a0 2d c7 e8 3c fe 22 d2 bb e7 7a c0 3d a0 c5 b0 3d
       0.028415287 -0.006412863 0.09398442 0.08631444
0000b0 55 df 91 3c 45 ce 34 bc a3 15 5d 3d b3 5e 91 bd
       0.017806688 -0.011035507 0.053975713 -0.070981406
0000c0 0c 9a f6 3d 49 ef 6b 3b 4d 96 41 3d 57 ea 91 bd
       0.12041101 0.003600078 0.04726248 -0.07124775
0000d0 07 29 e6 3d 92 30 56 bd 13 2b e4 bb 1b ce 48 be
       0.11238294 -0.052292414 -0.0069631427 -0.19609873
0000e0 0d 6e dc bd cd 81 b4 3d 89 49 86 bd 00 d7 c3 bd
       -0.10763178 0.0881382 -0.065569945 -0.09562492
0000f0 45 5c 4a 3d 12 fd 0c be 40 36 ea 3c 34 29 c0 bc
       0.0494044 -0.13768414 0.028590322 -0.023457147
000100 31 bb ea bd 11 2f 71 3c 7d 56 7d 3c d2 b1 7b bc
       -0.11461485 0.014720694 0.015462515 -0.01536222
000110 0b c2 ba bc 18 48 2a 3c b5 71 b8 3b fe c3 20 3d
       -0.022797605 0.010393165 0.0056287893 0.039249413
000120 cd 4a f4 bd e0 0c e7 bd b3 a1 da ba 5a 92 f4 bb
       -0.119283296 -0.112817526 -0.001668027 -0.0074637355
000130 94 af a1 3d cb 92 25 bd 89 a9 8e 3c 6d 23 24 3d
       0.07894817 -0.040423196 0.017414825 0.040072847
000140 28 5b 0a bb 2a e7 1e 3d c2 d9 62 bb 35 44 86 bc
       -0.0021111462 0.038794674 -0.0034614657 -0.016389946
000150 3a 01 30 3d 58 b7 57 bd 3b b6 9e 3d e7 bb 92 3d
       0.04296992 -0.052665085 0.077496015 0.07164746
000160 51 cd e8 3c e0 e4 74 3c 0b 70 81 3d 3c 9b 09 bd
       0.028418215 0.014947146 0.063201986 -0.03359531
000170 ea b4 c5 3d 43 36 83 bc 38 12 a1 3d 9a e0 93 bd
       0.09653647 -0.016017085 0.07864803 -0.07220574
000180 f3 f0 ce bd 54 33 db bd ce 00 23 bd 1d 1e b6 3d
       -0.10104551 -0.107031494 -0.03979569 0.088924624
000190 27 1b 2d 3d d0 16 0a 3e 19 c9 a1 bd 6b d0 e8 bd
       0.042262223 0.13485265 -0.078996845 -0.113678776
0001a0 a0 7f 86 3c 16 a6 ac bd 81 33 fb 3d 07 09 d7 3c
       0.016418278 -0.08430116 0.12265683 0.026249422
0001b0 3c d8 b1 3d c1 cf d4 bc a5 d5 40 3d c8 00 81 bd
       0.086838216 -0.025977971 0.047078747 -0.06298977
0001c0 5c cc c3 3d c6 e9 dd 3c ae 62 6d 3d 19 d7 7e bd
       0.09560463 0.02708901 0.057955436 -0.06221685
0001d0 96 7a a8 3d a2 0e ef bd 08 41 8a 3c e7 0e 2a 3d
       0.082265064 -0.11672713 0.016876712 0.04151812
0001e0 48 3f 39 bd c0 11 f1 3d b9 e7 57 3c 7e 13 aa bd
       -0.045226365 0.11770964 0.013177806 -0.08304499
0001f0 77 05 11 3e cb b7 fd bd 3b 88 9c 3d de dc c7 bd
       0.14162241 -0.12388571 0.076431714 -0.09758924
000200 70 60 de 3d 99 e8 14 3d 09 a1 bd 3d 09 60 63 bd
       0.10858238 0.036354635 0.09259231 -0.055511508
000210 c1 2b 25 bd 0e 98 e2 bd 45 be 97 3d 29 92 82 3d
       -0.04032493 -0.110641584 0.07409338 0.06375534
000220 95 7e 72 bc 1c 7d 94 3d 36 1e 80 bd 86 13 fc bc
       -0.014800687 0.07250425 -0.06255762 -0.030771028
000230 f5 70 ad bd 46 91 23 3b ed c2 87 bd d2 ea 51 3b
       -0.084688105 0.0024958416 -0.06628976 0.0032030833
000240 22 55 fe bd 40 36 cf bc e3 b1 1b bd 18 e5 a2 3d
       -0.124185815 -0.025294423 -0.038011443 0.079538524
000250 2a c4 b5 bd d4 86 db 3d 05 b6 fe 3c 13 e7 90 bb
       -0.08875306 0.10719076 0.031092653 -0.0044220774
000260 6e 5e 98 3c 25 ff 8d bd 8c a8 81 bc d0 d0 85 3d
       0.018599715 -0.069334306 -0.01582744 0.065339684
000270 0d 04 1d be ea b2 a2 3d 3f ad 12 bd 04 ca 48 3d
       -0.15333577 0.079442814 -0.03580975 0.049020782
000280 22 66 52 3e fa aa d3 3d ae 1d 04 3e 89 23 e0 bd
       0.20546773 0.103353456 0.12901947 -0.10944278
000290 3d 47 8a bd 7b e1 9a be 97 a7 b3 3d 23 17 a6 3d
       -0.06751869 -0.30250153 0.087721996 0.08109882
0002a0 4a 35 35 bd 65 df 59 3e c6 30 76 bd bc 3f 71 bd
       -0.044240274 0.21276625 -0.060105108 -0.058898672
0002b0 8d 19 2b be 1e 3e 0b bd b2 45 0b be 4e 71 81 bb
       -0.16708966 -0.033994786 -0.13600805 -0.0039502745
0002c0 c2 b6 4f be 7e 51 df 3c 3b c9 f9 bd cf 70 11 3e
       -0.2028456 0.027260538 -0.12196585 0.1420319
0002d0 c8 26 e0 bd 20 43 41 3e 29 39 68 3d 61 18 61 bc
       -0.10944897 0.18873262 0.056695137 -0.013738723
0002e0 18 a5 1f bd 74 44 36 be 21 5b 6b bd 4e 03 02 3e
       -0.038975805 -0.1779955 -0.057459954 0.12696573
0002f0 23 9a 91 be 3b c4 9c 3d ab 61 96 bd d5 e7 30 3e
       -0.2843791 0.076546155 -0.073428474 0.17275937
000300 54 10 cc 3d c1 b0 d0 3d 38 cd f9 3d 7f ba da bd
       0.09964052 0.10189963 0.121973455 -0.106801026
000310 e1 16 e7 bd dc a2 2e be c7 85 b8 3d 9c 20 f7 3d
       -0.11283661 -0.17054313 0.09009891 0.120667666
000320 03 d1 28 bd 65 85 6e 3c ae c6 b6 bd 28 44 e5 bd
       -0.041214954 0.014558171 -0.08924614 -0.111946404
000330 1f 9d 00 bd 12 54 3e bc 79 32 9b bd db 9f 45 3d
       -0.031399842 -0.011616724 -0.07577986 0.048248153
000340 64 99 f3 bd 70 c7 5f 3b 66 a6 e4 bc a5 5d 4f 3d
       -0.11894491 0.0034145974 -0.027911376 0.050626416
000350 24 3c bd bd cc 1d 50 3d ff d3 b2 3c f9 31 43 3d
       -0.092399865 0.050809667 0.021829603 0.04765508
000360 55 14 04 3d d8 c6 12 be 8f 0e 5f 3c 87 e9 d1 3d
       0.032245953 -0.14333665 0.013614311 0.1024962
000370 e4 8a f5 bd 77 68 0a 3e 05 6b 73 bc d0 0a b4 3d
       -0.11989382 0.13516413 -0.014857058 0.08791125
000380 36 5a c4 bd 30 1e bd bd 2d 36 ab bd 6c 47 04 3e
       -0.09587519 -0.092342734 -0.083599426 0.1291787
000390 d9 3a de 3d cc 33 20 3e 79 c4 aa bd 69 9b d5 bd
       0.10851068 0.15644759 -0.083382554 -0.10430033
0003a0 97 be f1 3c f4 6a a1 bd d8 29 0b 3e 98 c2 b1 3d
       0.029509826 -0.07881728 0.13590181 0.08679694
0003b0 18 53 cf 3d 21 ed 3e 3d 5f ef 8c 3d 7d a4 98 bd
       0.10123271 0.046612862 0.06881594 -0.07453249
0003c0 4f 66 18 3e 16 73 95 3c 43 a3 8a 3d 3a 90 d3 bd
       0.14882778 0.018243354 0.06769421 -0.103302434
0003d0 0e 7b 08 3e dc 09 70 bd 34 2b 59 bd 58 7a 56 bd
       0.13328192 -0.058603153 -0.053019717 -0.05236277
0003e0 fa 49 cf bd a5 eb ad 3d 21 88 09 bd 64 5a e1 bd
       -0.10121532 0.08492211 -0.03357709 -0.11003569
0003f0 00 46 9d 3d 55 49 11 be fa ae ad 3d 76 e8 9b bd
       0.07679367 -0.1418813 0.0848064 -0.07612698

model.0.cross_attn_1.0.module.attention.q_proj.bias f4 [32]
000000 85 46 0d 3e 5f 43 ab bd 14 ca 16 bc 6c 8b c3 bd
       0.13796432 -0.083624594 -0.009203453 -0.09548077
000010 d3 cf 8a 3d 11 fb 10 3e 8d 92 d0 3d cb 33 e5 bd
       0.067779206 0.14158274 0.10184202 -0.11191519
000020 d8 2a a4 bd 3f 1e 64 bd 3e 80 aa bc 61 3d 36 3d
       -0.08015984 -0.055692907 -0.020813104 0.04449213
000030 64 df 7d bd 04 51 12 bc 9f 9b a9 3d ca 79 c5 3d
       -0.06198062 -0.008930448 0.082816355 0.0964237
000040 1d 3b 84 3d 2d 03 9e bd b6 28 a3 bd 0b a8 e8 3d
       0.064565875 -0.077154495 -0.07966749 0.11360177
000050 9d f9 ee 3d 92 b3 f4 bc 0d 7c 2b bd f8 37 06 bc
       0.11668704 -0.029870782 -0.04186635 -0.008192055
000060 69 af bc bd 1e ab e8 ba b8 53 c6 bd 66 18 ec 3c
       -0.09213144 -0.0017751192 -0.09683937 0.028820228
000070 b4 85 b6 bd ad 32 36 3d a8 a8 a6 3d b4 7c 0a 3d
       -0.089122206 0.044481922 0.081376374 0.033810332

model.0.cross_attn_1.0.module.attention.k_proj.weight f4 [32, 35]
000000 c1 02 80 3e bb 89 41 3d 22 23 a5 bd b5 5f 2a 3e
       0.250021 0.04725049 -0.08063342 0.16638072
000010 9e 1f 5a bd ba aa ef bd ad fd e9 bc 5a f5 80 3d
       -0.05325281 -0.117024854 -0.028563345 0.06296797
000020 a4 e9 99 bd e1 d9 69 bd 24 c3 17 bd 28 97 91 bd
       -0.075152665 -0.05709255 -0.037051335 -0.07108909
000030 6f c1 3a 3d 8c 19 6e bd c4 49 54 3d 7e 0e cb bd
       0.04559463 -0.058129832 0.05182816 -0.099148735
000040 fb 98 72 3d ee 40 f7 bc 50 01 ad bc f9 c7 91 3d
       0.059227925 -0.030182328 -0.02111879 0.0711822
000050 83 49 76 be be 16 e1 3b 7e fb 7c 3d 91 f6 a8 bc
       -0.2405148 0.006869166 0.06176328 -0.020625385
000060 bc 26 3c bd ef 4e 15 bc 96 49 4f bd 35 cb a4 3d
       -0.045935377 -0.0091130575 -0.050607286 0.08046571
000070 13 42 ac bd c7 a5 da 3b 87 3e f9 bc a6 b9 44 bc
       -0.0841104 0.006672594 -0.030425323 -0.012007153
000080 45 9a 84 bd 31 fb 07 3d a9 24 c1 bd 19 f0 63 be
       -0.06474737 0.03319854 -0.094308205 -0.22259559
000090 9b 96 e4 bb c0 f1 78 3d 25 2f 12 be fc 2e 02 3d
       -0.0069759614 0.060777426 -0.14275797 0.03178309
0000a0 3f 70 0d 3e 22 38 7b 3d 3f 42 39 bd 08 a1 9c 3d
       0.1381235 0.06133283 -0.045229193 0.07647902
0000b0 f3 1f 5d 3d c4 83 55 3d f9 48 81 3d 32 e1 57 bd
       0.053985547 0.052127615 0.063127466 -0.052704997
0000c0 2b 9d 96 3d 7e 70 a7 bc e1 e2 8d 3d a8 e4 d1 bb
       0.07354196 -0.020439383 0.06928039 -0.006405432
0000d0 fe de 0b 3d 3d cf 3b 3d b5 f7 c4 bc 69 43 57 3e
       0.03414821 0.045851935 -0.024043897 0.21021809
0000e0 5c 92 1f bd 22 c9 4a bc ee cd 2d 3c 61 10 63 3d
       -0.03895794 -0.012377055 0.0106081795 0.055435542
0000f0 06 a1 92 3d 2c c7 3b 3d 94 bc 8b bd f0 59 75 3d
       0.07159619 0.045844242 -0.06823078 0.059900224
000100 32 43 f6 bb 83 d0 86 bb d8 c1 93 bb d9 dc c3 3c
       -0.0075153345 -0.004114212 -0.004509192 0.02390902
000110 b1 be 97 3c 86 b5 b3 3d d6 e3 06 be 96 10 02 3d
       0.018523546 0.08774857 -0.1317285 0.0317541
000120 fc f8 38 bd 6d ac d2 bd da c9 34 bc 48 92 c0 3d
       -0.045159325 -0.10286794 -0.011034453 0.09402901
000130 7d fd 4b 3d 0c fb 01 bd d1 cd 53 3d a0 3b 81 3d
       0.049802292 -0.031733558 0.051709954 0.06310201
000140 96 6b e0 3d 1c 86 9c bd 52 98 8f bd 51 d4 45 3d
       0.109580204 -0.07642767 -0.07011475 0.048298184
000150 9f c0 35 bd 85 2d ba 3c 7c ef 20 3c 75 21 2c 3d
       -0.04437315 0.022726784 0.0098227225 0.042024095
000160 e2 3b 56 bd 32 59 1a 3d 20 8f dc 3d 22 fc 47 3c
       -0.052303202 0.03768272 0.107694864 0.012206109
000170 bb 20 06 bd dc 66 c2 bc 43 9a d6 3c cc b6 f2 3d
       -0.032746058 -0.023730688 0.026196605 0.11851272
000180 91 6c 32 3d 93 95 ec bd 29 e3 5a bd 73 66 3e bd
       0.04356057 -0.115519665 -0.053439293 -0.046484422
000190 3d d2 b2 bb 82 05 21 bd da ea 75 3d 2f b8 97 3c
       -0.0054571913 -0.039311893 0.060038425 0.018520443
0001a0 9e 7b 0d 3d d8 54 6a be 6c 2f c2 bc 3f 33 ea 3c
       0.03454172 -0.22883928 -0.023704253 0.02858889
0001b0 5c 1c 44 be 50 c2 1e 3d d6 b7 72 3d 6a 1d 62 3c
       -0.19151443 0.03875953 0.05925735 0.013800958
0001c0 a6 41 bd bd ba 4a 84 3d 61 29 0b 3d 72 37 e9 3d
       -0.09241037 0.064595655 0.03397501 0.113875285
0001d0 f2 e8 a3 bb c8 85 c3 3b 44 72 5b 3c c1 1b 29 3c
       -0.0050021345 0.0059668757 0.013393942 0.010321558
0001e0 9a 2e 5c 3d e5 2e c3 bc d4 93 7e 3c 6b c3 da bb
       0.05375538 -0.023826072 0.015538175 -0.0066761277
0001f0 6a 83 3d bd 1b 6c 8a 3e ba 3a 50 3d c4 31 6c bc
       -0.046267904 0.27035603 0.050837256 -0.014416162
000200 b4 06 55 3d f1 6b 9c 3d 0f 42 d9 3d e7 82 64 3d
       0.052008346 0.07637776 0.10608303 0.0557889
000210 78 b9 f7 bd 9f d3 8c 3d 26 08 49 3c fc c5 1f 3d
       -0.12095922 0.06876301 0.012270009 0.039007172
000220 23 62 6d bc c1 bf 7e 3d 69 79 84 3c 5b 0d 8c 3d
       -0.01448873 0.06219459 0.016171174 0.06838485
000230 29 07 62 3e 70 ef f5 3b e7 e7 0a 3d 1d 8c 10 3e
       0.22073044 0.00750535 0.033912566 0.14115949
000240 00 9f 88 bb 32 da 88 bd 07 9d 57 3c 28 c9 f9 3c
       -0.004169345 -0.066822425 0.013159997 0.030491427
000250 ed 08 65 bd 6e ab 04 bd 9e 9b 43 bb ef 24 0f 3d
       -0.055916715 -0.03239005 -0.0029847394 0.034947332
000260 01 b8 cb ba a0 49 6f bc f6 cb 5a 3c 51 11 d1 bb
       -0.0015542508 -0.014604956 0.013354292 -0.006380238
000270 fa 13 93 3b 0f c5 90 bd 0c c1 15 3d ba fd ea bc
       0.0044884654 -0.07068836 0.036561057 -0.02868544
000280 0d 36 88 be 6c 1f a2 bc e5 d3 d2 3b a9 ff 3b bd
       -0.26603737 -0.019790374 0.006433951 -0.045898113
000290 ab 6a ea bd f8 25 15 bd 39 03 b0 bc c1 5e 91 3d
       -0.114461266 -0.036413163 -0.021485912 0.07098151
0002a0 cc e8 9a bc 45 ed 32 3c f0 dc 92 bb 89 8e 26 bc
       -0.018909834 0.010920827 -0.004481904 -0.010165819
0002b0 38 57 d5 bc 68 6a 7b bd ae c6 50 bd f0 86 77 3e
       -0.026042566 -0.061380774 -0.050970726 0.24172568
0002c0 35 72 3e 3d a1 0e dc 3b 9d 51 22 3e 42 a6 48 bc
       0.046495635 0.006715611 0.15851445 -0.01224667
0002d0 73 0f 9a bd 9a 74 38 bb ee 3a 05 3d e0 31 58 bc
       -0.07522478 -0.0028145672 0.032526903 -0.013195485
0002e0 ab f4 c5 3c 49 34 bb bd b2 09 ef 3c d7 ff b6 3c
       0.024164518 -0.09140832 0.029179428 0.02233879
0002f0 7a f4 83 bc 1e d0 e3 3c 14 e7 08 bc c5 7a 2f 3b
       -0.016107786 0.027809199 -0.008355875 0.0026776057
000300 3f 75 9f bd e9 85 0a 3d 8f 3d 8a bc 05 c0 5d be
       -0.07786035 0.033819113 -0.016875057 -0.21655281
000310 4b 7c 9e bc 02 7e a6 3c ca 57 ab bd 70 ea a8 bd
       -0.019346377 0.020323757 -0.08366354 -0.082478404
000320 e9 68 22 be 40 bb 8e bd d8 84 ba 3d 01 c4 f8 3b
       -0.15860333 -0.06969309 0.09107369 0.007591725
000330 c6 98 53 bd 78 02 4a bd 37 88 9f bc 55 43 4a bd
       -0.051659368 -0.04931876 -0.019474132 -0.04938062
000340 a5 7e c7 bd 82 0e 68 bd 6b 6c 68 3e 4d 27 45 3d
       -0.097409524 -0.05665446 0.22697608 0.048133183
000350 21 4d c5 bb d5 38 38 3e 6a d3 27 bd 4c 5e bf bd
       -0.0060211574 0.1799043 -0.040973105 -0.093441576
000360 82 af e3 bc 7c b2 7f 3d 98 c5 39 bd 4c ec 18 bd
       -0.02779365 0.062426075 -0.045354456 -0.037334725
000370 1a a8 ab bd 6b 80 16 bd bf ba 1e 3c 6b e6 df bc
       -0.08381672 -0.036743563 0.009688078 -0.027331552
000380 a2 8c 67 3c bb c4 47 bd fb 8e 3b bc a5 cb a5 bd
       0.014132651 -0.0487716 -0.011447663 -0.08095483
000390 1e 73 e4 3c 1f fc e0 3b 9c 05 89 be 75 f5 b4 bc
       0.027886923 0.0068659927 -0.26762092 -0.0220897
0003a0 69 e9 0a 3b e9 22 39 bd 10 67 82 bd 46 68 a0 bd
       0.0021196252 -0.04519931 -0.06367314 -0.078323886
0003b0 12 c8 9b bc 0d ea bb 3d 84 8a a4 bd 1b ca 8d bc
       -0.0190163 0.09175501 -0.08034232 -0.017308285
0003c0 19 6b 07 bd d7 11 a4 bc 66 c1 24 bd 94 b4 6d ba
       -0.03306112 -0.020028038 -0.0402235 -0.0009067741
0003d0 ba 2e 99 bd cd 53 8d be 9b 25 e0 bc a3 e4 0a 3c
       -0.074796155 -0.27602997 -0.027361682 0.008477363
0003e0 56 75 57 be 5e 7b 16 3d 4a 4e bc 3d be d9 80 3d
       -0.21040854 0.036738746 0.0919462 0.06291531
0003f0 38 c9 5b bd 15 ad 62 3d b7 2a 30 3d 0b 01 ba 3d
       -0.053658694 0.055340845 0.043009486 0.0908223

model.0.cross_attn_1.0.module.attention.k_proj.bias f4 [32]
000000 1a 83 66 3a 6f f8 06 3c 7c 93 1c 3c 26 54 a3 3c
       0.00087933394 0.008237942 0.009556647 0.019937586
000010 af f1 83 bc 46 d9 4a bd 99 c0 39 bc f4 a4 83 3b
       -0.016106455 -0.049523614 -0.011337423 0.0040174667
000020 86 0d 94 3c aa 4a 32 3c b5 69 ef 3c 12 d0 a4 bb
       0.018072855 0.010882059 0.02922521 -0.0050296867
000030 ec f5 42 3c 55 13 3f 3b a9 a4 27 bc f2 2f 9c ba
       0.011899453 0.002915581 -0.010232129 -0.0011916144
000040 79 22 50 bc b3 ed b8 3c c4 3f d5 3a 10 10 43 3d
       -0.012703531 0.022574281 0.0016269614 0.04762274
000050 1b 3b ca ba 29 67 3d ba ac 2d 05 bc dc 05 8f bb
       -0.0015428992 -0.000722515 -0.008128565 -0.004364712
000060 7a 89 f2 3c da ca 48 3a 97 f6 03 3c 3f fa fe bb
       0.02960657 0.0007659622 0.008054397 -0.0077812965
000070 40 af 00 3d 95 b4 28 3c 54 e6 c0 ba dc d4 34 bb
       0.03141713 0.01029696 -0.0014717081 -0.0027592694

model.0.cross_attn_1.0.module.attention.v_proj.weight f4 [32, 35]
000000 13 c7 c2 bc a8 12 4a 3d e5 10 76 3d 13 06 46 bd
       -0.023776567 0.0493342 0.060074706 -0.048345637
000010 c0 1a 88 3d de 97 b4 3c 7a 2c d8 ba 36 6e a7 3d
       0.06645727 0.022045072 -0.0016492747 0.08175318
000020 c5 3a eb 3c 93 15 4f bd 39 04 da 3c be c7 2f 3d
       0.028714547 -0.050557684 0.026613342 0.0429151
000030 e6 b5 5d bd 28 8a 7c 3c 3c cc b3 38 e6 d9 de bb
       -0.05412855 0.015413798 8.573427e-05 -0.006800878
000040 ad da 15 bc f1 34 7b bc 0a 4d 78 bc 8f 51 8a 3c
       -0.009146375 -0.015332446 -0.015155086 0.016884593
000050 f3 a5 1a 3c 92 6e e2 bc cc 82 4f 3c a1 c4 61 bb
       0.009438979 -0.027640615 0.012665462 -0.0034449475
000060 0e e3 08 3d 45 e8 52 bd 38 f6 99 3d 54 20 26 3d
       0.03341966 -0.05149104 0.075176656 0.040558174
000070 a4 c2 52 bc b4 cc 6d 3d 35 db 61 bc e3 f6 69 3d
       -0.012863789 0.05805655 -0.013785173 0.057120215
000080 bd 7c ec 3c cf 74 8d 3c 24 f1 d7 bc 09 de 27 3c
       0.028868074 0.017267613 -0.026360102 0.010245808
000090 be 04 dd bb c7 6c 25 bd b9 66 11 bd d9 ea 1b 3e
       -0.00674495 -0.04038694 -0.035498355 0.15226306
0000a0 d6 f1 0e 3d e6 45 ac 3c bf b3 58 3d 7c b6 0a 3d
       0.0348986 0.021029424 0.052905794 0.033865437
0000b0 67 5e 7d bd 7d 4d e0 3c 3b d5 e0 3c 8e fe 19 3d
       -0.061857607 0.0273807 0.027445426 0.037596278
0000c0 80 4e 8b 3d 9f 09 db bb 23 a8 90 3d d9 bf 42 bd
       0.06802082 -0.0066844965 0.070633195 -0.04754624
0000d0 9b d9 f8 bc 79 d4 9f bc 6c e5 ea 3c f8 54 7b 3b
       -0.0303772 -0.019510495 0.02867385 0.0038350206
0000e0 de 70 7d bc 18 f4 60 3c 4e d6 09 bc 7d 7b 1f bc
       -0.015468804 0.0137300715 -0.008412911 -0.009734032
0000f0 81 25 c5 3c 29 a4 58 bc 6f 9a 2c 3d 4e 18 03 3e
       0.024065735 -0.013222733 0.042139467 0.1280224
000100 fb 49 47 bc e3 46 82 bc 61 cf 88 bc 2e b1 02 3d
       -0.012163634 -0.015902942 -0.016700448 0.031907253
000110 f2 cb 88 bc 05 e6 43 3d 63 c1 98 3c 19 f0 17 bc
       -0.016698811 0.047826786 0.018646901 -0.009273552
000120 e0 ef 5e be 62 7a 13 bd 3d d0 d6 3d cb af 8d bb
       -0.21771193 -0.036005385 0.10488937 -0.0043239347
000130 54 62 3e 3d d1 3f 42 bc dc f9 57 3d d4 48 6d bd
       0.04648049 -0.011856035 0.05272852 -0.057930782
000140 53 6d f9 3c 45 dc 47 be 96 79 1d be 56 e6 96 bc
       0.030447638 -0.1951762 -0.15378413 -0.01842038
000150 26 be a4 bd 36 40 5c 3d 7e 70 6b bd f4 49 16 3d
       -0.080440804 0.053772174 -0.057480328 0.03669162
000160 18 2d 89 bd 72 28 04 3d 05 2d 91 bc be 47 6d bd
       -0.06698054 0.032265134 -0.017721662 -0.057929747
000170 95 8a c2 3d 4a 6f 96 3c 78 c7 cd bc 6d 70 17 bc
       0.09499089 0.018363614 -0.025119528 -0.009243113
000180 62 32 e7 ba d0 36 61 3d de ba 80 3d 0c 71 35 bd
       -0.0017638917 0.054983914 0.06285642 -0.044297263
000190 e1 17 9b 3b 32 89 78 bd 9a a9 e6 3d 3b b3 fd bb
       0.004733071 -0.060677715 0.11262818 -0.007742313
0001a0 55 c3 4a 3d 5d 56 82 bb 28 da 4a 3c e4 b8 5f bd
       0.04950269 -0.0039775805 0.012381114 -0.054619685
0001b0 9a b7 9e 3b b6 5c 72 bc f0 80 bb 3c b8 e2 91 3c
       0.0048436644 -0.014792612 0.02288863 0.017808303
0001c0 71 60 6b 3c 1c 40 4f 3d 05 f0 1a 3d 59 ac de 3c
       0.014366255 0.05059825 0.037826557 0.027181791
0001d0 a7 c7 42 bd c3 80 41 be a0 0b 43 3d 52 dc 3c bd
       -0.047553685 -0.18896775 0.04761851 -0.04610855
0001e0 d9 94 cd 3d 58 51 3e bd 61 e8 11 bb 3e f9 20 bb
       0.10038156 -0.046464294 -0.0022263753 -0.0024562622
0001f0 ca d2 52 3c 7d 0a 82 3c 77 ca a7 3b 2d 6b 34 3c
       0.012867639 0.015874142 0.0051205712 0.011011881
000200 f2 4e d3 bc 3e 64 0d 3c 54 cc 57 bb 25 8e a2 3d
       -0.02579448 0.008629857 -0.0032928186 0.07937268
000210 4d de ad 3d a6 f5 d2 3d 68 0c 92 bc 87 a5 30 3d
       0.08489666 0.1030076 -0.017828181 0.04312661
000220 94 2c 05 3c 5d 7f d6 3d ff e7 5c b9 e9 76 01 3d
       0.008128304 0.10473511 -0.0002106726 0.031607542
000230 e6 ee 3c bd 89 fe 44 3d bd 03 49 3e 11 58 97 3c
       -0.04612627 0.048094306 0.19630332 0.01847461
000240 ea 24 2e be d9 2d 33 3d 60 fa bf bd 7a c6 e6 3c
       -0.17006269 0.043744896 -0.09373927 0.028170813
000250 33 cf 42 3b 80 76 94 bc 39 52 e3 bc b0 ae 4f 3e
       0.002972555 -0.018122911 -0.027749168 0.20281482
000260 0d dd 01 3e 8f cc a5 3c 0e a2 c2 3d cc 83 c6 3c
       0.1268198 0.020239143 0.09503566 0.024232768
000270 5b bb c0 3c 44 40 8c bc 88 05 7e 3d 9c 6c c3 b8
       0.023526838 -0.017120488 0.062016994 -9.318555e-05
000280 32 39 10 3d 18 0e 00 3d 15 44 a5 bd 6a 1f 97 bd
       0.035210796 0.03126344 -0.08069626 -0.07379039
000290 52 84 2c 3d c5 f8 92 bc 82 6a 63 3b 7c 8b a4 3c
       0.042118378 -0.017940888 0.0034700935 0.020086043
0002a0 7f 0b 6d 3d f1 d9 ac 3d 40 03 68 bc e0 4e 87 3d
       0.05787229 0.084400065 -0.014160931 0.06606841
0002b0 6c 9d 80 bd 2b 3e 00 3d db 37 c3 bd 7d b5 52 bc
       -0.06280026 0.031309288 -0.09532138 -0.012860653
0002c0 33 ba d9 ba c9 76 0f 3e 92 db 0e 3d 7e a6 ee bb
       -0.0016611278 0.14010157 0.034877367 -0.007283031
0002d0 c1 3a 5d bc b4 f4 47 bd f4 8c 42 3d 83 e1 21 bd
       -0.013502778 -0.04881735 0.047497705 -0.039521705
0002e0 58 93 4c bc 28 21 55 bc b1 e3 ea 3d b8 7a 19 3e
       -0.012486301 -0.013008393 0.1146921 0.1498822
0002f0 a5 f5 94 3c 6d 3f 57 3d b6 d4 c6 bd f8 01 9f 3d
       0.018183539 0.052550722 -0.0970854 0.077640474
000300 09 fc ca bc 74 05 8d 3c d6 b8 bc ba 1f b6 74 bb
       -0.024778383 0.017214514 -0.0014398347 -0.0037339998
000310 04 e4 2a bc df 21 38 bd 90 fa 8a 3d 69 f0 16 bc
       -0.01043034 -0.044954177 0.06786072 -0.009212592
000320 4e e3 72 3b b3 d8 8d bc f0 3e 9e bd 3e 51 2d be
       0.0037061754 -0.017315244 -0.07726848 -0.16925523
000330 4b 32 44 bc 21 9d 09 3d 74 0f 44 3c 05 99 ba bd
       -0.011974881 0.033597115 0.011966575 -0.091112174
000340 ac bd 1a bd 90 56 0d bd 0b 16 26 bc d6 75 6a bc
       -0.03777854 -0.03450638 -0.010137091 -0.014310321
000350 5e 20 97 bd e5 6a 72 bd a6 b5 64 3e cd 3b 2a bd
       -0.073792204 -0.059183974 0.22334918 -0.041560937
000360 9e b9 2c bd 55 ea 99 3d 05 08 45 3d 3b 87 e5 bd
       -0.042169206 0.075153984 0.04810335 -0.11207434
000370 fc 1d cf 3a 33 ce 00 bb c6 35 01 3d b9 98 ca 3c
       0.0015801783 -0.0019654154 0.031545423 0.024731027
000380 ed fd 2a bb b8 ba 42 3d ef b1 9f bc df f0 58 bc
       -0.0026091293 0.04754135 -0.019494025 -0.013241022
000390 ba f5 a5 3c 63 86 3e 3d f7 98 10 bb 48 cd 0d bc
       0.020258773 0.04651488 -0.002206383 -0.0086549
0003a0 3a d4 63 3d d2 5b ee 3c d4 ea 84 bd 21 93 14 3d
       0.055622317 0.029096518 -0.064901024 0.036273126
0003b0 65 07 95 bc b2 45 e9 3c 2d 04 09 3d ac 74 bf bc
       -0.018192003 0.028475616 0.033451248 -0.023371063
0003c0 60 d0 c5 3c 6b 3e 11 bd 23 fd 3a bb 1b 7b 27 bb
       0.024147213 -0.035459917 -0.002853223 -0.0025555554
0003d0 2e 5c 3a 3d 4e fe 90 3b c6 1c 16 bc b2 cb 87 bd
       0.045498066 0.0044248467 -0.009162134 -0.06630649
0003e0 4f b9 ec bc d9 8c 11 3e 2c af 2e 3c bc 14 3e 3d
       -0.028896956 0.14213885 0.010661881 0.046406493
0003f0 49 6b a1 bb a5 48 27 3d 70 25 d7 bd f4 ef 51 3d
       -0.0049261195 0.040840764 -0.105051875 0.051254228

model.0.cross_attn_1.0.module.attention.v_proj.bias f4 [32]
000000 ee d0 f1 3c 6e 59 90 3a 30 65 85 bc 72 d9 c3 3c
       0.02951857 0.001101298 -0.016283602 0.023907397
000010 0c 82 e3 3c af 88 25 bc 8c f2 ab bc 94 02 76 bc
       0.027771972 -0.010103389 -0.020989679 -0.015015263
000020 7b 3d 3b 3c 53 5c 31 bc 77 1c c9 bb 93 a6 51 3a
       0.011428232 -0.010825234 -0.0061374265 0.0007997539
000030 b6 f6 25 bc 1e 34 8b bb c2 bd 63 bc 53 e7 39 bc
       -0.010129621 -0.004248156 -0.013900222 -0.011346656
000040 b9 9e 27 3b d2 47 d0 3a 57 f0 53 3b 0e 09 28 3c
       0.0025576784 0.0015890545 0.0032339299 0.010256065
000050 53 20 0b bc b7 c6 76 bc 79 75 cf 3b 45 1a 2f bc
       -0.008491593 -0.015062026 0.0063311425 -0.0106874155
000060 5e f3 0a 3b e6 4d b1 bb 64 8b 85 3c ff ec bc 3c
       0.0021202187 -0.0054108975 0.016301818 0.023062227
000070 26 e2 16 bc 66 87 0f bc 24 34 bc bc 53 7f 39 bd
       -0.009209191 -0.008760309 -0.022974081 -0.04528744

model.0.cross_attn_1.0.module.attention.o_proj.weight f4 [32, 32]
000000 3e f3 c6 bc 3b d2 98 3c 9b 9e 8d bd 62 1b 12 be
       -0.024285909 0.018654933 -0.06915017 -0.14268258
000010 a4 7a 64 3d 59 cc 90 3d 2d 7a 55 3d a8 a8 87 3d
       0.05578102 0.07070226 0.05211847 0.066239655
000020 f5 18 db 3c 66 ba 74 bd 5c 16 6f bd 36 cf cb bd
       0.026745299 -0.059748076 -0.058370933 -0.09951632
000030 de e4 00 bb 28 d9 14 be e0 fc 6a bc 33 dd c2 3b
       -0.0019667665 -0.14535964 -0.014342517 0.005946779
000040 20 d9 65 be 69 81 d5 bd c3 92 ae bc fe 33 88 bd
       -0.22446108 -0.10425074 -0.021310216 -0.06650542
000050 2b 78 dc 3c 23 90 36 3e 13 ed 9f bd 12 53 65 3d
       0.02691277 0.17828421 -0.0780889 0.055987425
000060 5d 5f 8a bc c5 cb 99 bc 9d 17 93 bd 0a b3 70 3d
       -0.016891176 -0.018773923 -0.07182238 0.058764495
000070 a1 5f 19 3d 07 ba 4d 3c de b0 e5 3c 57 52 81 bd
       0.037444714 0.012556559 0.028038438 -0.06314533
000080 e8 c4 43 bc 3e 7d b5 bc 11 7a b1 3b e4 62 8d 3c
       -0.011948802 -0.022154447 0.005416163 0.017259069
000090 1c db 80 3c eb 0d 8a 3c 5a cb 3c bd 16 a6 6d bc
       0.01572948 0.01685234 -0.04609237 -0.01450493
0000a0 ad 97 dd bc 53 bb c6 3d ec 3f e3 3c 8b da 9c 3c
       -0.027049864 0.09703698 0.027740441 0.019147178
0000b0 7d 9e bf 3d 3b ee 68 3d 94 7b 2c 3d a1 ea 95 3c
       0.09356401 0.05686782 0.04211004 0.018300356
0000c0 38 28 c4 3d 24 f1 82 bc 48 b0 04 3e ef b6 58 bd
       0.095779836 -0.015984125 0.12957871 -0.052908834
0000d0 27 4b 17 3e 8c b4 f0 bd 86 c7 a8 bd 44 4b 4c 3e
       0.14774762 -0.117531866 -0.08241181 0.19950587
0000e0 84 3b 1f 3e 99 81 b4 bc fe 19 84 3d b2 15 71 3b
       0.15550047 -0.022034453 0.0645027 0.0036786613
0000f0 99 d5 64 bd b9 83 0d bd 3b 21 0d 3d 86 f8 0f 3d
       -0.055867765 -0.03454945 0.03445552 0.03514912
000100 68 07 f2 bb bf f8 97 3d ca 7d 64 bc e8 5d 7e 3d
       -0.007386137 0.074204914 -0.013946006 0.062101275
000110 6d 14 ec ba 45 bc b5 bc 77 3e ce b9 4c 03 b8 3b
       -0.0018011458 -0.0221845 -0.00039337922 0.0056156274
000120 ff 44 a2 bc 24 6f 8a 3c e1 33 0b 3d 7e 47 09 3d
       -0.01980829 0.0168987 0.033985022 0.033515446
000130 7b 21 20 bd a3 bf 13 bc a1 76 20 bd 9d 66 bc bc
       -0.03909443 -0.009017858 -0.039175633 -0.022998149
000140 80 c9 1b bd e0 ae 4c bd 1b 5a 56 3c 14 dc a0 bd
       -0.038033962 -0.04997146 0.013083006 -0.078544766
000150 11 b2 73 3d 13 74 ff 3d dd ad f3 3b f3 f9 8e 3d
       0.05949599 0.12473311 0.0074364976 0.06981268
000160 fa c7 b2 3d 43 af 4d 3c eb 72 b8 3d 0e 19 6e bd
       0.08729549 0.012553993 0.09006294 -0.058129363
000170 ad 74 97 bd e6 c6 54 bd ff f9 ae 3c 6f 98 48 bc
       -0.07395301 -0.051947497 0.021359442 -0.012243374
000180 b2 13 0c 3a 85 bc 1c bd 27 1f 96 3c 27 ed 6f 3d
       0.0005343511 -0.038265724 0.018325401 0.058575775
000190 83 e2 21 bd 0a ef b7 bd f5 d5 85 bd 7d 9f 89 bd
       -0.03952266 -0.0898114 -0.0653495 -0.06719873
0001a0 21 e0 8c bd dd 65 53 bc 5f a0 9b 3d 00 ef 0b bd
       -0.06878687 -0.012902704 0.07598948 -0.034163475
0001b0 ec f2 0e bc 8c fe 31 3d 42 e0 a0 3b c6 11 9f bd
       -0.008724909 0.043455645 0.004909546 -0.07767062
0001c0 2f 8f 2e 3e f2 30 da 3d 60 f3 90 bd a7 ed 0a 3e
       0.17046808 0.10653867 -0.0707767 0.1356722
0001d0 ca 28 9c bd ec f4 0f bd cc 28 28 3e 48 ed 34 be
       -0.076249674 -0.035145685 0.16421813 -0.1766864
0001e0 6a 8e 1f bd 6e 24 15 bc 00 67 d8 3b eb 31 08 3c
       -0.038954176 -0.009102924 0.0066040754 0.008312683
0001f0 f6 9f 76 bd d2 1d 66 bd 2c 12 1c bd 6e cd 74 bd
       -0.060211144 -0.056180783 -0.038103268 -0.059766226
000200 bf 26 82 3c 23 16 09 3d 01 73 91 3d d7 50 11 3c
       0.015887616 0.033468377 0.071020134 0.008869371
000210 01 c3 73 bd 41 e8 8d b8 7c ba cf bb 94 90 12 bc
       -0.059512142 -6.7666646e-05 -0.0063393693 -0.008945603
000220 20 d0 18 3c 3d bb 24 bd 97 b2 11 bc 30 f9 25 bd
       0.009326965 -0.040217627 -0.008892677 -0.040520847
000230 95 35 23 bd 72 5c 2e bd ff bf 80 bd f5 cc 54 bd
       -0.03984602 -0.04256863 -0.0628662 -0.051953275
000240 f7 a9 16 be b7 30 07 3c ae f4 9d bb 41 c8 d0 bc
       -0.14713274 0.008251361 -0.004820428 -0.025486114
000250 b7 bc 84 bc 18 a0 19 3e e5 18 20 3c 7e 08 c0 bb
       -0.016203267 0.15002477 0.00977156 -0.0058603873
000260 36 73 39 bd dd 85 81 3c f1 68 18 3c d6 71 83 3d
       -0.04527589 0.015810901 0.009302364 0.06418197
000270 3a 8f 06 be cc 61 26 bd db a8 e7 bd 6d 5a 52 be
       -0.13140574 -0.04062061 -0.113115035 -0.20542307
000280 29 9e 0a 3d 03 9e ab bd 70 27 fb bc b9 aa 31 bd
       0.03384224 -0.08379748 -0.030658454 -0.043375704
000290 83 4c 1b 3d f9 0e 94 3d 8b 7e 1d bc da b1 59 bd
       0.037914764 0.07229418 -0.00961269 -0.053148128
0002a0 c8 a6 ce 3c 2e 9f 26 3c ca b0 89 bd 16 7c b3 3c
       0.025226012 0.010169787 -0.06723173 0.021909755
0002b0 d2 8c fc 3c 42 7e 49 3c e7 54 d1 3b ce d4 8e 3d
       0.030828867 0.012298169 0.006388295 0.06974183
0002c0 26 2e d8 3d 89 93 44 3b 70 2d 9d 3c 63 c0 98 bc
       0.10555677 0.0029995164 0.019186705 -0.018646425
0002d0 aa 96 c0 3d 41 7c fb bd e1 09 29 bb 1c 8f e3 3d
       0.09403737 -0.12279559 -0.0025793242 0.1111128
0002e0 d8 c1 7d 3b 83 62 fc bc 9e 25 28 bc 2b 3a bc 3d
       0.0038720276 -0.030808693 -0.010262875 0.09190782
0002f0 a3 27 0a 3e 56 56 f2 bc dd cd f0 3c 46 ea aa 3c
       0.13491683 -0.029582184 0.029395038 0.020863663
000300 31 b9 df 3c 7d 7f a3 3d ea c7 0a bb fd 62 37 3d
       0.027309986 0.07983301 -0.0021176287 0.044772137
000310 1d 3f 88 3d 33 71 38 bd 21 e1 1b 3d a7 15 61 3c
       0.06652663 -0.04502983 0.038056497 0.0137380725
000320 71 e2 a9 3d 53 9a ea bd b9 6a 7c bd 6a 83 7c bd
       0.082951434 -0.11455216 -0.061625216 -0.061648764
000330 ad 21 c4 bd 29 8f 0f bd 3f 0d 4f bd f4 72 c8 bc
       -0.09576736 -0.035048638 -0.05054974 -0.024468876
000340 27 d6 45 3d 58 e0 e0 3c a6 33 85 bd 4b 18 19 3d
       0.048299935 0.027450725 -0.06503992 0.037376683
000350 f2 9a 8f bd b0 79 6d 3c c5 18 33 3a a3 fb 55 bd
       -0.07011975 0.014494345 0.0006831999 -0.052241933
000360 74 a5 c3 bd e0 ed 80 3d 2a 5d f9 bd ad 73 5a bd
       -0.09553042 0.06295371 -0.12175973 -0.053332973
000370 89 d8 ca 3d 5e 0a 9f 3d 42 11 89 3c a4 e1 2e 3e
       0.09904582 0.07765649 0.016731862 0.17078263
000380 e9 4f 98 3c 78 4e 20 3d 90 84 84 3c 9d 99 95 bd
       0.018592792 0.039137334 0.016176492 -0.0730469
000390 2c d8 9d 3c 4b 9b 05 bd b5 6c 9b 3c a8 06 8a 3c
       0.019268118 -0.032618802 0.018972734 0.016848877
0003a0 8e fb 39 bd 53 09 1b 3d 4b 12 ae 3d 3e a2 ba bc
       -0.045405917 0.03785069 0.08499583 -0.022782441
0003b0 96 d2 6c 3c 5c 7f f6 bc d7 ef 6d 3d 02 19 63 bd
       0.0144545045 -0.030090027 0.058090057 -0.05544377
0003c0 1c db 93 3c 2a 54 d6 ba f3 5d ce bc d3 60 cd 3d
       0.018048815 -0.0016351987 -0.025191283 0.100282334
0003d0 62 f8 03 be 40 7d 98 bd aa 44 4b bb b4 48 10 be
       -0.1288772 -0.074457645 -0.0031016269 -0.14090234
0003e0 5a ee 55 bd b0 1e 85 3d d8 38 2f 3d aa 0f d4 bd
       -0.052229263 0.06499994 0.04277882 -0.1035455
0003f0 03 b3 e2 bb f9 79 b5 3b 16 08 67 bd a2 c7 4c bc
       -0.0069183125 0.005538222 -0.056404196 -0.012498768

model.0.cross_attn_1.0.module.attention.o_proj.bias f4 [32]
000000 dc 13 27 bc 4b 31 5f 3c d4 2f 7c 3c 33 9e 8a bc
       -0.010197606 0.013622592 0.0153922625 -0.016921138
000010 0c 87 8a bb 7d 69 05 bc b6 53 1b 3c 54 b5 3d bb
       -0.0042275246 -0.008142826 0.009480407 -0.0028947191
000020 ec 0d 0e 3c 78 cd 4b 3c fe 33 bf bb 3e 77 7b 3c
       0.008670311 0.012439124 -0.0058350554 0.015348254
000030 6f ec b7 bc 14 36 47 bc 76 f6 27 3c be 62 dc bb
       -0.022451608 -0.012158889 0.010251632 -0.006725638
000040 bf d2 b0 bc aa cb bf ba 84 8f b1 ba 36 41 0e 3c
       -0.021584867 -0.001463284 -0.0013546799 0.00868254
000050 2d 1b 4f 3b d4 f2 d3 bb a9 5f c0 3a a6 17 e1 bb
       0.0031601891 -0.0064681564 0.0014676946 -0.006869274
000060 6c 4c 05 bb 13 e5 82 bc 4f 3d 5f bb fc 7a 8d 3c
       -0.002033974 -0.015978372 -0.0034063642 0.017270558
000070 ac dd 31 3c 1d be 67 3c 6c 5c 01 3b ba 7b 97 3b
       0.010856073 0.014144448 0.0019738926 0.0046229037
