results_local/perceiver_cifar_local_20250416_112311/checkpoints/perceiver-epoch=00-val_acc=0.0835.ckpt (torch, 878198 bytes, 358 tensors)

model.0.latent_provider._query f4 [8, 32]
00000000: bf15 873c d286 d73c 931c 623c f642 35bd
00000010: 07d4 13bc de60 8ebc 63d6 ea3c 582b 213b
00000020: 6092 88bc 55ea 2b3d 61cc d5bc cd7c d0bc
00000030: dfd1 2ebd bf54 f73c cdfe 95bc 0de4 c33c
00000040: 9dca 37bb f669 77bc 1ce1 babc fc49 153d
00000050: 79eb 0abd 89ea fe3c 3569 b4bc 84cc f53c
00000060: 56b6 bb3b e063 3e3c 4398 4ebc 7380 f43c
00000070: fb51 1fba 9d4f 323c 0276 e93c eef3 283d
00000080: 382d 45bd 67a3 18bc 6f6b 75bc 2ac2 e83c
00000090: d99d 1f3b 05db 1c3c f9d6 9d3c 2e19 1bbc
000000a0: fa00 4dbd 4ad7 183d 89da 28bd cb3f 77bb
000000b0: 7cf0 70bd e342 953d 1680 38bd 1a06 b9bb
000000c0: c18c 08bd 8a28 ebbc 81ce 453b dec8 d03c
000000d0: 01bb c6bc ccd6 193d 24a4 35bd a5a5 6abb
000000e0: 873c 3ebd e5cb 83bc adb3 0bbc 0142 e73c
000000f0: 3f0d b6ba 931c 513d 05d8 9cbc 54fa 963d
00000100: 2805 ed3d b8d2 ef3d eb9c eb3d 2499 a63c
00000110: c53c 53bc fa57 d13c 1fdf 5bbd 0550 d83d
00000120: fc49 44bd a92a 163c e9b6 e83c 18da b83d
00000130: e742 f33c 7e5d bcbc 19a2 f0bd 41a8 0a3c
00000140: 6eaf 543c 12e5 8cbd 58e8 6abc 5466 3dbd
00000150: 4685 233d ab37 dbbc 8862 50bd 3a11 d13d
00000160: 956c 50bd 76b8 cbbd dd2e 5bbd f0db ab3d
00000170: 8c5d dcbd 2a68 32bd bac7 e63b 57ee ae3d
00000180: 70a0 c1bb 1e59 a43c 3e40 503c 45fc e8bc
00000190: 6b9e 37bc 62f2 2ebc 85e9 203d 5f64 5a3c
000001a0: 4205 40bc bd2f 0a3d e1e7 9fbc fbb5 9cbc
000001b0: d53b fdbc f284 183d 8a2a 48bc c3ab 2f3c
000001c0: 8630 b2bc 96b0 71bc da21 c8bc 3024 283d
000001d0: 6088 bdbc 82cf e73c 8290 e0bc 6c54 9b3c
000001e0: 9482 6dba e3de 723b 4598 93bc 926d d43c
000001f0: d2f9 793c 16f7 533c 072c 223d b466 103d
00000200: f093 803d b278 9e3d 2c8c d3bc 1073 02bd
00000210: b3ea 32bc 09a2 993d ad36 c23b 3171 4c3d
00000220: cd79 2a3c 8c48 7e3c 9f66 7bbd 41ef 363d
00000230: a3ec ebbc a177 1c3d 4d9a 51bd e8cc c23c
00000240: d03c 2ebd 7c44 d9ba d1c3 133d ab48 2d3d
00000250: cc85 1cba 27b7 5abb c63e dcbc 4efd 5e3d
00000260: 281c f8bc ce6d 57bc 063f f6bc 24cb 7a3d
00000270: 1948 b7bd e990 d5bc 1df7 08bd 2f63 973d
00000280: 6341 f9bb 0f19 073d 9774 843c 85d5 c3bc
00000290: 36de 25bc 1a92 82bc d31a 633c dd29 c83a
000002a0: c792 25bd 8f42 5a3d 37eb 2fbc a92a c2bb
000002b0: 8de3 69bd 1a8f 143d 723e 90bc 09d8 5a3d
000002c0: 2915 72bc b1cd 9dbc 270d efbc 9e7c 653c
000002d0: be50 24bd 95bd 963c 618e 3cbd 2607 c13c
000002e0: 5f03 bcbc 895f 3fbd 0544 12bd d860 d43c
000002f0: 0829 14bc 33b2 91bc e4ce c83c 7d82 413d
00000300: e270 613c 0dae 473b 8508 333c b4c5 0abd
00000310: 525c cdbc da54 32bc 57a8 1a3d 6261 c83c
00000320: 8669 ffbb 4762 3f3d 1434 09bd 0f95 fbbc
00000330: 9236 16bd 53b7 2e3d b95a 5dbb 3b67 773c
00000340: 236d cdbc ab6f b9bc 5c30 d3bc 920b df3c
00000350: d756 fcbc 7423 073d 9097 d2bc d7b0 47bc
00000360: 362c 36bb 339e 723c 4a46 07bd c096 f73c
00000370: 728d 293c a9c7 7f3b af36 3b3d 9207 4d3d
00000380: c4ed a03b 1bb0 ba3c 6dfd b43b f008 18bd
00000390: cc7b 93bc bb75 64bc e153 063d 283f bf3c
000003a0: 23de 48bc 65bc a23c 04c3 1ebd 16bf e0bc
000003b0: b6dc 13bd 5539 f23c b674 52bc 143c 833c
000003c0: 413b 9fbc 0e26 4bbc 44e6 ccbc 209d 1b3d
000003d0: 8bdd 14bd 69ef d03c 8ce9 e1bc 5cf5 b43c
000003e0: 9933 e03b fb1c 09bc 1178 65bc 2ab4 a43c
000003f0: dace 073c dfe0 4b3c 7710 0f3d 70b9 003d
0.016489862 0.026309405 0.013800758 -0.044253312 -0.009022719 -0.017380174 0.02866668 0.0024592485
-0.01667136 0.041971523 -0.026098432 -0.025450135 -0.042680617 0.030191777 -0.018309975 0.023912454
-0.002804435 -0.015100947 -0.022812419 0.03644751 -0.03391597 0.031117694 -0.022022823 0.030004747
0.0057285232 0.011620492 -0.012609544 0.029846406 -0.00060775847 0.010883239 0.028498653 0.041248254
-0.048138827 -0.009316302 -0.014979227 0.028412897 0.002435556 0.009573703 0.019267546 -0.0094664525
-0.05004976 0.03731469 -0.041224036 -0.0037727233 -0.058823094 0.07288148 -0.045044027 -0.0056464793
-0.03333736 -0.028705854 0.00301829 0.025486406 -0.024259092 0.037558362 -0.04434599 -0.0035804298
-0.046444442 -0.016088435 -0.008526725 0.028229715 -0.0013889446 0.05105264 -0.019145975 0.07371965
0.11573249 0.11710113 0.11504539 0.020336695 -0.012892907 0.025554646 -0.05367958 0.105621375
-0.04792212 0.009165444 0.02840753 0.09025973 0.029694987 -0.0229938 -0.11749668 0.008462966
0.012981279 -0.06879629 -0.014337622 -0.046240166 0.03992202 -0.026759943 -0.050875217 0.10208364
-0.050884802 -0.099472925 -0.05351149 0.08391559 -0.1076003 -0.04355637 0.007042852 0.085415535
-0.005909018 0.020062026 0.012710629 -0.028440604 -0.011207203 -0.010677906 0.0392852 0.013329594
-0.011720004 0.033736933 -0.019519748 -0.019129744 -0.03091232 0.03723616 -0.012217173 0.0107221035
-0.021751653 -0.014751574 -0.024430204 0.041050136 -0.023136318 0.02829719 -0.027412657 0.018961154
-0.000906029 0.003705912 -0.018016944 0.025931153 0.015257316 0.012937328 0.03959277 0.035254195
0.06278217 0.077378646 -0.025823675 -0.031848013 -0.0109202145 0.07501609 0.005926928 0.049912635
0.010405016 0.015520226 -0.061377164 0.044661764 -0.02879936 0.038200025 -0.051172543 0.023779348
-0.042538464 -0.0016576196 0.036075417 0.04230563 -0.0005970865 -0.0033373327 -0.026885401 0.05444079
-0.030286863 -0.013148738 -0.030059349 0.061228886 -0.089492984 -0.026070075 -0.03343879 0.07391965
-0.0076066717 0.032982882 0.016168876 -0.023905525 -0.01012378 -0.015938807 0.013861376 0.0015271265
-0.04042318 0.05328613 -0.010737232 -0.0059254956 -0.057101775 0.036269285 -0.017607901 0.053428683
-0.014775553 -0.01926312 -0.029181076 0.014006762 -0.040116064 0.018400947 -0.04603422 0.023562979
-0.022950826 -0.04672197 -0.0357094 0.025925085 -0.009042986 -0.017785167 0.024512716 0.047243584
0.0137598235 0.0030468733 0.010927324 -0.03387995 -0.025068436 -0.010884488 0.037758198 0.024460498
-0.007794562 0.046724584 -0.03349693 -0.030710725 -0.036673136 0.0426553 -0.0033775999 0.015100296
-0.025076455 -0.022636255 -0.025779895 0.027227197 -0.030803127 0.032992795 -0.025707036 -0.012188158
-0.0027797348 0.014808225 -0.033026017 0.03022325 0.010348665 0.003902892 0.045706447 0.050056048
0.0049111564 0.022789052 0.005523375 -0.0371179 -0.018003367 -0.013944085 0.032794837 0.023345545
-0.012259993 0.019865224 -0.0387602 -0.027434867 -0.03609916 0.029568354 -0.012845209 0.016019858
-0.019437434 -0.01239921 -0.025012143 0.037991643 -0.036344092 0.025504785 -0.027577184 0.022089653
0.0068420884 -0.008368726 -0.014005677 0.02010544 0.008289063 0.01244375 0.03492781 0.031426847

model.0.input_adapter.position_encoding.position_encoding f4 [1024, 34]
00000000: 0000 80bf 0000 80bf 2ebd bb33 0926 de3e
00000010: 1326 483f e094 793f dd94 793f 1e26 483f
00000020: b825 de3e 2ebd bbb5 2ebd bb33 0926 de3e
00000030: 1326 483f e094 793f dd94 793f 1e26 483f
00000040: b825 de3e 2ebd bbb5 0000 80bf e4a5 66bf
00000050: 129d 1fbf 89dc 63be bcdc 633e 049d 1f3f
00000060: f7a5 663f 0000 803f 0000 80bf e4a5 66bf
00000070: 129d 1fbf 89dc 63be bcdc 633e 049d 1f3f
00000080: f7a5 663f 0000 803f 0000 80bf df7b 6fbf
00000090: 2ebd bb33 0926 de3e 1326 483f e094 793f
000000a0: dd94 793f 1e26 483f b825 de3e 2ebd bbb5
000000b0: 3121 4ebe 3f96 3fbe 5401 31be 6c62 22be
000000c0: 8bbb 13be bf0b 05be 9fa9 ecbd 0a31 cfbd
000000d0: 0000 80bf e4a5 66bf 129d 1fbf 89dc 63be
000000e0: bcdc 633e 049d 1f3f f7a5 663f 0000 803f
000000f0: 7ac2 7abf bc7a 7bbf 7d25 7cbf bbc2 7cbf
00000100: 6352 7dbf 7cd4 7dbf f548 7ebf c2af 7ebf
00000110: 0000 80bf bef7 5ebf 2ebd bb33 0926 de3e
00000120: 1326 483f e094 793f dd94 793f 1e26 483f
00000130: b825 de3e 2ebd bbb5 03e9 c9be af14 3cbf
00000140: b889 72bf 0cde 7ebf 85ed 5ebf 4144 18bf
00000150: a0a1 5cbe 4421 4e3e 0000 80bf e4a5 66bf
00000160: 129d 1fbf 89dc 63be bcdc 633e 049d 1f3f
00000170: f7a5 663f 0000 803f d240 6bbf c6ab 2dbf
00000180: 74d8 a3be db6f c03d 2bb5 fb3e 15cb 4d3f
00000190: bbfc 793f 79c2 7a3f 0000 80bf 9d73 4ebf
000001a0: 2ebd bb33 0926 de3e 1326 483f e094 793f
000001b0: dd94 793f 1e26 483f b825 de3e 2ebd bbb5
000001c0: a03e 12bf 0e7e 7ebf bf14 3cbf 6a2b ed3c
000001d0: 36d1 453f ce75 7c3f d2d6 053f c845 99be
000001e0: 0000 80bf e4a5 66bf 129d 1fbf 89dc 63be
000001f0: bcdc 633e 049d 1f3f f7a5 663f 0000 803f
00000200: 8f1d 52bf a2ef ddbd b5ab 2d3f 87e4 7f3f
00000210: 807e 223f f7b2 29be 263a 5abf 8642 74bf
00000220: 0000 80bf 7cef 3dbf 2ebd bb33 0926 de3e
00000230: 1326 483f e094 793f dd94 793f 1e26 483f
00000240: b825 de3e 2ebd bbb5 048c 39bf 0a15 5dbf
00000250: 4b7c 793e 13d5 7f3f 6d54 a03e 1e2b 53bf
00000260: 4bd1 45bf c8e8 c93e 0000 80bf e4a5 66bf
00000270: 129d 1fbf 89dc 63be bcdc 633e 049d 1f3f
00000280: f7a5 663f 0000 803f 2460 30bf 8711 013f
00000290: 2749 783f 1839 143d e81f 73bf 56b8 10bf
000002a0: 657e 223f de40 6b3f 0000 80bf 5b6b 2dbf
000002b0: 2ebd bb33 0926 de3e 1326 483f e094 793f
000002c0: dd94 793f 1e26 483f b825 de3e 2ebd bbb5
000002d0: bf40 59bf fde8 c9be e5d3 773f 7431 cf3d
000002e0: e3ab 7fbf ca20 4e3e 9310 703f 6079 f8be
000002f0: 0000 80bf e4a5 66bf 129d 1fbf 89dc 63be
00000300: bcdc 633e 049d 1f3f f7a5 663f 0000 803f
00000310: 306a 07bf d340 6b3f 9755 803e c1af 7ebf
00000320: 8c74 4f3d 7fc2 7a3f b7d1 b1be 37d5 5fbf
00000330: 0000 80bf 3ae7 1cbf 2ebd bb33 0926 de3e
00000340: 1326 483f e094 793f dd94 793f 1e26 483f
00000350: b825 de3e 2ebd bbb5 8510 70bf 0215 6b3e
00000360: 2807 2f3f ce75 7cbf 43b3 d03e e4fb 083f
00000370: 8df0 7fbf 853e 123f 0000 80bf e4a5 66bf
00000380: 129d 1fbf 89dc 63be bcdc 633e 049d 1f3f
00000390: f7a5 663f 0000 803f 03d2 b1be a429 793f
000003a0: 95d1 3abf e9b2 29be 60c4 693f 5744 58bf
000003b0: 9ddd b13c a21d 523f 0000 80bf 1963 0cbf
000003c0: 2ebd bb33 0926 de3e 1326 483f e094 793f
000003d0: dd94 793f 1e26 483f b825 de3e 2ebd bbb5
000003e0: 420c 7dbf ac71 433f 7e54 a0be 4415 6bbe
000003f0: ef5c 343f 15bb 78bf c6b2 733f 48c0 26bf
-1.0 -1.0 8.742278e-08 0.43388394 0.78183097 0.9749279 0.9749277 0.7818316
0.43388152 -1.3987644e-06 8.742278e-08 0.43388394 0.78183097 0.9749279 0.9749277 0.7818316
0.43388152 -1.3987644e-06 -1.0 -0.9009688 -0.62349045 -0.22252096 0.22252172 0.6234896
0.9009699 1.0 -1.0 -0.9009688 -0.62349045 -0.22252096 0.22252172 0.6234896
0.9009699 1.0 -1.0 -0.9354839 8.742278e-08 0.43388394 0.78183097 0.9749279
0.9749277 0.7818316 0.43388152 -1.3987644e-06 -0.20129849 -0.18709658 -0.17285663 -0.15857857
-0.1442701 -0.12992762 -0.1155579 -0.10116775 -1.0 -0.9009688 -0.62349045 -0.22252096
0.22252172 0.6234896 0.9009699 1.0 -0.97953 -0.9823415 -0.984947 -0.98734635
-0.9895384 -0.9915235 -0.99330074 -0.99486935 -1.0 -0.87096775 8.742278e-08 0.43388394
0.78183097 0.9749279 0.9749277 0.7818316 0.43388152 -1.3987644e-06 -0.39435586 -0.7346906
-0.9474139 -0.99557567 -0.87081176 -0.5947915 -0.2154603 0.20129877 -1.0 -0.9009688
-0.62349045 -0.22252096 0.22252172 0.6234896 0.9009699 1.0 -0.9189578 -0.6784023
-0.32001078 0.09396335 0.49161658 0.80388004 0.9765126 0.9795299 -1.0 -0.8064516
8.742278e-08 0.43388394 0.78183097 0.9749279 0.9749277 0.7818316 0.43388152 -1.3987644e-06
-0.5712681 -0.99411094 -0.73469156 0.028951366 0.77272356 0.98617256 0.52280915 -0.2993605
-1.0 -0.9009688 -0.62349045 -0.22252096 0.22252172 0.6234896 0.9009699 1.0
-0.8207635 -0.10836722 0.6784013 0.9995808 0.63474274 -0.16572176 -0.8524498 -0.95414007
-1.0 -0.7419355 8.742278e-08 0.43388394 0.78183097 0.9749279 0.9749277 0.7818316
0.43388152 -1.3987644e-06 -0.7247927 -0.8636023 0.2436382 0.999345 0.31314412 -0.82487667
-0.7727248 0.3943541 -1.0 -0.9009688 -0.62349045 -0.22252096 0.22252172 0.6234896
0.9009699 1.0 -0.688967 0.5041737 0.9698662 0.03618726 -0.9497056 -0.56531274
0.6347411 0.91895854 -1.0 -0.67741936 8.742278e-08 0.43388394 0.78183097 0.9749279
0.9749277 0.7818316 0.43388152 -1.3987644e-06 -0.8486442 -0.39435568 0.968077 0.10116854
-0.99871653 0.20129696 0.9377529 -0.48530102 -1.0 -0.9009688 -0.62349045 -0.22252096
0.22252172 0.6234896 0.9009699 1.0 -0.52896404 0.9189579 0.250653 -0.9948693
0.050648257 0.9795303 -0.34730312 -0.87434715 -1.0 -0.61290324 8.742278e-08 0.43388394
0.78183097 0.9749279 0.9749277 0.7818316 0.43388152 -1.3987644e-06 -0.93775207 0.22957233
0.68370295 -0.98617256 0.40761766 0.53509355 -0.99976426 0.5712665 -1.0 -0.9009688
-0.62349045 -0.22252096 0.22252172 0.6234896 0.9009699 1.0 -0.3473054 0.97329164
-0.72976047 -0.16572155 0.9131527 -0.8447928 0.021712119 0.82076466 -1.0 -0.5483871
8.742278e-08 0.43388394 0.78183097 0.9749279 0.9749277 0.7818316 0.43388152 -1.3987644e-06
-0.9884683 0.76345325 -0.31314462 -0.22957331 0.70454305 -0.97160465 0.9519466 -0.6513715

model.0.cross_attn_1.0.module.q_norm.weight f4 [32]
00000000: 625a 8d3f 2809 8c3f eacf 893f 205f 963f
00000010: e959 863f a431 8c3f ce5e 943f 8c4e 883f
00000020: 0ca5 8a3f 5de0 8f3f 7077 8f3f a5a8 953f
00000030: eb26 943f 0285 903f 8085 873f af82 913f
00000040: c0b5 8e3f 86db 8a3f 4af4 903f c3b7 923f
00000050: b1c2 943f 9621 8d3f 7463 8a3f 9d64 8a3f
00000060: 592e 863f 2e31 883f 232b 8c3f 6435 8b3f
00000070: 06e3 873f b537 8b3f 9de3 903f 9059 903f
1.1043208 1.0940294 1.0766575 1.174778 1.0496188 1.0952649 1.1591432 1.0648971
1.0831618 1.1240345 1.1208324 1.1692091 1.1574377 1.1290591 1.0587616 1.1368006
1.1149216 1.0848243 1.1324551 1.146233 1.1621915 1.1025875 1.0811601 1.0811955
1.0482894 1.0640008 1.0950664 1.0875669 1.0616157 1.0876375 1.1319462 1.1277332

model.0.cross_attn_1.0.module.q_norm.bias f4 [32]
00000000: 7ec3 e23b 4393 e23d b79c e33d 71cd d7bd
00000010: 7d82 c9bd 5ef6 913d 4819 b83d 428a e43d
00000020: 4867 adbd 9e7e c03d 5046 adbd 3d53 b3bd
00000030: 6391 d9bd 35b8 d23d 5a8c d1bd add4 e63d
00000040: b3a1 c0bd ed3e d4bd bc5d dfbd bf2b b13d
00000050: bcfc c7bd 4bfc ba3d 1e2b c5bd 3e22 cb3d
00000060: ab64 bebd 7d24 e1bd 9803 dabd a3ff c83d
00000070: 17d8 f7bd f807 123d f65b da3d 823f f83d
0.006920277 0.11063244 0.11113875 -0.10537232 -0.09839342 0.07127069 0.08989197 0.11159183
-0.08466965 0.0939915 -0.08460677 -0.08756111 -0.106234334 0.10289041 -0.10231848 0.112710334
-0.09405842 -0.10363565 -0.1090655 0.08650922 -0.09765002 0.09130152 -0.096273646 0.099186406
-0.09296545 -0.10993288 -0.10645217 0.09814384 -0.12101763 0.03565213 0.106620714 0.12121488

model.0.cross_attn_1.0.module.kv_norm.weight f4 [37]
00000000: dd99 903f 235e 8a3f 722b 903f 0359 903f
00000010: 8ca1 403f a523 743f d3d7 493f 8988 6a3f
00000020: 5e9e 5d3f c206 463f 7389 413f 02f9 553f
00000030: 4a2a 493f f28b 3a3f 2425 4d3f abc9 563f
00000040: 8336 503f ca89 3d3f f285 5a3f 3400 563f
00000050: c86e 623f ecc1 7d3f 575a 503f 89cb 653f
00000060: 8270 5b3f 77da 4a3f 238a 553f 043f 503f
00000070: 0206 563f 97a1 833f 7d98 703f 4421 613f
00000080: 7909 603f 89f8 4d3f d6ac 513f b84a 503f
00000090: d221 553f
1.1296955 1.0809978 1.1263258 1.1277164 0.752465 0.9536689 0.78844947 0.91614586
0.86569774 0.7735406 0.75600356 0.8358308 0.78580153 0.7286979 0.801348 0.8390147
0.8133318 0.74038374 0.85360634 0.8359406 0.8845029 0.99124026 0.8138785 0.89763695
0.8571855 0.792396 0.83413905 0.81346154 0.8360292 1.0283688 0.9398268 0.87941384
0.87514454 0.8045736 0.8190435 0.8136401 0.8325473

model.0.cross_attn_1.0.module.kv_norm.bias f4 [37]
00000000: 71ee 69ba f81f 02bc fe99 993b 9bfc 253c
00000010: 4e3c 7e3b edeb d53c 23cc aabb 68bc 9dbc
00000020: 9615 833b 7195 c3bb fa20 273c 5769 363b
00000030: 239f cdbb 8d40 343c f3ac b1bc 9784 4bbc
00000040: 3547 d2bb 4b88 89bc a9c3 133b 809e 403a
00000050: da39 6b3c d5bc 0abd fc31 b33d e8d9 af3c
00000060: 18ba a8bb b32a e5bb b3a1 3fbd 4f5c 26bd
00000070: 45c2 a1bd 9061 a5bc 4881 553d 3255 8d3d
00000080: 11b9 b73d 7f61 693d 15c8 01bd eb07 10bd
00000090: 0785 75bd
-0.0008923775 -0.007942192 0.0046875468 0.010131027 0.0038793269 0.026113475 -0.0052123233 -0.019254878
0.004000376 -0.0059687425 0.010200733 0.0027833784 -0.006275074 0.011001718 -0.021688914 -0.012421749
-0.00641718 -0.016788622 0.0022547042 0.0007347837 0.014357055 -0.03387149 0.08749768 0.02146621
-0.005149137 -0.0069936155 -0.046785068 -0.040615376 -0.07898382 -0.020188123 0.052125245 0.06901015
0.089708455 0.056977745 -0.031684954 -0.0351638 -0.059941318

model.0.cross_attn_1.0.module.attention.q_proj.weight f4 [32, 32]
00000000: 171c bb3d b782 b0bd d289 b9bb 1440 093e
00000010: 91c8 e83d ddc9 ee3c 0235 04be 3b73 33bd
00000020: d580 6b3d 09b0 e2bd 224a c83d 542c 033e
00000030: edf5 e13d 30a1 d9bd f3fc 543d 885c 01be
00000040: 1db8 a13d 208f 6f3d 2ff3 a33d a31b ebbd
00000050: 65ce a53d 3106 94bd a72c 223e 3b3a afbd
00000060: 0b77 793d 9c8e 823d 5b22 cf3d 7dda d1bd
00000070: 6bfd b9bc 0434 00be b7cf c7bd 76d1 05be
00000080: 37cd 853c d451 c03d 1346 1c3d b9ca 9fbd
00000090: ec81 49bd 1e90 37bb 77e1 3a3d b88a 853d
000000a0: 2e15 a7bd 1456 da3d fdb7 45bd e09e 35bd
000000b0: 0916 ecbd cac0 aa3d 2745 abbd 3631 a13d
000000c0: 8047 c8bd 4e0f abbd b52e bfbd d787 ca3d
000000d0: c279 ddbd 5c4b a73d 59d4 90bd 41df e53d
000000e0: 4061 ccbd e975 9fbd da71 7bbd ed4b 553d
000000f0: 8851 9bbd 2c1f da3a 55f8 5c3d 7697 d63d
00000100: 02e9 363b 7389 993d 3b6c a43d afd4 b0bd
00000110: c63b 95bd e5a2 1bbd 8c8c 843d ae25 a03d
00000120: 7c27 8fbd 2bb7 2f3d 648d 7cbd 1e5e 97bd
00000130: 79ed 70bd 363e a83d e1a5 77bd 4e55 a23d
00000140: d70f 7ebd 3ad7 69bd 5012 d6bc 9593 143d
00000150: 8e1b 9cbd 777f 3f3d 8407 9abd ec59 ae3d
00000160: b8f9 86bd e5e9 8cbd 535a 6bbd a92e 8d3d
00000170: c529 66bd 92a9 b63b 65ef 8f3d 01c5 a33d
00000180: cb1e 793d ad57 c13d 1b78 aa3d 8938 92bd
00000190: 0a6e 77bd fbdd 033b 9150 eb3c 7f1c 9b3d
000001a0: b8f4 8abd a39a 223d 2907 b3bc 64b1 3fbb
000001b0: 1666 07bd d2ea 9b3d bce2 98bd ff2d 833d
000001c0: ae4e 0ebd 7e45 6ebd b5db 95bd 77bd 2c3d
000001d0: 784a f8bc cef2 b03c a3c4 aabd 7d8d 8c3d
000001e0: c714 95bd caa4 06be d967 c0bd 97f6 873d
000001f0: 016b b6bd df9b 00bd b099 f63d e18c b23d
00000200: cb30 573e b242 813d 78ed bf3d 816a f13a
00000210: cd22 42bd d4e7 b9ba c097 14be 7fd7 de3d
00000220: b8a6 acbc 9dde 923c a950 963d 719d c23d
00000230: 08ae 3b3d 7e74 dabc 22f8 86bd 82c9 ebbc
00000240: 01c9 393d f50b 2a3c 3c05 95bc 3b67 e9bd
00000250: c917 4a3d f2a1 90bd e0ac ce3c 00d3 a53d
00000260: 580e c3bc 2bfc 97bd fa02 0dbd 99da 7d3c
00000270: 6e71 12be 5e57 51be 2d06 9a3d 0187 b43c
00000280: 2e7e 1f3e bb45 b03d eff9 f63d e4b5 54bd
00000290: dc90 0dbd ea05 72bc 0bed 75bd 31a2 dc3d
000002a0: ecc7 87bd a6ff a83d 3c65 24bd 307b 103d
000002b0: 2312 b3bd 8e8c 853d ae6c b2bd bfb4 b73d
000002c0: b81c febc 35b1 b4bd 1768 a4bd d7e9 433b
000002d0: 92ee 2ebd 9704 4a3d 5976 d2bc 51e5 8f3d
000002e0: 2514 e8bc e624 c7bd 6330 86bd d7de 063d
000002f0: a414 1dbe d42f 2fbe 6936 813d 9e41 903d
00000300: f147 3fbd 8d71 dfbd 9aee 7cbd a20f cb3d
00000310: 968f a33d 385b 0aba 1920 fcbc 0e03 27bd
00000320: b6cf 9b3d bdcf a7bd 673d aa3d c923 0a3d
00000330: 2a95 7f3d 7fe5 9cbd 3bfb 7f3d d958 e8bd
00000340: c17f 9e3d 0b8f b93d d01f 963d 0992 65bd
00000350: 0e2c 973d a362 e3bc 0c13 2c3d 4480 ddbd
00000360: 8c7a 113d bd58 ab3d d3b2 a73d e6b3 fabc
00000370: 97b7 873d 9579 d33c 2253 38bd 44c3 fdbd
00000380: 576b f9bd 9653 443d 345c 323b 3c90 c8bd
00000390: e864 d7bc 01c8 4cbc 43f8 f63d a798 883b
000003a0: fb9c 83bd cd36 a03d 6d67 e8bd 0bb0 f4bd
000003b0: 6680 9dbd 40ad d33d dde6 bfbc 9c50 803d
000003c0: c6dc 8cbd c96d 0fbd 578b 2bbd ec8b e63d
000003d0: d4b4 a7bd e870 f73c e8d8 ebbc 06a5 143d
000003e0: 72f2 9fbc bd11 82bb 85c3 48bd c8fe 503d
000003f0: 0c65 a93d b62c c53d 1e51 f93c 1bed 963d
0.09136217 -0.08618682 -0.0056621814 0.1340335 0.1136638 0.02914899 -0.12910846 -0.043811064
0.05749591 -0.11068732 0.09779765 0.12809879 0.11033235 -0.10626447 0.051999044 -0.12632954
0.07896445 0.058486104 0.08005368 -0.11479881 0.08096007 -0.072277434 0.15837346 -0.085560285
0.060904544 0.06374857 0.10113975 -0.102467515 -0.022703847 -0.12519842 -0.09756415 -0.13068184
0.016333206 0.093906075 0.038152765 -0.07802338 -0.04919617 -0.0028009485 0.045625176 0.06520599
-0.081583366 0.10660949 -0.048271168 -0.044340968 -0.1152764 0.08337553 -0.08362799 0.07870714
-0.097792625 -0.083525285 -0.093350805 0.09889191 -0.10814239 0.081686705 -0.07071752 0.11224223
-0.099794865 -0.077861615 -0.061387874 0.05207436 -0.0758391 0.001664137 0.053947765 0.10478108
0.002790988 0.074969195 0.08028456 -0.08634316 -0.072867915 -0.037997145 0.0647212 0.07819687
-0.06989953 0.042899292 -0.061658278 -0.07390998 -0.05882022 0.08214991 -0.06046093 0.07926427
-0.062026825 -0.05709002 -0.026131779 0.036273558 -0.07622443 0.04675242 -0.07520965 0.08513245
-0.06590599 -0.06880549 -0.057459187 0.06893665 -0.05619218 0.0055744136 0.07028083 0.0799656
0.060820382 0.09440551 0.083236896 -0.071396895 -0.060407676 0.0020121324 0.02872494 0.075737946
-0.06784958 0.039698254 -0.021854 -0.002925002 -0.03305634 0.07613148 -0.07465121 0.064052574
-0.034743004 -0.05817174 -0.073172964 0.042172875 -0.030308947 0.021600153 -0.08338287 0.06862924
-0.072793536 -0.131488 -0.09394807 0.0663883 -0.08907128 -0.03139865 0.12041032 0.08718277
0.21014707 0.06311549 0.093714654 0.0018418581 -0.04739647 -0.001418347 -0.14511013 0.10880946
-0.021075591 0.017928416 0.073396035 0.09502686 0.045820266 -0.026666876 -0.06590296 -0.02878261
0.045357708 0.010378827 -0.018190973 -0.11396643 0.04933909 -0.070621386 0.025228918 0.08096886
-0.02381055 -0.07421144 -0.034426667 0.015494012 -0.14301082 -0.20443484 0.07520709 0.022037031
0.15575477 0.0860705 0.1205939 -0.051931277 -0.034561977 -0.014771918 -0.060040515 0.10773123
-0.06629929 0.08251886 -0.040135607 0.03527373 -0.08743694 0.06520949 -0.08712135 0.089700215
-0.031019554 -0.08822862 -0.08027666 0.0029894018 -0.042707987 0.049320783 -0.025691198 0.070261605
-0.028329918 -0.09723835 -0.06552198 0.03292736 -0.15339905 -0.17108089 0.06309206 0.070437655
-0.046699468 -0.1091033 -0.061750986 0.09915091 0.07986371 -0.0005277875 -0.030777024 -0.040774398
0.07607977 -0.0819392 0.08312493 0.033725534 0.062398113 -0.076609604 0.06249545 -0.11345071
0.07739211 0.090604864 0.073302865 -0.056047473 0.0738145 -0.027756995 0.042010352 -0.1081548
0.03551726 0.08366535 0.08188405 -0.03060336 0.06626814 0.02581481 -0.045001157 -0.123907596
-0.121786766 0.047931276 0.0027215602 -0.097931355 -0.026293233 -0.0124988565 0.12059071 0.004168588
-0.06426426 0.078229524 -0.11347852 -0.1194764 -0.07690506 0.10335779 -0.023425514 0.06265375
-0.06878047 -0.03501681 -0.04188093 0.11257157 -0.08188787 0.030205205 -0.028789952 0.03629019
-0.019524787 -0.0039693997 -0.049014587 0.05102423 0.08271226 0.096276686 0.030434188 0.07369443

model.0.cross_attn_1.0.module.attention.q_proj.bias f4 [32]
00000000: 6748 bfbd f96b a83d 423f 8f3d f863 8f3d
00000010: 2ff6 3f3c feca 903d 3a06 a8bd 8013 463d
00000020: 5c2f d63d 5a78 bb3c 1b80 153e 5f37 273e
00000030: e87c c7bd 88c2 ee3d e164 f9bd e955 e53d
00000040: 2915 a83d 37b5 b8bd 38de 953d a975 7bbd
00000050: 82d3 7b3d e004 9f3d 1680 9ebd 393d a8bd
00000060: 22c4 a5bd c556 c1bc 13a4 103c efeb 33bc
00000070: 780b 8cbd bbe9 51ba ccbd 90bb 6b79 44bc
-0.093399815 0.08223719 0.06994487 0.070014894 0.01171641 0.07069968 -0.082043126 0.04835844
0.10458252 0.022884537 0.1459965 0.16329716 -0.09740621 0.11658198 -0.12177444 0.11198027
0.08207161 -0.09018939 0.073177755 -0.061391506 0.061481006 0.07764602 -0.07739274 -0.08214802
-0.0809405 -0.023600945 0.008828181 -0.010981544 -0.06838125 -0.0008007546 -0.004417157 -0.011991839

model.0.cross_attn_1.0.module.attention.k_proj.weight f4 [32, 37]
00000000: 3b79 b93c ebfc 82bc 2714 4f3e 4e38 a23d
00000010: f1be 7cbd 46fd da3c 7df4 07bc 5f9c 99bc
00000020: 66d9 d1bc 293f 25bd 51a4 5fbc 3623 babc
00000030: 3548 8e3b ded4 a1bc 7924 b8bc 2831 3abc
00000040: 37f5 00bd e8a0 07bd 2516 183c 67fd b1bc
00000050: 12fa edbc 0086 cfbd 2b82 173d 1ec4 98bc
00000060: 64e4 28bd f91a 4cbc f09a 22bd 105a a5bc
00000070: b587 16bd 1530 f0bd 46e1 09bd 1948 3bbd
00000080: a6fc 1abd 53a6 843a 423d 52bc e457 72bd
00000090: cdb8 bcbd 90d4 543d fb17 533d 33b6 46be
000000a0: 9cf5 a4bd 3317 743d 26ad 55bc 5391 083c
000000b0: e56b 223d 351a 58bb a7f7 2e3d d9c1 323d
000000c0: 6876 0b3d 1c1e 553b 0e43 853c 8848 1d3d
000000d0: 8de4 763c 6204 ce3c fc99 343d 8be0 143d
000000e0: baeb 4d3d 5169 05bb cc07 fd3d bf5d 8abb
000000f0: f75e 0c3d 8ee7 5c3c e6e1 013d 4b1a f73c
00000100: 8491 1e3d 759a 343d 9098 8c3d 06dd e33c
00000110: e12b a23c 6d25 7b3b 085c 03bd 79e7 953c
00000120: f4bd c5bb 8654 0e3d 3b50 aa3c 7854 623d
00000130: 3264 3abe 1dda 96bd fb81 243d cfd4 9ebc
00000140: e90e 113c 8f2e 0b3d 8fc2 14bd 79b7 253c
00000150: a509 31bc 6039 27bc f21b e5bc 4121 693b
00000160: d5ee dc3c f5ad b63c ac72 423b 655e db3c
00000170: d4a7 afbc 57ba 6ebc 3744 1abd a912 b13d
00000180: 0ac2 e53b 9213 533c 28a0 adbc 65e8 573c
00000190: 2cdc 283d 5b15 163d cbb2 503d 88b4 173d
000001a0: 657f 0ebd 7859 7dbc 8541 b3bc 425b 5cbb
000001b0: 8a78 4b3d 90d8 233d 9456 3f3d 6dc8 2e3d
000001c0: 86df 883d ba08 1ebe 1421 77bd a9e1 713d
000001d0: 0c8c cebb bca4 393b 7699 da3b 54c3 89bd
000001e0: 0ea5 1fbc 20b6 ffbc 4607 b4bb 87cd 073d
000001f0: 1d37 e4bb 99e2 2b3d 505e 7abb 280e fb3c
00000200: 3f9f f73b b73e d93a b71b 38bc 2642 c53c
00000210: 0358 e63d 9f2a 073d c8ef 283d 4cca dc3c
00000220: fbf3 ea3c 4452 373c 0f4e e0bc d34d 3c3d
00000230: bb67 983d c911 b0bc e1b7 8d3c c774 86bc
00000240: c181 6b3c f81b c63c 9526 8e3c e6aa 643d
00000250: 7f58 023e 42e9 e43d a87a 8a3c 64ed 6bbd
00000260: 906d ebba 4ae1 66bd b367 3a3d 98ff 89bd
00000270: 00aa cbbd 75f1 83bd c3fe 02be 2f45 44bd
00000280: ef94 6bbd de70 64bc ae49 b23c 68f1 87bc
00000290: 907e 56bd 00f6 60bd ed1f 5ebd b665 05be
000002a0: 1efa 8cbd 1849 9a3d 785b 77bc c33c 31bc
000002b0: 5fea 5dbd d455 85bc 8f00 b1bc 4782 97bc
000002c0: fee5 2cbd 0012 d6bc 559c 17be 82d8 993b
000002d0: aea7 dfbd cad0 7ebd 9d8d 5c3c 35e9 c3bb
000002e0: 3022 39bd 7533 9f3d c9d9 b33d 9668 24be
000002f0: 14d9 a5bd 1828 1a3d a0d7 27ba faa7 d73c
00000300: 1124 443b cb61 02bd 3f80 913c 3b0a 1fbd
00000310: d69f 1fbc e643 a4bc 5c40 b7bc 5cd2 ef3c
00000320: af75 953c c2e1 48bc f4fa f0bc cfd4 98bc
00000330: c9fc 74bd 4d09 013d 42d0 023e 1ef1 853c
00000340: 7044 923c 4895 353d f1f6 683c 1807 373c
00000350: e354 4c3d bf4a 0f3d 8440 213d ec02 02bd
00000360: bded 0ebd db9d 1abd f5f4 1dbc a917 1dbc
00000370: b26c 86bc df5e c93c 119c 02bd b2e0 49bd
00000380: c800 373e 2295 933d 13ed 27bd edb8 8a3c
00000390: 07c1 04bd 506d 4bb7 1929 6c3d c802 b63c
000003a0: 4e37 7fbb 6bc1 573c a56d d1bc de2e 36bc
000003b0: bc85 14bd da1a 81bb 5d67 953b 40f9 3abd
000003c0: af86 69bd b0c2 dbbc 834b 833c 9737 f1bd
000003d0: e094 dbbc 1074 73bd 7056 913c 33cb 05bd
000003e0: 5e8e 1a39 1433 1cbd 8a8e 24bd abbc 40bd
000003f0: 68ff 213c 4c97 123d 9482 583d 6f16 b43b
0.022640815 -0.015989741 0.20222531 0.079208955 -0.061705533 0.026732098 -0.008298037 -0.018751321
-0.025616359 -0.040343437 -0.013650016 -0.022721868 0.004342104 -0.019754823 -0.022478329 -0.011364259
-0.031483855 -0.033112437 0.009282623 -0.021727277 -0.029049907 -0.1013298 0.036989372 -0.018648203
-0.041233435 -0.012457603 -0.03969854 -0.020184547 -0.036750514 -0.11727921 -0.033662103 -0.045723055
-0.0378386 0.0010120369 -0.012831988 -0.05916585 -0.092149355 0.051960528 0.05153654 -0.19405441
-0.08054659 0.059592437 -0.01304177 0.008335429 0.039653677 -0.0032974605 0.04271665 0.0436419
0.034048468 0.0032519167 0.016267326 0.03839925 0.015069139 0.025148574 0.044092163 0.036346953
0.050273634 -0.0020356963 0.12355003 -0.004222601 0.034270253 0.013482941 0.031709574 0.030163905
0.038712993 0.044092614 0.068650365 0.027815353 0.019796314 0.0038321868 -0.03207019 0.018298851
-0.006034607 0.034748577 0.02079021 0.055256337 -0.18202284 -0.073658206 0.04016302 -0.019388584
0.0088536525 0.03397995 -0.036318358 0.010114544 -0.010805522 -0.01020655 -0.027967427 0.00355728
0.026969353 0.022299746 0.00296704 0.02677841 -0.021442331 -0.014570794 -0.03766271 0.08646137
0.0070116566 0.012883084 -0.021194533 0.013177966 0.041225597 0.03664146 0.05095176 0.037037402
-0.03478946 -0.015463226 -0.021881828 -0.003362373 0.049675502 0.040001452 0.046713427 0.04267161
0.06683259 -0.15433016 -0.06033428 0.059053097 -0.006303316 0.002832695 0.006671126 -0.06726709
-0.009743942 -0.031214774 -0.005494031 0.03315499 -0.006964578 0.041964147 -0.0038203187 0.030646399
0.0075568254 0.0016574477 -0.0112370765 0.024079394 0.11247256 0.03299963 0.0412443 0.026951931
0.028680792 0.011189047 -0.027380971 0.045972656 0.0744166 -0.021492856 0.017299594 -0.016413106
0.014374197 0.024183258 0.017352382 0.055827044 0.12729071 0.11177303 0.01690419 -0.05759944
-0.0017961729 -0.056367196 0.04550905 -0.06738204 -0.09944534 -0.06442539 -0.12792496 -0.04791754
-0.05751508 -0.013942925 0.021763649 -0.016594604 -0.052366793 -0.054922104 -0.054229666 -0.13027081
-0.068836436 0.07533473 -0.015097491 -0.010817709 -0.05417859 -0.016276278 -0.021606712 -0.018494738
-0.042211525 -0.02613163 -0.1480573 0.004694999 -0.10920654 -0.062210836 0.013461498 -0.005978728
-0.04519862 0.077734865 0.087817736 -0.16055521 -0.08098045 0.037635893 -0.0006402675 0.026325215
0.0029928724 -0.031831544 0.017761348 -0.038828116 -0.009742698 -0.020051908 -0.022369556 0.029275112
0.018244592 -0.012260856 -0.029416539 -0.018656163 -0.059811387 0.03150301 0.12774757 0.016350325
0.0178549 0.04433182 0.014219032 0.011171125 0.04988564 0.034983393 0.039368168 -0.031741068
-0.034894694 -0.0377482 -0.009640922 -0.009588161 -0.016409252 0.02458137 -0.031887118 -0.04928655
0.17871392 0.07206179 -0.040997576 0.016933883 -0.032410648 -1.2125194e-05 0.05765638 0.022218123
-0.0038942876 0.013168673 -0.025564978 -0.011119572 -0.03626035 -0.0039399685 0.004559441 -0.04564786
-0.05701321 -0.026826233 0.016027218 -0.11778181 -0.026804388 -0.059436858 0.017741412 -0.03266449
0.0001473962 -0.03813465 -0.040175 -0.047054928 0.009887554 0.03578882 0.052858904 0.0054958384

model.0.cross_attn_1.0.module.attention.k_proj.bias f4 [32]
00000000: 0f72 fdba e52b 08bc 0978 1abb a6dd 7fbb
00000010: 6f4d e4bb 3066 a9bb 555c 623a b15c 563b
00000020: 619f 8cbb 4c9f edbb 149f 9fbc d3a2 81bc
00000030: d290 093b ac33 ec3a b076 3a3a bb0e 73bb
00000040: 1359 b8ba 52ac 5a3b 5826 b6b9 a964 4e3b
00000050: 027d 8bbb 30d5 29ba f298 503b 54a0 873a
00000060: d33d 0dba e46f 3bba dc58 9f3a 02c4 2bbb
00000070: 5649 6e3b c750 15ba 39f3 9239 8182 183b
-0.001933636 -0.0083112465 -0.0023570082 -0.0039042025 -0.0069672386 -0.0051696524 0.00086349744 0.0032709057
-0.0042914604 -0.0072516557 -0.019485034 -0.015824711 0.002099086 0.001802077 0.0007113023 -0.0037087637
-0.0014064632 0.003336687 -0.00034742313 0.0031493104 -0.0042568455 -0.0006478606 0.0031829444 0.0010347464
-0.00053879357 -0.0007150157 0.001215722 -0.002620936 0.003635963 -0.00056959357 0.00028028505 0.0023271146

model.0.cross_attn_1.0.module.attention.v_proj.weight f4 [32, 37]
00000000: 4c5f 92bd bd8c f3bc 71e8 133e caeb 693c
00000010: 77f9 89bb 8188 983b 6296 3b3d 3f3c b23c
00000020: 5634 d3bb 906d 6dbb df5b 9b39 d2bb 2dbd
00000030: df59 e03b 02a9 0dbb 9d61 8c3c 7ef2 67bc
00000040: 9677 30bd 5f9d b2bb ef19 78bb 98ef a83c
00000050: 3224 443b bef0 bebc fd15 1d3d b7a2 48bd
00000060: e739 a7bc ad91 d73c 9cee 983c 6c21 003c
00000070: ee27 43bc 0003 1dbc c60e 8a3c 94f1 04bd
00000080: 56a2 eb3b 048c 1fbc 82bc 0abd 9331 943c
00000090: 05c4 9a3c 077e 7abd 4a52 05bd f63c c93d
000000a0: 7830 863c 4ebc 323d 7cbc a1bb 6e12 c83c
000000b0: 95a5 8d3c d9f2 f13b 5ca7 833b 8ed7 04bd
000000c0: 5eba e13b 5caf b03c b516 b3bb 60e4 023b
000000d0: d5a2 273d 5bbc 383c b61e c03a f884 90ba
000000e0: eca2 173b 9f65 4ebc c982 103d 3829 f73b
000000f0: 2168 ae3b 1318 fc3b 78d0 af3b 115c e73c
00000100: e1ee 003d a534 be3c 1967 1bbd de68 91bd
00000110: 9a61 ac3c dfa7 a7bc e024 6f3c ee08 343c
00000120: 8c1d 123d 0414 583c aa3a 453c 18c0 2c3d
00000130: 29f7 9cbd 80e2 943d 55de 523c 78b3 673d
00000140: 493e 163d d9fb 0abd d361 2fbd cff3 b2bd
00000150: 89a8 7ebd dbbe 69bd d4a0 11bd ec45 803b
00000160: 38fa 84bd b0f7 12bd fea4 48bc e256 07bd
00000170: 0e9f 40bd 01c2 8abc c61c 12bd 28e4 e93d
00000180: e640 60bc 42ad 91bb 86a6 04bd 741b 38bd
00000190: 2f79 41bd c9ee 73bd b8f9 ccbd 62d8 c03c
000001a0: eaeb 85bc 1dab 4cbd 16bf 82bd e55e 0dbd
000001b0: 493a 26bd b565 06bc 0d25 39bb 921d d73c
000001c0: e072 be3d dd7a ecbd 7e47 563d 8acf f6bc
000001d0: c003 9d3d 2736 873b 2abc f0bc 747f a5bb
000001e0: 26e2 9dbc fffe ebbc fa9b 2ebd 4d3a 10bc
000001f0: c7c8 f0ba 05cc 7ebc b16b 79bd 5299 29bd
00000200: 0b47 81bc 0780 65bd 8e83 65bb b9f5 92bd
00000210: a08f 873d 2987 84bc ed37 65ba b907 f3bc
00000220: fa02 f3bc dc9b 02bd 1ce6 98bd 3d08 44bd
00000230: 7ca6 a03d 2c60 ad3c 208f 65bc bfbc f9bc
00000240: 6277 6c3b 6714 d9bc e3e0 b3bd 44c7 06bd
00000250: b5da d0bb 6bd9 ff3d 8e13 15be 3a4e 43bd
00000260: 5839 81bc 3c8c babc bb06 cabb 522c 31bc
00000270: 48cc 48bc e6d8 ee3b fe08 92bc 0be3 e2bc
00000280: a457 93bc 853e a33a a84a efbc abfc 44bd
00000290: 0ec3 44bd ebbb 94bb 19ed 50bd fe3e 13bc
000002a0: 4217 11bd e496 8e3d 47bb fcbc 0de9 5fbc
000002b0: 012d 14bd c07c 05bc a826 8dbc 0878 7ebd
000002c0: a5da 0abd 8546 153e facb c5bc 0313 0cbd
000002d0: 7859 68bc d8aa 21bd 071e 5ebc 9045 c9bb
000002e0: 8136 cebc 0697 7b3d 5168 e3bd 2a90 3c3d
000002f0: da95 5bbd 9d97 253d d50d 253c 552c 83bc
00000300: ab74 a93b f3cb f13c a857 063d 9bb7 053d
00000310: e357 193d cc0a 0a3c cc78 d53c 3de7 8e3d
00000320: 8ff1 3c3c 7054 463c 7e39 1f3d e05b 883c
00000330: e61a 543d bab4 60bc 4c45 a6bd 69ed fa3c
00000340: aad9 973b db59 553d 396b 933d a53a 0c3d
00000350: 3e04 993c 1a8d 9d3d 6f8b bebd ab5f c1bc
00000360: 48c6 033d 3232 26bb 17ae 4a3d 5ee0 eb3c
00000370: 56a2 6b3d 5917 b33d cd17 65bd a367 50bc
00000380: 6ded 963d 2a17 e83c 7bcd 88bc 38ea db3b
00000390: d022 c0b7 514d b9bb c153 03bd 6035 8fbb
000003a0: 1a6a 133c 1ad5 f8bc c64f 5fbc fa8f 74bc
000003b0: 7342 2cbc 0f6e 4b3c 7899 febc 1796 8d3c
000003c0: 44b0 1cbc 3645 aabb 532e 33bb abec a8bb
000003d0: bf54 953c 2b43 c0bb 71f9 893b cbf8 613c
000003e0: 213a 933b 50d0 813c ce86 5f3d cbdf 6a3c
000003f0: 71ef 07bc 73af 66bc 846b 6639 9cd4 06bd
-0.07147083 -0.029730195 0.14444138 0.014277408 -0.0042106467 0.0046549444 0.045797713 0.021757243
-0.006445448 -0.0036228634 0.00029632353 -0.042415448 0.006846651 -0.002161563 0.01713639 -0.014156936
-0.043082796 -0.005450889 -0.0037857255 0.02062206 0.00299288 -0.023308154 0.038351048 -0.048983302
-0.020413352 0.02631458 0.018668465 0.007820468 -0.011911375 -0.009583235 0.016852748 -0.03245695
0.007190983 -0.009737972 -0.03387118 0.018090045 0.018892298 -0.061155345 -0.03254918 0.098260805
0.016380534 0.043636613 -0.004935799 0.02442285 0.01729087 0.007383686 0.0040177535 -0.03243213
0.006888672 0.021567993 -0.0054653534 0.0019972548 0.040926773 0.011275376 0.001465759 -0.0011025956
0.002313788 -0.012597471 0.035280976 0.0075427555 0.0053224717 0.0076932996 0.0053654276 0.028242143
0.031477813 0.023218462 -0.03794012 -0.0710008 0.021042634 -0.02046579 0.014596194 0.010988457
0.03567271 0.013188366 0.012037912 0.042175382 -0.076643296 0.07269764 0.012870391 0.05656764
0.036680494 -0.033931587 -0.0428179 -0.08737909 -0.062172446 -0.05706678 -0.03555377 0.0039145853
-0.06493038 -0.035880744 -0.012246368 -0.033041842 -0.047026686 -0.016938211 -0.03567197 0.114204705
-0.013687348 -0.004445703 -0.03238537 -0.044948056 -0.04723471 -0.059553895 -0.100085676 0.02354068
-0.016347844 -0.049967874 -0.06384103 -0.034514327 -0.04058293 -0.00820296 -0.0028250844 0.026259217
0.092992544 -0.11546872 0.052314274 -0.03012826 0.07666731 0.0041263285 -0.029386599 -0.005050594
-0.019272875 -0.028808115 -0.04262922 -0.0088029625 -0.0018370383 -0.015551572 -0.06089372 -0.041405983
-0.015780946 -0.0560303 -0.003502104 -0.07175774 0.06619191 -0.01617773 -0.00087439903 -0.029666768
-0.029664505 -0.03188692 -0.07465765 -0.04785942 0.078442544 0.021164022 -0.014011174 -0.030485509
0.00360819 -0.026498986 -0.08783128 -0.03290488 -0.006373728 0.12492641 -0.14558241 -0.047682025
-0.015774414 -0.022771947 -0.006165353 -0.010813789 -0.012255736 0.00728904 -0.017826553 -0.027696153
-0.017986126 0.0012454545 -0.029210404 -0.048092525 -0.04803758 -0.004539003 -0.051007364 -0.0089871865
-0.03542257 0.06962374 -0.03085102 -0.0136664035 -0.03617573 -0.0081474185 -0.017230347 -0.06212619
-0.033899922 0.14577682 -0.024145115 -0.03419782 -0.014181487 -0.03946957 -0.013556964 -0.0061423257
-0.025172474 0.061423324 -0.11103881 0.046035923 -0.053609706 0.040427793 0.010074099 -0.01601235
0.0051713786 0.029516196 0.03279844 0.032645803 0.03743733 0.008425426 0.026058577 0.06977699
0.011532201 0.012105092 0.03887319 0.016645372 0.051783465 -0.013714964 -0.08118686 0.030630784
0.004634102 0.052087646 0.071981855 0.034235615 0.01867878 0.076929286 -0.093039386 -0.023605188
0.032171518 -0.0025359509 0.04948243 0.02879351 0.057527862 0.087446876 -0.0559309 -0.012720021
0.07369504 0.028331358 -0.016699543 0.0067112707 -2.2904394e-05 -0.005654969 -0.032062296 -0.0043703765
0.008997465 -0.030375052 -0.013629859 -0.014926905 -0.01051389 0.012416377 -0.031079039 0.017283482
-0.009563509 -0.005196239 -0.0027340844 -0.005155166 0.018228887 -0.005867382 0.004210644 0.013792227
0.0044930135 0.015846401 0.05457192 0.014335583 -0.008296833 -0.014079916 0.00021974562 -0.032917604

model.0.cross_attn_1.0.module.attention.v_proj.bias f4 [32]
00000000: d2ae 423a 6f29 113b 2e4b 9fbc 7f5f 57bc
00000010: 6a82 92bc 195f 4c3c 2d85 133c 5e6b 7f3a
00000020: e584 8a3b ca19 81bb 149d edbb 0a6e 22b9
00000030: 0666 913c a51d bb3b 09ff 95bb efa7 bbbb
00000040: 898a 8eba 85a4 01bc 226d 133a 4901 47bb
00000050: f1f1 cdbb 4f12 603b 0d7d 743c 8e57 48b9
00000060: 213e b5bb a0a1 f6bc 5b08 4cbb 6eef b7bb
00000070: 3280 39bb f275 acbc 5cfb 44bc 3cf0 dc3b
0.0007426563 0.002214994 -0.019445028 -0.013145327 -0.017884452 0.012473845 0.00900392 0.0009743477
0.004227268 -0.003939842 -0.007251391 -0.00015490517 0.017748844 0.005710321 -0.0045775217 -0.0057268064
-0.0010875027 -0.00791276 0.0005623867 -0.0030365756 -0.006284945 0.00341906 0.014922393 -0.00019106103
-0.005531088 -0.030106366 -0.003113291 -0.005613259 -0.002830517 -0.021052334 -0.012022819 0.0067425054

model.0.cross_attn_1.0.module.attention.o_proj.weight f4 [32, 32]
00000000: 4d86 1e3e 7f4f 0f3e 84a7 bebd 3ac5 39be
00000010: c941 b6bd d04a 9e3b 9b8e cc3d fcf1 cdbd
00000020: bc89 81bd ef73 71bc e44c fe3d a4f8 92bb
00000030: 3de1 ef3c 0160 2e3d c0a4 373d f1d8 a3bd
00000040: a7d1 c03d f213 81bd a978 8abd 2b08 c8bc
00000050: 15c6 d3bd 19e6 28bb 8bd2 c13d 3a2e e03b
00000060: 4168 23bd 0aa0 8d3d 5ae0 973d a37a 5e3d
00000070: 74c5 103d 11bf debd 6d2d 07be 180d f43b
00000080: 0518 963d daad 7b3c d94b b6bb fdd1 d2bc
00000090: 6118 a93b f399 c2bc 4a10 be3c d9da 8abd
000000a0: b0a9 733c b2a7 dbbd 7fc7 293d 8775 febd
000000b0: 52db 50bc 6f8b 8bbd bd57 b3bd fa3f fcbd
000000c0: 0b90 7cbc 7066 86bc d67c 8b3c fbf6 963c
000000d0: f529 0d3c 7a81 07bd b43e abbb daa0 14bc
000000e0: f676 8e3d f8d1 6c3d 036b 493d 43a0 89bd
000000f0: 4fef 5d3c 071b 8f3d 24bd 743d 426b 513d
00000100: 9848 1c3c 0e2b 533d 2bb6 2f3d b665 463c
00000110: 9dfc 813c c9f1 cdbb e94e e33c eba1 023c
00000120: 5daf c33d 68c3 b3bd a0b8 2939 ea44 d6bd
00000130: 3bb1 3abd 3063 8abd f2d7 d8bd c42a 18bd
00000140: 7137 6b3c 9082 013d 8c0b 1f3c 6ee7 a6bc
00000150: 9b7e 573b e306 a9bc 74dc 66bd a975 f1bc
00000160: 3b4d 5e3c 728d de3c 06ee 4c3c 17c8 0cbd
00000170: 26bc c63c c1d4 f63d 4de9 ba3d fca2 ae3c
00000180: 94b1 093b 7112 3f3d 8af8 d63c 60c3 8c37
00000190: b677 12bd cfd4 68bc e019 0b3d 2359 adbd
000001a0: 0fca ae3c c860 eabb 34ab 09bd 0a84 b53b
000001b0: 67bf e53c b7ef 8e3b 72c4 d7bd d52a 59bc
000001c0: 8535 56bd b8a3 4c3d 32e2 563d 4472 85bc
000001d0: e48e 3b3c 805a 2abd f183 51bd c38d dbbc
000001e0: 2d10 0abd e7ac 0cbd b402 c3bd 8297 d53c
000001f0: b820 e9bc 56cf 833c 7b20 e8bb dd3b e8bd
00000200: be43 35bd bf24 443d 32b5 923d a990 ed3c
00000210: d337 913d b916 43bd 3afb 67bc 574b fabc
00000220: 92cc 64ba d860 adbc 981a b13d cb8f 5cbd
00000230: 9f32 263d d991 07bd cd93 573c 201a 16bd
00000240: bd5f 0dbd 6bc0 3abb 59d3 18bb a5f6 53bd
00000250: 2912 bbbc 285c d43a 381f dd3b 9789 933c
00000260: ece4 cebd 1975 9dbd 407e 19be cddc dc3c
00000270: 26bd c2bd 31b0 1f3d 512d 9c3d 2ebc bebd
00000280: c121 4b3d d58e afbc 1c5a 033d 1a1e 943d
00000290: 53a4 81bc 5cb9 c639 d1bd a53c e7e3 b83c
000002a0: 2f80 2b3d 50fe 633c bdd7 c2bc 3dfe 553d
000002b0: 3009 e3bc bc4f 823d 9124 6fbd dfef 023d
000002c0: baf8 56bd 8461 083d 5b2c c83c 43a0 893b
000002d0: 3261 933d d699 44bc daaf efbc 8625 96bb
000002e0: 216f 683a 3bb9 88bc 43e8 d23c 9246 00bd
000002f0: dcd9 ae3d efc1 8bbd 6d54 27bd 0130 2d3d
00000300: 7e2e aa3b e207 49bc 39ad 82bd 7d95 9dbd
00000310: 83f6 a4bc 07b0 5f3d e9c8 0b3c 2fff 233d
00000320: 72f1 04bb 9d7b e13c 4f3d 70bd 9bb1 8f3d
00000330: 08c8 e83d d603 783c 2c4d 923d 4cb9 6e3b
00000340: a0f2 a83d 46f4 47bd 8196 59bd 30d7 9e3d
00000350: 42e2 30bd 8928 973d f340 8f3d 45c1 c4bc
00000360: e264 e83c 05f5 133c 084e f63c 2668 2abd
00000370: 6bb0 463d 97ff aabc 435f 5ebd c9f9 2c3d
00000380: 4b1b 9cbd e292 5abc ceb7 e93c 32cb 96bd
00000390: 50c0 fdbd fe61 cd3d 3e5c 3abc 311e cb3d
000003a0: ec0a 3b3d 0e33 bf3c 02d3 0ebe 1c92 aabc
000003b0: 37ba ce3d 4465 97bd 3327 853c c93c 2ebb
000003c0: 1cba 3b3d 84d5 b03c 2705 6e3d 2904 ca3d
000003d0: cb92 633c 0245 b63d c38d 94bc 7328 7a3c
000003e0: aa0f 773d cc92 58bd 6806 663c ce59 e6bd
000003f0: cd8b d53b 9c89 d83d 33a4 213b 352e 003e
0.15480919 0.13995169 -0.09309295 -0.18141642 -0.08899266 0.0048306957 0.09988137 -0.100559205
-0.06325099 -0.014737113 0.124170095 -0.0044852067 0.029282207 0.042572025 0.044834852 -0.08000363
0.09414988 -0.063026324 -0.06761295 -0.024417957 -0.103405155 -0.0025771915 0.09463986 0.006841448
-0.039894346 0.06915291 0.074158385 0.054316174 0.035344556 -0.10876287 -0.13200922 0.00744785
0.073288 0.015361274 -0.005563241 -0.025734896 0.005160377 -0.02375505 0.023201127 -0.06780023
0.014872 -0.10725345 0.04145002 -0.1242476 -0.012747603 -0.06813704 -0.08756969 -0.1231689
-0.015415202 -0.016406268 0.0170273 0.018428316 0.00861596 -0.033082463 -0.0052259807 -0.009071553
0.06956284 0.05781743 0.04917432 -0.067200206 0.013545825 0.06987577 0.05975069 0.05112768
0.009538792 0.051554732 0.04289834 0.012109211 0.015867526 -0.0062849266 0.027747588 0.007973175
0.09554932 -0.08777505 0.00016185874 -0.10462363 -0.045579176 -0.067572 -0.10588063 -0.03715016
0.01435648 0.031618655 0.009707343 -0.020374026 0.003288186 -0.020633167 -0.056362584 -0.02947505
0.013568218 0.027167056 0.012507921 -0.034370508 0.024259638 0.12052298 0.0912653 0.021317951
0.0021010386 0.046648446 0.02624156 1.678028e-05 -0.035758696 -0.014210894 0.033960223 -0.08464267
0.021336583 -0.0071526505 -0.033610538 0.005539422 0.02804537 0.0043620723 -0.10535516 -0.013254841
-0.052297134 0.049960822 0.05246181 -0.016289838 0.011447642 -0.041590214 -0.05115122 -0.026800996
-0.033706833 -0.03434458 -0.09522 0.026073221 -0.028457984 0.016090076 -0.00708395 -0.11339543
-0.044254057 0.047886606 0.071634665 0.028999643 0.07090726 -0.047629092 -0.014159018 -0.030553503
-0.0008727993 -0.021164343 0.086476505 -0.05384807 0.04057562 -0.033098076 0.013157797 -0.03664601
-0.03451513 -0.0028496038 -0.0023319332 -0.05174889 -0.022835808 0.0016201781 0.0067481063 0.018009944
-0.10102257 -0.0768835 -0.14989567 0.026960755 -0.095087335 0.03898639 0.07625831 -0.09313236
0.049592737 -0.021430412 0.032068357 0.07232304 -0.015825426 0.00037903606 0.020232113 0.02256961
0.041870292 0.013915613 -0.023784513 0.052244414 -0.027714342 0.063628644 -0.05838448 0.03196704
-0.052483298 0.033296123 0.024435213 0.004200013 0.07196273 -0.011999568 -0.029258657 -0.00458211
0.0008866657 -0.016689887 0.025745517 -0.0313173 0.08537647 -0.06824099 -0.040852 0.04228211
0.0051935306 -0.012269946 -0.06380696 -0.07694528 -0.020137077 0.054611232 0.008531787 0.040038284
-0.0020285514 0.027524764 -0.05865222 0.070162974 0.11366278 0.015137633 0.071436256 0.0036426364
0.08249402 -0.04881694 -0.053122047 0.077558875 -0.043184526 0.07380778 0.0699481 -0.02401794
0.028368417 0.009030585 0.030066505 -0.04160323 0.04850809 -0.020873828 -0.054290067 0.0422304
-0.07622393 -0.013340684 0.028530028 -0.07362975 -0.12390196 0.10028456 -0.011374531 0.09917868
0.045664713 0.023339774 -0.1394768 -0.020821624 0.100941114 -0.07392362 0.016254043 -0.0026586524
0.045831785 0.021586187 0.058110382 0.09864075 0.013889979 0.08899881 -0.018134004 0.015268433
0.060317673 -0.05287437 0.014039613 -0.11247598 0.0065169097 0.10573122 0.002466452 0.12517627

model.0.cross_attn_1.0.module.attention.o_proj.bias f4 [32]
00000000: a4ec 2f3c 0eab 313c 7ccd 28bc ba48 c9bb
00000010: cffd 53bb f644 f9ba 3752 c23b bbca 393c
00000020: 7187 a6bb 3dcd b73b ab2e 98bc 4f66 b03c
00000030: 27d4 aabc 901b 443c df79 64bc 320f 5cbb
00000040: b056 66bb f6c8 31bb e75d 03bb 9304 573c
00000050: 7400 69bc addc 083b 4e1a 94bc a99d 5d3c
00000060: 9e9c 84b9 7e65 62bc 29e1 e5bb a719 043c
00000070: 672c 80bb 0bba 90ba 6ef7 063c 032b 0d3d
0.010737572 0.010844005 -0.010302898 -0.006142703 -0.0032347327 -0.0019017744 0.005930211 0.011339839
-0.005082064 0.005609183 -0.01857694 0.02153316 -0.020853115 0.011969462 -0.013945072 -0.0033578393
-0.0035146885 -0.0027127839 -0.0020044984 0.013123649 -0.014221299 0.0020883486 -0.01807895 0.013526359
-0.0002529369 -0.013818143 -0.0070153666 0.008062757 -0.003911543 -0.0011041773 0.008237703 0.034464847

model.0.cross_attn_1.1.module.0.weight f4 [32]
00000000: fa19 923f 90ec 893f bb33 883f d957 813f
00000010: 8853 823f dcb9 683f 3a7f 883f a68e 863f
00000020: 5874 813f cf1d 863f 703f 823f 9449 8d3f
00000030: 3a05 823f 49d6 723f 0f2e 773f ebb3 883f
00000040: 0e74 923f 7161 853f 128b 813f c9f2 8b3f
00000050: dd7e 7d3f 8dfe 803f 0033 a43f 92be 863f
00000060: 30ed 843f ba13 903f fd84 803f e339 813f
00000070: f83d 8e3f 8b15 8f3f a421 833f 4edc 7e3f
1.1414177 1.0775318 1.0640787 1.0104934 1.0181742 0.909086 1.0663826 1.0512283
1.011363 1.0477847 1.017561 1.1038079 1.0157845 0.94858223 0.96554655 1.0679907
1.1441667 1.0420362 1.0120566 1.0933467 0.99021703 1.0077683 1.2828064 1.0526907
1.0384884 1.125602 1.0040585 1.0095791 1.1112661 1.1178449 1.0244641 0.9955491

model.0.cross_attn_1.1.module.0.bias f4 [32]
00000000: 731b a3ba 8188 f1bc 3eda 94bc 681d 4d3d
00000010: e597 9a3c 7703 483d e1dc d4bc 565d 9fbd
00000020: e5f7 063d 761f f3bc f1b5 6f3d 91b6 93ba
00000030: 80a3 873d e461 c8bd bbf5 a73d 6e72 0d3b
00000040: 38cc 8f3d f0ec dd3c 5238 3d3d b8cb e0bc
00000050: 5bff 4e3d a7aa 19bd 788d db3c 9baf fdbc
00000060: bc4a 77bb 8054 45bb ad5b 863d 04ef 82bd
00000070: a8f8 5c3a 5dfa beba 5bf9 08bd 383f b6bd
-0.0012444094 -0.029484035 -0.018170472 0.050076872 0.018871257 0.04883143 -0.02598423 -0.07781474
0.032951254 -0.029678088 0.058523122 -0.0011269619 0.06622982 -0.09784296 0.08201166 0.0021583098
0.070213735 0.02709052 0.04619629 -0.02744089 0.050536495 -0.037516262 0.026800856 -0.030967524
-0.0037733754 -0.003011018 0.065604545 -0.06393245 0.00084293867 -0.0014570464 -0.03344093 -0.08898777
